neural_network/checkpoint_model_1.pt (torch_old, 11898 bytes, 32 tensors)

layers.0.weight f8 [10, 3]
00000000: 1b95 c2c9 273c de3f ef62 640d e0ec cf3f
00000010: b8b4 e153 727b debf 3da2 59eb 3867 d5bf
00000020: 7718 929f 4aa2 a93f 6620 0e2f 5b01 d3bf
00000030: f83f 15d9 2ce2 d4bf 6f49 1fd1 0bd7 d2bf
00000040: 1c56 ff46 da42 ccbf 3c38 f2ac 34ff a43f
00000050: cc28 8c77 ee73 dfbf 842e 3858 f2c9 d8bf
00000060: df82 eaba 7ea6 d9bf 653c b32b b239 c0bf
00000070: d4f5 7cd5 e7a1 b9bf 3766 77e0 e3b1 dbbf
00000080: cbc8 786c 93b9 b7bf 5da1 f34a c979 debf
00000090: 31bf ec5d 3452 e03f fc59 705b 287b cabf
000000a0: b2c8 d0b2 343f dabf eb39 dd3d e321 e1bf
000000b0: 0448 999a 5222 d9bf bb64 1191 5cfa c23f
000000c0: c353 12f4 bbaa e23f 06d2 b694 a289 b1bf
000000d0: 0656 fccd f44a d83f 15bd 1d0f 1880 b33f
000000e0: fcc6 80a1 0f1d df3f 7326 bd2f a08c d7bf
0.47242159560330926 0.24941635755455802 -0.47628458205765467 -0.3344251917210704 0.05006631086239193 -0.29695777507050136 -0.32630463790428577 -0.2943753759583591
-0.22079018084211632 0.041009565459817016 -0.49145089792785934 -0.387325845863167 -0.4007870507576125 -0.12676074155612863 -0.10012673341858341 -0.4327325527243348
-0.09267541311490672 -0.4761832458448419 0.5100347361057854 -0.20688347306050037 -0.4101077791448332 -0.535386677578399 -0.392719889617297 0.14826542933841388
0.5833415762923483 -0.06850639467922556 0.3795749675349217 0.07617330903098136 0.48614874622136006 -0.36795811330794165

layers.0.bias f8 [10]
00000000: 421e faff 1232 c6bf 8dac e4ff 69ca b0bf
00000010: c07b 0200 8f7c c23f 7967 ff9f 1bdb e0bf
00000020: a599 e8fc bf7a 7fbf 5a80 f2ff dd1b b0bf
00000030: df1b 0080 b427 e23f 72f1 0b00 6c0a c6bf
00000040: f215 fd3f a3e2 d2bf 6c9c f9ff 96f3 ca3f
-0.17340314387205252 -0.06558859345811836 0.14442622662042304 -0.5267465710596603 -0.007685422852352995 -0.06292521952355071 0.5673468112953478 -0.17219305040624594
-0.29508286713493626 0.2105587720754757

layers.1.weight f8 [10]
00000000: ec59 2bb9 6efc ee3f 6670 f39b 31c6 ee3f
00000010: 4174 91ae 591d f03f e749 a04e f587 ef3f
00000020: cbc0 8a5d 6459 f03f f6be b8ff 7394 f03f
00000030: 881e 4a64 111f ef3f 9432 5dca 12e7 ef3f
00000040: 9a8f b1f6 d243 f03f 8539 be49 5218 f13f
0.9683145157421769 0.9616935773770023 1.007165605456308 0.985346463743835 1.0218242315277617 1.03624343768382 0.972542472722993 0.9969572021887694
1.0165586124867105 1.0684378510082706

layers.1.bias f8 [10]
00000000: f067 e494 86fb a03f 52b6 f025 3285 9c3f
00000010: 17b3 dbfa 8031 b1bf ad93 d255 eb52 89bf
00000020: 3d6d 21a8 d974 523f a015 b045 922e a83f
00000030: 79c1 e11b 113e aabf c5d2 ced7 3463 a43f
00000040: aaef bf1c d2f1 ab3f a24e a2ac 1dca b73f
0.03316898887187836 0.027851852002802886 -0.06716161846607026 -0.012365187222096308 0.0011264920763299345 0.04723031140023726 -0.05125478234629361 0.03981938490270446
0.05457932091664415 0.0929277941198117

layers.1.running_mean f8 [10]
00000000: 6bf9 0fcd 7a4c 26c0 756d b894 dd43 27c0
00000010: 6976 c660 87ae 0dc0 4c72 870b 840f f6bf
00000020: 5b50 ddf0 c8db 11c0 e9d6 32c7 cd44 2dc0
00000030: 5d20 d9cb fc37 e8bf 41a3 698d e819 1240
00000040: 7257 06d2 9927 3040 4866 93b2 0a28 30c0
-11.149374397468554 -11.632549903405314 -3.710219150597187 -1.3787880373339645 -4.464633716113975 -14.634382462459557 -0.7568344098481351 4.525301179478277
16.15469086317848 -16.156413231836524

layers.1.running_var f8 [10]
00000000: f8c5 c5a5 ee0a 2940 576e 3fad 865a 1d40
00000010: b1b9 3a0e 6549 1840 9ee2 a715 0abf 2d40
00000020: 2b1a ccf3 c28b fb3f 070b c945 d5c7 3340
00000030: efee ee51 2e23 2740 b7d5 5094 effd ee3f
00000040: 816e dfeb 6d9c 2940 c645 ab20 e16b 1d40
12.521351986305476 7.338404376026651 6.0716745589583505 14.873123814338495 1.7216214679080035 19.78059803159979 11.568712768952052 0.9684980294029434
12.805526133560535 7.3553509811912985

layers.3.weight f8 [20, 10]
00000000: 420d 09c5 4fda bfbf 4193 e6f7 882c d33f
00000010: e6f2 e6a7 3240 d0bf 3fb1 2522 30e7 c73f
00000020: 25ce bd60 1281 cf3f 5229 bcad b192 a73f
00000030: 79a2 bbfc 2ac4 d3bf 232a ac89 6184 b03f
00000040: f367 7a97 6828 93bf eb07 9dd7 8b05 873f
00000050: 0018 25fd 663c c93f 1575 b8c4 b929 ca3f
00000060: e110 f5d6 16d6 b23f 5d89 56fd c309 c13f
00000070: 717a 0aa4 b052 cdbf 168c b6df a86a 84bf
00000080: 85da 12ca a1a8 ce3f ad12 97a1 6d79 cebf
00000090: c889 01c0 8975 953f a91c 8cd0 ba20 cf3f
000000a0: 3f9e 2114 275d 973f 3bde 6085 6780 c93f
000000b0: 47e6 a57d 347b c63f 7364 7e32 42a0 be3f
000000c0: df03 48fe d51e d0bf 4439 fc46 eeff abbf
000000d0: e769 c870 ef86 c83f f54c 36f0 39ac c9bf
000000e0: 5401 65a0 4b95 c9bf 563f 955a 72fc a23f
000000f0: ee00 3bde 070d cc3f 1a6d 6aac 55ea cabf
00000100: 3b77 52e7 d18b bcbf 25f0 b640 3bcb ccbf
00000110: 0807 b6dd 1aa8 a0bf d0db 2a8d 938f c13f
00000120: 0f02 8f01 1e08 7ebf 64e4 100b dcdb afbf
00000130: c723 a52d e210 c7bf 14ee e92f 0ea4 d23f
00000140: fe42 1da7 16c7 c83f 9ff5 11d9 de19 77bf
00000150: e3ae 9509 7f5e c0bf a409 923a d025 30bf
00000160: 84af 5f07 a8c3 bdbf 5465 19ce 027c bbbf
00000170: e99f 1407 7f49 a53f a720 8d1f a5a9 a1bf
00000180: c61b a9d3 6701 ccbf e7ec 1b68 7d7e a6bf
00000190: 6358 d4f9 7657 bc3f aa94 0e23 4780 d3bf
000001a0: 8130 168c bfc5 bfbf a085 b3c4 0d9a c33f
000001b0: b27a d42c dfdf c6bf 7796 32d9 8139 9f3f
000001c0: 090b 5888 a1e1 c0bf 3ec3 218f a8d2 d2bf
000001d0: d7f5 b0a3 14ca d53f ad6c 468e c977 ba3f
000001e0: 6ae1 eee6 6f96 c43f 2d30 5786 4463 9fbf
000001f0: 3225 fecb 22cd cf3f 7de5 d143 7641 cc3f
00000200: 5465 7bd8 a8b8 d0bf 846e 7c19 a02f d33f
00000210: 694d b667 70f8 c93f 38f6 2457 8b15 cdbf
00000220: 3c8e c1e5 09e8 d2bf ed08 b9dc 1451 d23f
00000230: 1576 71ed 6474 303f bf2b c696 cb4d bdbf
00000240: b65d c58d 8b61 bbbf 1a2f 12b8 d777 ca3f
00000250: f92b b167 6899 d03f 9e90 62f1 50b9 d23f
00000260: cedd 5b1e b4b4 94bf 0688 5ed0 64af b4bf
00000270: 6aa0 b540 fac8 cd3f 0eef b0e2 f4d0 d03f
00000280: de72 de33 e381 c8bf 2390 7b12 2379 d03f
00000290: 35e1 3f70 f96b b8bf 8484 76b0 e20d cbbf
000002a0: 9cd9 dc87 e3f5 c5bf f80a 1bd3 4a62 c93f
000002b0: 46cf 1834 17fc d0bf 4c49 dc8e e934 b73f
000002c0: d4a8 d085 9f60 ca3f 8faa 709e 674e 77bf
000002d0: 682a 15dd 1a2d c63f 2a4b 9735 1691 d23f
000002e0: 594a c6c5 df45 ac3f c72d 73c9 bfc4 ce3f
000002f0: c821 e3a4 dee4 d1bf 9487 3053 a22f c93f
00000300: 74e4 4c39 3fc7 c13f a3f9 723c 9c8c aa3f
00000310: 07f0 fb9f 5a8c d4bf 8e62 1bfd cc00 b0bf
00000320: 44ae ab38 c150 d6bf 788e 9474 90cf c6bf
00000330: 5a46 2669 f6e9 c63f f58e 00b6 d9d8 8e3f
00000340: 846b d329 ad64 a9bf 484f 7880 5f5a d2bf
00000350: 0b8d dff7 6c39 b33f c70d 6ef1 1330 c03f
00000360: c354 9748 3848 b7bf a293 a37a 8d25 cb3f
00000370: b18b c12d 5287 d2bf 5524 16b7 d5a1 9cbf
00000380: 24b5 32b3 1866 dcbf fd12 94ab 0faa ad3f
00000390: ff2a a227 d75f d7bf c57b 3263 d28a aabf
000003a0: 8ba6 ea37 0e77 d3bf 93c2 b297 af61 ccbf
000003b0: 8ba3 364a a75d c03f 5bdc b499 c73d b83f
000003c0: 6359 be0a 7084 83bf 47cd 1940 b485 c83f
000003d0: ef8c c85b 5159 d53f e346 c592 1711 b93f
000003e0: e576 d6e8 928c d13f be5b cc0a d774 4ebf
000003f0: 3a73 ba8b 7c82 8cbf ee5e 891a 095b c4bf
00000400: 4e5a df02 a4c5 c6bf 8701 5dcb 002f c03f
00000410: e93d 1d50 49de d13f 989d efb7 67c6 b0bf
00000420: 3743 abf0 6f0f bfbf 83bb 7700 f53a bc3f
00000430: c7f2 e066 dad2 d6bf bbc1 d6a7 3edf cabf
00000440: a632 037a 9326 c2bf 742c 3b8d 05ee ccbf
00000450: d9dc 5615 8328 c83f b6ae b5b5 2678 c9bf
00000460: aa52 8e9b c62a b93f e015 07b4 e4e5 d23f
00000470: 543e 9eb3 4b0c b6bf 0fc1 3846 b64a bfbf
00000480: 9626 f836 4cd4 b4bf 754e 40e0 1ace d1bf
00000490: 6303 e244 f080 c53f e312 58a1 48c7 d23f
000004a0: 7a4b 38e2 a1ba bdbf d003 9110 b0f6 c0bf
000004b0: 6e4a 31fb 6575 9fbf a27b b093 7f7d d1bf
000004c0: d98a 18ec 4d6f d53f 9c1d 41f0 fb18 cabf
000004d0: c67e 35b5 5ab7 c83f b5ce 9ab9 2707 d03f
000004e0: 1a00 9d25 0e61 c8bf 3585 128a fee0 b9bf
000004f0: e5ac 0bf7 4ee7 d3bf bc07 a112 4397 d0bf
00000500: 4019 8a7d 4407 913f 066c 39b0 db56 d23f
00000510: 05ac 1043 9ae9 c33f 7a6a e737 6755 c2bf
00000520: 45a3 d868 0fff d3bf fd92 c991 5239 ba3f
00000530: 9c1a 785f 81f9 acbf 1f11 48b7 9e88 bdbf
00000540: ab76 c761 2fd1 aebf f0aa ec97 3af4 d83f
00000550: c170 b1c4 c09b d23f e5c2 170e a690 d1bf
00000560: a28a 9c5f 8c79 a13f 888c 0c15 96b3 ac3f
00000570: 50bd bab6 67d9 bc3f 7d92 d036 894b d8bf
00000580: 6fdd fa83 785c a13f 6e99 99ab 8f4b c5bf
00000590: 54e6 34fd 3d32 c43f 2d79 ff92 1a5b a7bf
000005a0: 1be0 5718 c874 d13f 4d8c 6fd3 6911 c13f
000005b0: 9258 3898 c581 c13f 6ef3 d7b2 993c bb3f
000005c0: abc4 043c da84 c73f 21d0 e843 c31a d03f
000005d0: 6f0b 6848 26c1 6dbf ff0f 46c4 6ea9 ccbf
000005e0: d97c cd4b a904 c03f fa79 3b46 b97d c23f
000005f0: 37d3 4230 29b9 c1bf 77ba 7de8 aded d0bf
00000600: 097d e4f6 c73c ab3f 9318 5f8d b15c c73f
00000610: 110b 0e39 aa0b b93f 1f48 5b11 f20f b0bf
00000620: b169 b893 6477 d1bf 0b54 66d9 172e cf3f
00000630: b0cb 61d6 4e3e d93f 5143 f23d a22c d33f
-0.12442492065843161 0.29959320267726147 -0.25391832730001196 0.18674279849381922 0.24612645839407424 0.0460410618380417 -0.308848139581222 0.06451997386117418
-0.018708833928577872 0.011241047399042933 0.197155831914813 0.20439836602683017 0.07357924221020397 0.1331105219843022 -0.22908599862872195 -0.009969062163525815
0.2395212399184922 -0.2380806960119534 0.020956184715382326 0.24318633254026636 0.022816286662786785 0.19923109066597697 0.17563491950186202 0.11963285191304056
-0.25188207466277207 -0.054686971821967606 0.19161789900756718 -0.2005684302244856 -0.19986863452687464 0.037082265431876024 0.21914766646478462 -0.21027632635819132
-0.1115084829093264 -0.22495213184254328 -0.03253253895219471 0.1371941031736399 -0.007331959925921185 -0.062224270201519244 -0.18020274380458387 0.2912631481083008
0.1935756984699068 -0.005639906406142896 -0.1278837963867466 -0.00024639447890009215 -0.11626672916434982 -0.1073610070392495 0.041576356520010745 -0.034497413732027575
-0.2187928946970869 -0.043933791121128433 0.11070960616447816 -0.30470446036845067 -0.12411114854893592 0.15313884834817504 -0.17870702446903902 0.030492810136499373
-0.13188571126382723 -0.2941075704357451 0.34045902238343956 0.10339030955803948 0.16084097648650736 -0.030652113627908917 0.24844775162299865 0.22074774085539764
-0.26127072468587653 0.2997818230521505 0.20289425911014838 -0.22721997981163766 -0.2954125159942327 0.28619882159195137 0.0002510782628116504 -0.11446831160553382
-0.10695717059331042 0.20678230750888177 0.2593632710092489 0.29256080219989566 -0.020220579483945227 -0.08080129706516467 0.23269584808008698 0.2627536977558841
-0.1914638522402105 0.2573936157698446 -0.09539755812136692 -0.21136125198703237 -0.1715664304153507 0.19831214244739903 -0.26538639152135024 0.0906511281757833
0.20607370408953918 -0.00569000698218737 0.1732514934067979 0.29010539277548963 0.05522059716453915 0.240379308094232 -0.27959409811276403 0.1967661768149439
0.13889303491467653 0.05185402143387143 -0.3210665285439522 -0.06251221827859352 -0.3486788800644016 -0.17820935909650237 0.17901497015241113 0.015062046877637661
-0.04959622512406894 -0.2867659334744883 0.07509499599068563 0.12646722115105843 -0.0909457375740486 0.21208351600867298 -0.28950933903086723 -0.027961100864136352
-0.4437314748746124 0.057938089079504686 -0.3652246367498008 -0.051840376481088 -0.3041415735302528 -0.22173113734381342 0.1278580772753027 0.09469268324470319
-0.009529948547236605 0.19158032541199985 0.33357652629111006 0.0979170544935886 0.2742049478346032 -0.0009294557581566094 -0.013920758260889 -0.1590281848500505
-0.1779065145517102 0.1264344208702932 0.27919228385596156 -0.06552742233872377 -0.12132930398662443 0.11027461301249102 -0.3566194538760041 -0.2099378890539024
-0.14180224855080786 -0.2260138454060755 0.1887363294788205 -0.1989792239431744 0.09830895707848222 0.2952815778811253 -0.08612511763771497 -0.12223376478573676
-0.08136440603279946 -0.27820464992075894 0.1679973923055754 0.29341331249479036 -0.11612903378435915 -0.1325283127680721 -0.03072127671868901 -0.27328481123725556
0.33491848045575306 -0.2038874552838309 0.1930955300149348 0.2504367172761975 -0.1904618915232284 -0.10108939047724592 -0.3109929478220706 -0.25923229998818065
0.016629285967178165 0.28655140122799627 0.15556648516334817 -0.14323129872976265 -0.3124426387681079 0.10243717250120805 -0.056591074851941786 -0.11536590551992675
-0.06018970554917521 0.3899065478932888 0.2907564087706867 -0.27445365310909003 0.03413046519405795 0.056057634419880265 0.1126923390499901 -0.37961035111428726
0.033908620940048866 -0.16636844519525645 0.15778326858144232 -0.04561694187553864 0.272752784512251 0.13334391426096417 0.1367728226911749 0.1063934384946614
0.18374183588597268 0.2516334689310061 -0.0036321399413749493 -0.22392067512203082 0.12514225198081055 0.14446178368866908 -0.13846316200729245 -0.26450679496966906
0.053198098076103824 0.1825162830629706 0.09783424275341825 -0.06274331020111433 -0.2729121630269687 0.2435941516420431 0.3944279759954794 0.299599228376839

layers.3.bias f8 [20]
00000000: 9879 6b40 0fc9 cc3f a766 e6ff 9a31 b33f
00000010: e659 1a00 5020 8d3f b449 3200 098b babf
00000020: f9fb 0620 c05b d03f e7d3 0380 1ef9 c03f
00000030: b037 0a80 e7c4 b73f f8c3 fb7f f3c3 b63f
00000040: 8f74 0500 cf49 c6bf 2d18 01a0 3e28 d43f
00000050: b3bd d6ff 0b7f ac3f 0af6 efbf 1124 c13f
00000060: 20d4 0500 8ae6 afbf fea0 ff3f c48d ca3f
00000070: 1e7f 1700 250c b8bf 0ba2 0420 86ff d03f
00000080: f83e deff aced bb3f dac5 febf 3b55 c73f
00000090: f91a 2600 1ca8 8a3f a5c6 e9ff 868a bc3f
0.2248858513402865 0.07497566936072052 0.014221787455693535 -0.10368400816722706 0.2556000054136685 0.13260251284341892 0.09284827114080829 0.08892747759433905
-0.17412745953598516 0.3149563372174978 0.05565679071457499 0.13391324874821492 -0.06230574846532755 0.20745137333802427 -0.09393531086197668 0.2655959427525267
0.10909539458065953 0.1822886168934435 0.013015955690901292 0.11148875949745703

layers.4.weight f8 [20]
00000000: f46b 2c98 b5ba ee3f a1ee 2a7a 1dfe ef3f
00000010: c4d7 4bc5 8dec f03f f72b 24ac 23c8 ee3f
00000020: 1017 5016 8449 f13f 712d 5977 1ff5 f03f
00000030: 38d0 0a4f 3790 ee3f 5197 79ea c372 ef3f
00000040: dbb5 bee9 c6d6 ee3f b728 5f3a 6779 ee3f
00000050: d8d3 fbe0 47e2 f03f 3656 0966 2380 ef3f
00000060: b571 6a3c 2381 ef3f b217 ebc3 21fe ef3f
00000070: 7efb 48a2 68e6 f03f 82b5 1979 59a2 f13f
00000080: 5943 c42d 8017 f03f 1f13 b015 aa85 f03f
00000090: e7cd 4e3a eb7b ef3f 349c 39ed 115b f03f
0.9602916690959078 0.9997699152076686 1.0577523905644606 0.9619310724386868 1.0804482337566164 1.0598444616360576 0.9551044982713455 0.9827594356145061
0.9637178960162446 0.9523197307655867 1.0552443302560643 0.9843918793582762 0.9845138721462293 0.9997719599275483 1.0562521304379682 1.1021361093984017
1.005737475181567 1.0326329085521093 0.9838768137764732 1.022233893070518

layers.4.bias f8 [20]
00000000: 402c 3c9b 5c44 a0bf 9099 f36d d9aa b2bf
00000010: dbb5 ff9b 31dd a23f 4568 0cc3 41fa 763f
00000020: c5e4 f7bb 6019 b8bf 492f dbcb 8316 a6bf
00000030: 9754 b11f 68cf a8bf 0157 eecd 2ae2 c1bf
00000040: 9cce d1b5 0254 a2bf 77c3 5090 4b1d 84bf
00000050: 3ba3 4b83 c9d1 863f 8ff5 d311 c521 6b3f
00000060: 5c19 762c 841b a0bf eb6d b0a8 6972 b33f
00000070: 3aef 94a2 e9bd 873f 0c48 65ee 4842 a9bf
00000080: 1e89 b540 05c2 c0bf 239d 0d22 0d37 aa3f
00000090: fe1d d831 28a8 bbbf df9e 94ab ddf6 aebf
-0.031771558713522996 -0.0729194539486342 0.036843824665861745 0.005609757311299706 -0.09413723553724924 -0.043140524515904284 -0.04845738779901259 -0.1397145753405127
-0.035797199911852234 -0.009821501104029668 0.011142324752158586 0.0033120011345306242 -0.03145993273487832 0.07596454971683612 0.01159269835863307 -0.04933383855917847
-0.1309210363352315 0.05120125809372158 -0.10803462235354996 -0.06047718734254003

layers.4.running_mean f8 [20]
00000000: b6bf ca40 1309 d43f 4a5a 64d7 dec0 d53f
00000010: df5e a2d2 7bb4 643f e4d0 cbe5 e75f c3bf
00000020: 4096 f62c 9d25 b03f 81f2 9902 8336 a43f
00000030: 974e 4e30 b0ae d53f 614a efb7 72b6 e03f
00000040: 9af6 0c73 d7b2 cbbf 4077 2618 d81e df3f
00000050: 3c57 f5f7 8064 b9bf 1436 7a32 611c dbbf
00000060: d910 dba0 6ec2 ca3f 0439 807d 0d8e bcbf
00000070: 192e b0eb 7b2d bcbf 4e4e c26d 61ea 6f3f
00000080: 2cef cd42 cfc9 cf3f 8874 9537 0406 b83f
00000090: db86 3200 013a e03f 1142 aef0 6b51 d83f
0.3130539067014938 0.33989687952399505 0.0025274675763958666 -0.15136431427493513 0.06307394359336005 0.03947839171175805 0.33878712384578463 0.5222714989161653
-0.21639531247813154 0.48625757559226557 -0.09918981603308635 -0.4236071579879035 0.20905859808238494 -0.11154255212770542 -0.11006903175455597 0.003895941057700892
0.24834624063429922 0.09384180409456822 0.5070805553297889 0.37996958259557895

layers.4.running_var f8 [20]
00000000: 196a a8e9 b1c6 923f 9c95 e5dc a61c d13f
00000010: 1cc7 c46b 6c3c c13f bcd0 bf35 f5fe ad3f
00000020: 2121 6874 fe40 943f 9086 70f2 8b3a bc3f
00000030: e872 cea7 3900 e43f a70c ea72 8d8b c23f
00000040: 369f 4788 abed bf3f 86e9 1789 6f06 d23f
00000050: 09f7 ada5 4887 a53f 64bd 0ec6 8592 e03f
00000060: f245 1f00 2595 d93f 91c3 e1d7 df05 cb3f
00000070: 7778 c10c 1248 963f ec98 398e 9001 aa3f
00000080: 36de 4f8a 3bb8 bf3f 1caa 89aa efde a13f
00000090: 0af9 77a1 9d6f db3f 603d 74ac d2d8 bc3f
0.018336086164803065 0.2673737675853205 0.1346564794744659 0.05858579903716207 0.01977918229570819 0.11026835125860601 0.6250274922818706 0.14488380538032183
0.12472030713217638 0.2816428030779651 0.04204775831656888 0.5178860538780268 0.3997280598824481 0.2111167720900338 0.021759302166508534 0.05079318748612302
0.1239049160648101 0.03490399319419543 0.428687484440062 0.11268345556549297

layers.6.weight f8 [10, 20]
00000000: c3ca d32b 7387 933f 6440 3b65 dbf0 c93f
00000010: 1a50 3587 4b48 c0bf fbbc 8614 70f0 9cbf
00000020: b820 4413 b1a3 bdbf 036f 8a5c 12b1 c33f
00000030: 5dd4 acca 93ba c43f ff8e b781 9ba1 b23f
00000040: aad4 e240 96f8 c9bf 710a a8ff be33 5dbf
00000050: f76a 436c b963 a73f 36ca 953c 8296 bebf
00000060: 7023 5e78 d1c2 b53f cc7b 00b6 b9c2 9cbf
00000070: 3c5c 1ea5 a4dc b6bf cf83 a814 637a d3bf
00000080: 79e5 cd20 e41f c3bf c30a 42e3 3559 aabf
00000090: 73ef 5d13 7af0 c5bf 9846 afaf 61c4 c4bf
000000a0: 1a2d 4f87 94e9 b8bf 0023 e07d 9e70 c4bf
000000b0: 5723 fc1f b878 bb3f 2d8e c443 dfb0 8fbf
000000c0: d20a 55d3 93e0 babf 94a1 32ee 21ac a4bf
000000d0: e3e6 a576 fec1 c33f 34bf cb3c c131 c53f
000000e0: d3de 3236 15f3 b53f a363 2d4c 3b9d 843f
000000f0: f9b0 02c0 b4da aabf 8c07 6743 c2ea b83f
00000100: bd91 1a52 90f4 c0bf 6428 03cf 268e c5bf
00000110: eebf a81c aa43 c93f 4f0a 40e8 3c6c d0bf
00000120: 9155 ef06 4e4b af3f ea56 0474 f9ab abbf
00000130: c281 2d3d 14d6 c63f b668 1517 329f c2bf
00000140: fc3f e95d 42b4 babf bc57 e345 4efb b1bf
00000150: 3da2 6afa d0aa 973f 8562 01ac fbf2 cf3f
00000160: df6e 114c 4c70 9c3f cdf6 0d1b 0721 d03f
00000170: ede2 69d1 e430 aa3f 97da 3503 ce2c 78bf
00000180: d52a 59ee 2f49 b7bf 877d e7b0 23c4 a13f
00000190: 3609 4857 a044 c9bf fee3 488b 22b1 c13f
000001a0: a1db 0762 601e 7d3f 51b7 f5d5 059e b5bf
000001b0: 618d 1e66 8b00 9bbf 700c 0684 1700 c63f
000001c0: 7498 260f ed6b babf 027f 4737 bfb2 cdbf
000001d0: 75de 7253 e694 b6bf e74e 2f10 f863 ccbf
000001e0: 3bcb 3a97 125b a5bf d5b1 254c b68c c53f
000001f0: 3337 66a7 4bbb 83bf e8f8 fe63 7edf c4bf
00000200: da28 834a a627 b1bf 6053 877e 1795 7a3f
00000210: f92b b198 6edc c13f 3833 ca32 2263 bdbf
00000220: 26d3 1d0d af82 813f 554f 3320 7167 b43f
00000230: a585 a91b d708 c0bf 7de2 331b a6c7 c7bf
00000240: 4f56 668d 1f87 bfbf e8f9 9af6 892c cebf
00000250: 1905 6d2f 7e06 c73f 7901 81e9 2334 a4bf
00000260: ee16 4d66 fca6 cd3f 2afc ef80 a00b a63f
00000270: 2600 fbe0 53f6 c93f ed06 98bf 89a7 bf3f
00000280: d1ff d99c 8890 9b3f 3a93 1a98 9451 a33f
00000290: a295 afe6 2a34 cbbf 407e f115 b5de c73f
000002a0: b14c c655 3dab b8bf ad4d 8a8f bc5d b43f
000002b0: 13ca dfb9 a670 b8bf 19eb aa48 04c2 9e3f
000002c0: 40bf b5c2 457f c73f 33bd df57 12e7 cbbf
000002d0: 9319 3653 e5c2 c43f b33a b5c3 3fe7 b53f
000002e0: e031 c3ef 5f0a 39bf c9d8 415c c82a b33f
000002f0: bdb4 75b3 af57 c63f 9b33 e07a 51a0 c5bf
00000300: aded c541 0722 bfbf 2fbc 0b52 67f9 cbbf
00000310: 744d 2abd 77ae b53f c603 c6c2 7d6c c0bf
00000320: 7a64 fefd 7cfc c63f 94da 192e e4b3 c73f
00000330: eed1 7a72 1a3f cd3f 83ba 518a 15f5 a9bf
00000340: 866d ae58 7e52 b2bf db9b 22b0 16f2 cb3f
00000350: 8fee 9615 706d b23f b773 1e7b c7df c7bf
00000360: 26bf d091 fd66 883f 1a49 cc04 0146 c8bf
00000370: b9aa 6c83 ebd8 c9bf acdf 5f22 1227 9bbf
00000380: 20ab f379 def2 9fbf 2d9e 6f70 f885 a9bf
00000390: eb2f 017f d979 b63f caa7 72f1 569c bcbf
000003a0: 9fa4 5f5c 32b0 c3bf 3c52 1c0b 2dba be3f
000003b0: a60c 60b9 7753 c5bf a306 6798 f823 cebf
000003c0: 76b6 d75a 180d b4bf 2d00 58c4 3bee 97bf
000003d0: a1a1 e1fb 8e01 c93f a569 6221 ce7a cc3f
000003e0: 72a3 7f9a 4098 883f 8c7e f61d 18ba cbbf
000003f0: fac8 aa67 45cf b5bf b67d b830 122f a23f
00000400: 5122 0eaa dcb5 b7bf 3579 cdbb 46c2 9cbf
00000410: a630 6dd3 b8a7 b13f c207 f4c0 34bf be3f
00000420: 7051 cdfe 3d3b c5bf 53ba 8720 4576 b2bf
00000430: 27cd cdc8 bbb4 c63f d3fb 2176 3068 793f
00000440: 58ed 9829 e794 c0bf 6108 083b 841d babf
00000450: 61e3 ca44 daf1 c23f e750 99cf 48b7 c73f
00000460: 86cc e49d 5000 8ebf 3945 34c9 7d0d c73f
00000470: 2426 117d 08aa c43f 71a6 100c a888 bcbf
00000480: c72b ed2d 16e3 c13f f709 eaf5 ca07 cebf
00000490: 8b89 a720 baff c2bf a08a 7dc2 5f3e c13f
000004a0: 7de1 d8ac b065 af3f 6213 72b6 6315 c4bf
000004b0: 03b1 3fd0 e91c c7bf 9852 b087 956c a2bf
000004c0: 476b 2eef 80f7 bf3f ba06 9e3a ec50 7fbf
000004d0: 73e2 7ff6 5b4e a53f 0711 3dcf d60a 8f3f
000004e0: 8c67 c6de 0e79 be3f 1795 5e5e 59ca aabf
000004f0: 265a 5735 1628 b33f f1b7 0764 81b1 c5bf
00000500: aa2a dad4 2e98 a83f 4239 6737 c3c0 b33f
00000510: 61dd c0b1 6d84 b5bf e175 1b29 5e6d a7bf
00000520: df8f 1da4 737d c73f c36e 8a07 ccb5 b53f
00000530: 9bae caa7 0983 b83f ddcc bae9 5b5a b33f
00000540: 3ef0 5ef3 d31e a73f e503 7bd8 b31d 95bf
00000550: c91f 60f4 67d3 bdbf 0888 61b9 e0cb a3bf
00000560: fa58 b5e0 53cc c83f 8c29 8a19 2457 cd3f
00000570: 0938 b68a 30bc bfbf 5797 9295 5e18 b8bf
00000580: 015f 0e1b a24e a93f 09f3 7f58 a5fa ab3f
00000590: a632 086d 5e75 b1bf 7383 6a21 3128 913f
000005a0: f5dc ea73 9db6 183f 3b99 705e 0031 ae3f
000005b0: a8d9 58e7 844a c13f 8397 3f1c 925a c0bf
000005c0: 516e 66cb 1f92 c23f d342 f94b 723c c7bf
000005d0: 61c7 79b7 7757 c03f 14a1 c63e e233 a9bf
000005e0: 1b71 b730 ecb2 c13f 563c e6da c64b b93f
000005f0: 450d 6693 db03 bd3f 9a78 1abc d930 a1bf
00000600: fb19 b11e cde2 83bf 0021 39e6 52ed c93f
00000610: 90c5 5119 b802 d03f ab23 36e5 376b cebf
00000620: ee93 8007 a300 9bbf a237 561a 39ac aabf
00000630: debc 54b9 89f0 803f dde4 3a50 a256 c43f
0.01907138781548202 0.20266287272397954 -0.1272062692829657 -0.02826094746859285 -0.11577898712505685 0.15384130018798467 0.1619438876747691 0.07277843396110127
-0.20289877098335768 -0.0017823567601459556 0.04568271109174831 -0.11948408106926753 0.0850039404741787 -0.028086568578256352 -0.08930424720016189 -0.3043449117413361
-0.1494107399155771 -0.051461872092678294 -0.17140127130175706 -0.16224309042313645 -0.09731415084313647 -0.15968686243311225 0.10731077938920684 -0.015474075561150514
-0.10498927983739328 -0.04037576706588478 0.1543577269874766 0.16558089703129897 0.0857404000588489 0.010065520536658051 -0.05244984477880794 0.09733213563506932
-0.13246349343275013 -0.16840062244438336 0.19737745665906864 -0.25660631828956054 0.061121404978318535 -0.054046435749269 0.17840817439265605 -0.14548326613550494
-0.10431303780319462 -0.07024087148906139 0.023112550052845505 0.24960275553418768 0.027772133009746788 0.2520158542828142 0.05115428024595823 -0.005902104126440342
-0.09096049851465733 0.03469955000377483 -0.1974068094423928 0.13821822930347588 0.007109047408895204 -0.08444248651150345 -0.026369264705534138 0.1718778032919519
-0.10320932025806134 -0.2320174236219757 -0.08820952927896449 -0.22180081167481733 -0.04171045394959668 0.16835669248702226 -0.009634581609840964 -0.16307048685661774
-0.06701125449322679 0.006489841246055089 0.13953955131213983 -0.11479390850054194 0.00855004080561057 0.07970339809554379 -0.12526978350346699 -0.18578029945617294
-0.12315556718962138 -0.2357342199447452 0.17988564792361997 -0.03946029878034358 0.2316585063473932 0.043057456721719525 0.20282982335447847 0.12365017821869247
0.026918539594134764 0.037731784407958505 -0.21252952827414356 0.18648398944331923 -0.09636290878397592 0.07955530647659854 -0.09546892202323702 0.030036990103989945
0.18357154853173974 -0.2179892472335979 0.16219774783185112 0.08555983093286094 -0.00038208810998410607 0.07487156154988663 0.1745509744900228 -0.16895502567095097
-0.12161298137464512 -0.2185486937155203 0.08469341629306887 -0.1283108902971703 0.17958032991444722 0.18517734766983962 0.22848826017219842 -0.05069796861140665
-0.07157125153610452 0.21832545852995974 0.0719823887547426 -0.18651669990222583 0.011915188801225062 -0.18963635191227796 -0.20193237225733698 -0.026516230915120495
-0.031199909394597047 -0.049850238537882376 0.08779677725505024 -0.1117605533096643 -0.15381459722928967 0.12002831956153498 -0.16660973121188255 -0.23547275010610233
-0.07832481592023463 -0.023369726046439766 0.19536006258864538 0.22249771719073155 0.012009148325846406 -0.2166166445067471 -0.08519395619331141 0.035515373656603996
-0.09261874343622735 -0.028084855282366667 0.06896548425464974 0.12010507307789367 -0.16587042752747605 -0.07211715740388884 0.17739054970625398 0.006202878286898322
-0.12954415827867183 -0.10201288644023655 0.1480057559872661 0.18528089653648935 -0.014649038141760561 0.1800992233698169 0.16143900019442115 -0.11146021170193322
0.1397426342249146 -0.23461281783609397 -0.14842917055564117 0.13471600529290573 0.061322709178457814 -0.15690275581814733 -0.18056986492536717 -0.03598468095166146
0.12487035598171047 -0.007645533341816774 0.04161345848109912 0.01515739269201123 0.11903469981044007 -0.052325051088056344 0.07483042528415548 -0.1694795359066457
0.04803606365483877 0.07716007330529798 -0.08405194844896392 -0.04575628520772646 0.18351598275614742 0.08480525192356496 0.09574947687604622 0.07559751945773337
0.045157073458057514 -0.020621118629382002 -0.11650705066870083 -0.038664839391245265 0.19373558494653037 0.22922183272414676 -0.12396529566305516 -0.09412184859919868
0.04942804889941322 0.05464665131873942 -0.06819715654291744 0.01675488249259467 9.427391067161671e-05 0.0589676013262754 0.13508664413684568 -0.12776399974171335
0.14508435660978816 -0.1815321799245085 0.1276693006398615 -0.04922396675402943 0.1382727849840045 0.09881251186583148 0.11334011410331353 -0.033575824939576296
-0.009709932803287016 0.20255504838338112 0.25016596291160287 -0.23764704410521395 -0.026369616825963442 -0.05209520765775656 0.008271289795258981 0.15889386098368777

layers.6.bias f8 [10]
00000000: 9abb 7ac0 8c34 c4bf e255 2200 e607 9c3f
00000010: 7a2d f5ff dea3 a93f 1594 ecbf 052f b7bf
00000020: 3a4f a5ff fd32 b13f f96f 3bc0 37fa b5bf
00000030: 0c49 5103 1841 693f 542c dfff b8f6 b23f
00000040: 5ad5 06a0 68e9 c5bf bef0 b1df 7581 bdbf
-0.15785369299325397 0.027373880155740944 0.05007836222156477 -0.09056125579498116 0.0671843289504154 -0.08584927027862922 0.003082796955404926 0.07407718893880261
-0.17118556798747414 -0.1152566596155706

layers.7.weight f8 [10]
00000000: fdf6 4867 7228 f03f e498 66a6 27f4 ed3f
00000010: bd90 94a0 f758 f13f e495 9a1d a149 f03f
00000020: edcc 24c5 595a f03f a974 f17a 7253 f03f
00000030: d5bc fb26 58ac ec3f b023 58ed 14ed ee3f
00000040: 9bdc 4287 c7a1 f03f a6c6 02e2 f3b8 f03f
1.0098747286387486 0.9360540628447578 1.084220530764511 1.0179759174728753 1.0220582676818666 1.0203728487461297 0.8960381280320698 0.966440642893863
1.0394969257011215 1.0451544598148899

layers.7.bias f8 [10]
00000000: 7958 0315 dcb6 b5bf c397 443d 8a41 c03f
00000010: 1ec0 1b53 d093 b93f ce31 ff38 2b64 93bf
00000020: 00e2 65f0 11a7 ab3f 4bac 19e8 8927 bebf
00000030: 6400 a26f 6fa5 c6bf d34c 5559 6772 a6bf
00000040: 585d d7e3 0fd5 983f 8825 10b2 e314 80bf
-0.0848214675237119 0.12700012199019114 0.0999117091084831 -0.01893680129414737 0.05400901851220752 -0.11779081264983053 -0.1769236846048471 -0.04384158101552207
0.024250267297103306 -0.00785234343676923

layers.7.running_mean f8 [10]
00000000: ced5 9210 6b71 dfbf 6805 fd40 b6d8 aebf
00000010: 37a3 4b67 3f30 b2bf c70f 8a8b 7b1a b9bf
00000020: ee3d bd3a e58f 803f 7b34 0548 fe6e ccbf
00000030: 0845 b840 55ee b23f 5dea 08b9 cf49 a23f
00000040: d217 3b12 4f93 ad3f 4816 2cfb 40a0 c83f
-0.4912974988795583 -0.06024713080706584 -0.0710487010179691 -0.09806034237595816 0.008086958746985364 -0.22213724629037643 0.07394917326043438 0.03571938642240433
0.05776450250191058 0.19239055885570822

layers.7.running_var f8 [10]
00000000: 051a 1da4 5220 a93f 1c52 8d17 e287 bb3f
00000010: 23a3 54f8 1875 b93f 650a 1448 621f c53f
00000020: 655b 8644 cead c43f d17e 9303 366a 973f
00000030: 5c3a 241f 73a8 b03f 05e9 0aa1 061b cc3f
00000040: be8c 79d0 c48e ae3f 3e0f 80c9 1a9d c03f
0.049074728520782464 0.107542162656792 0.09944301665076387 0.1650202609963173 0.16155413003863398 0.022866100281020266 0.06507033834734827 0.21957476485642516
0.059682989548286866 0.12979445303801102

layers.9.weight f8 [10, 10]
00000000: 2684 a6f4 75e6 b63f 305b ae3d 4b7e d2bf
00000010: d02a 894b 406b c53f d4e9 e914 cd72 9fbf
00000020: caee c8cc 250b c93f d949 202b aa0d 9e3f
00000030: c9d8 7290 c6a3 c63f ef73 3136 b0af b1bf
00000040: bd58 cbc9 4247 c6bf 943f 9498 6dce c13f
00000050: 2dc8 43c1 0413 d7bf d518 2641 a031 c7bf
00000060: 2b37 46cb 28d4 cc3f 94b7 912d c3aa c53f
00000070: 389d ad9b 909a ac3f cfa2 d4a2 2e51 c2bf
00000080: 34d7 0ab6 a031 bdbf 87d6 76e2 e42b b03f
00000090: 39ff 74ec e9f2 dabf f634 eb2d a8f1 603f
000000a0: 1017 1fc0 ebc8 d03f a0bb a74d d8f7 d1bf
000000b0: 8893 6c84 3676 ce3f f95c 86e0 acdc 9cbf
000000c0: d027 7927 9a3b cfbf f239 ba82 8327 a5bf
000000d0: ff0e d84e 21e3 cd3f 2d32 f136 4604 b33f
000000e0: 7b3c 3548 8c31 a0bf b75a 746e c3dc d23f
000000f0: 2cac dcc4 c92c c13f 0bda 88a1 ffbc c13f
00000100: 34b0 5260 a675 c4bf 4d0d 2b26 36e6 c43f
00000110: a73c bdfc 08e1 d23f 473a 431e 2e68 cf3f
00000120: b62b bd25 c21f acbf 43be 6d45 3d21 95bf
00000130: 92d5 16ee 1b82 d3bf 815d 7c82 821b c13f
00000140: 4818 debc 6c02 c63f 9520 a75c 4d3a c63f
00000150: 3a39 258e 4fdf d4bf b91c c8d0 0c40 af3f
00000160: efa1 8be0 3ee0 c03f 83ab 6096 f21f c23f
00000170: 3ae8 92cc 3508 c1bf 240b 2529 36f7 a73f
00000180: 95c4 6d28 b6b9 c5bf 98a1 e1fd c857 d8bf
00000190: a0c9 1ddf bc8d a5bf 274a 4b08 dfcd 973f
000001a0: 7305 a254 6cf5 ccbf 7adb 02dc f8f7 c23f
000001b0: 29e5 e043 26ed c5bf 338a 084d 8998 b73f
000001c0: b5e6 585c b4ef bd3f 463a 0049 b0d6 c43f
000001d0: 2d6c 134b 82d0 ccbf fdaa d00d ab9b debf
000001e0: 7117 306d bc87 b9bf a8f1 84cc 1501 cebf
000001f0: 4784 f8a8 248e bf3f 9dc3 5c71 8f1d c93f
00000200: bac2 4263 810e c3bf 36ea f7e7 6413 ddbf
00000210: 2ecc 52ea 6e57 cd3f 6611 82cb d988 b03f
00000220: 3942 5d3c 2c03 ac3f 7cbe 3064 c849 b83f
00000230: d067 eadf 7c9a ca3f 0ed0 7611 4a13 b8bf
00000240: 376f 2d63 440c 9fbf 6697 fee1 44bf 9a3f
00000250: 8f15 ffe7 dc06 b6bf 54b5 5e36 f5dd b3bf
00000260: 4d13 8b5a 4f79 c1bf 1a4f b1b9 6f07 cebf
00000270: e69f 7b8d 3d78 bd3f 217a b2d0 2233 b23f
00000280: 92d8 29dd 18e4 a1bf c7cb da1e e535 b63f
00000290: 420b 3d65 f786 bd3f b9ac 634b d75a c9bf
000002a0: b541 67cb 097f cfbf 70de a49f 0099 cdbf
000002b0: 4df5 ca21 b71a c5bf d93c 6877 1bf5 a8bf
000002c0: 5eaf 8c10 1efd b23f 3d3d 6caa 7e5f d43f
000002d0: 23b0 c61b 8849 b4bf 8e0b c9f1 1726 b63f
000002e0: 520a e497 598c c5bf e5d7 a757 541d adbf
000002f0: c813 42f2 e506 99bf 7ec7 bd09 482a bb3f
00000300: 59fc bf06 6ffb be3f 7023 198d 7e4b d13f
00000310: b1e5 246f 9bd9 d2bf 1fd6 ae89 8ba7 acbf
0.08945405218993638 -0.28895836852591383 0.16733554542800855 -0.030711368943664955 0.19565269946348557 0.029349001772127046 0.17687303593783657 -0.06908704112124985
-0.17404970982778947 0.1391121859564889 -0.36053580163491256 -0.18120196515173484 0.2252245895910446 0.1692737553125282 0.05586673641556178 -0.14310248327935546
-0.11403850979226321 0.06316977051650428 -0.42107627955919075 0.002068356013615098 0.2622632385431283 -0.28075225432888296 0.2379825731851748 -0.028185559467229535
-0.24400641372113663 -0.041317090709629314 0.23349396085551885 0.07428397027360552 -0.03162802106327774 0.2947243288667027 0.13417932617571304 0.13858027827673455
-0.15984039023658314 0.1632754980438257 0.29498505288661153 0.24536682584444433 -0.054929797274403766 -0.02063461052187977 -0.30481622935197905 0.13365203257920302
0.17194899770783167 0.17365424179138658 -0.3261298072947231 0.061035538183256084 0.13184343303807064 0.14159996359498103 -0.13306305397947132 0.04680794956450132
-0.16972996686994138 -0.3803579787550233 -0.042096998439677735 0.023246273881179527 -0.22623972065415962 0.14819250815136426 -0.1712997275770161 0.09217126970956073
0.11693885092327146 0.16280177654739897 -0.22511318841756758 -0.4782512316620993 -0.09972741761893446 -0.23440811620993185 0.12326268315565968 0.19621460948249317
-0.1488801703140064 -0.454308725864084 0.22923075143407473 0.06458817690333304 0.05471170651310726 0.09487583585791443 0.20783959325200252 -0.09404433180208135
-0.030320232919037706 0.026120258611306645 -0.08604221977210201 -0.07760555817977394 -0.13651458664949204 -0.23460194174787646 0.11511597351238798 0.07109277339120769
-0.034943367955677776 0.08675987246787918 0.1153406736530487 -0.19808474713440719 -0.24606440002254507 -0.23123176379316446 -0.1648777880672391 -0.04874502022368583
0.07417476562539835 0.31832853930332644 -0.07924700430038505 0.08651876118623944 -0.16834564129392732 -0.05686439104094613 -0.024440377150785314 0.10611391294312786
0.12102407374185144 0.2702328088676529 -0.2945316872970479 -0.055965767437936124

layers.9.bias f8 [10]
00000000: b29b 01e0 e4b4 c0bf a241 6aff 4fd2 62bf
00000010: 9b15 0080 b381 c0bf eba9 ff5f 0f1e d4bf
00000020: bac7 03a0 77b7 d03f 9946 d7ff 9ddd b1bf
00000030: 224d 0dc0 29ff bcbf 093b 1340 a12f d0bf
00000040: 42f0 f3f6 7f16 49bf 68b6 f6bf 0e1c d2bf
-0.1305204480915712 -0.002297550435578625 -0.12895816564575288 -0.3143347203719304 0.26119795443002725 -0.06978785987964854 -0.11326847971695433 -0.25290709740959066
-0.0007656216456832859 -0.2829625010152541

layers.10.weight f8 [10]
00000000: 5a7b b648 bc11 ea3f bacd 5677 8fc2 f13f
00000010: 005c 35d3 0de0 ee3f 50f1 c3e7 785e ec3f
00000020: 76bc c7a1 f611 ef3f d37e 3af3 8846 f03f
00000030: eae9 97ab b5a3 ef3f 60cd b030 37c2 f03f
00000040: fd6c e925 ce99 f03f 818b cc7c 99dc f03f
0.8146649761364231 1.1100001012499505 0.9648503422894237 0.8865322615306841 0.9709427985925589 1.017220449553794 0.9887340880807731 1.047415914724148
1.0375501137667122 1.0538573145829278

layers.10.bias f8 [10]
00000000: ba89 b978 d12f c9bf 1aef 132c 6c07 d4bf
00000010: 13d6 82d0 2e55 cfbf 4b18 85b3 ef0c d1bf
00000020: 9d06 ad02 3177 c4bf f001 7f3e d00e 95bf
00000030: 9783 1ad6 bb80 b7bf e9c9 ae78 8006 7a3f
00000040: 5ede bfe2 e46f b3bf 37c2 49a8 45fb c3bf
-0.19677179713023724 -0.3129530363510057 -0.2447870748634818 -0.26641457110634253 -0.15988743429811772 -0.020564321341000225 -0.0918080709184451 0.006353856889222056
-0.07592611823917525 -0.15610571591561648

layers.10.running_mean f8 [10]
00000000: 0776 7d71 1353 a9bf 702b a435 36ad cfbf
00000010: 6d4a 60a4 06ba 9f3f a19f 650f d5a0 bdbf
00000020: 210c cfe1 bb98 ba3f 3476 abb1 a4d9 d8bf
00000030: 7a73 18af 7a57 c7bf 0291 ec85 3d6d d5bf
00000040: f89f f66b 9ec1 b1bf 864f 5e99 1ec9 d7bf
-0.04946194420220356 -0.24747350329593187 0.03098307016632378 -0.1157353556242229 0.10389303458127631 -0.3882838950210925 -0.18235715436540173 -0.3347925002911013
-0.0693606389601199 -0.37165036179907707

layers.10.running_var f8 [10]
00000000: 5440 6495 1825 bf3f a65a bca3 f369 c83f
00000010: 9854 e8da addd ad3f 10de df3a 7fe0 c13f
00000020: db66 3b95 276c bc3f c7dd 4006 073c bc3f
00000030: 86ce 3456 5018 c03f 1254 e865 831b 823f
00000040: 5a8b 6669 3bb7 9a3f 68fe 258c 3ea1 953f
0.12165979048973102 0.19073338980588977 0.058331902477371134 0.1396636044953401 0.11102530854568775 0.11029094603224286 0.12574199876108966 0.008841539905043692
0.026089599903240092 0.021122910789470956

layers.12.weight f8 [5, 10]
00000000: 799f d20f 90ab a2bf a3b7 b9d4 25ce c3bf
00000010: 0fb9 8c72 72ea a23f 6682 e3f4 a600 a33f
00000020: f46f 2f7c 9ddb c63f 6838 86ae a54a ba3f
00000030: e3c5 44ad aa03 c8bf 7c04 6377 2617 d9bf
00000040: bc3b 8fe3 2633 b93f ca8f 4e22 9b53 d9bf
00000050: 2a96 8592 db30 cd3f b697 9159 cc7d d4bf
00000060: 267f b159 2d3d b63f 65d2 839b 602d d4bf
00000070: 8274 7a0e 23c0 bb3f e514 bfbc cfcf d3bf
00000080: 69d9 47ec bdb8 c1bf 4831 163b c6d7 b4bf
00000090: d217 54b0 5309 b0bf 6999 9aa6 2b43 91bf
000000a0: f264 baa7 7e3a d0bf 7d0e 3546 433d de3f
000000b0: ce33 1b5f 56d2 75bf 0e04 eba9 13bc b23f
000000c0: 749d 54d2 9c3c b13f 3fc6 eb02 2687 ba3f
000000d0: 4282 7114 ce1d d33f ca8a e27f 4a19 bc3f
000000e0: ebc7 743a 93be d2bf e067 a5cc 3e14 b1bf
000000f0: aed6 4647 b8d8 b13f d8a3 1e32 b916 9fbf
00000100: 601c 5512 f97c c23f 9471 90b6 d422 bc3f
00000110: c8e2 6d94 29cf ccbf 3cc0 6001 53a6 d73f
00000120: 95a5 c387 b7f2 cebf 074b f829 62a9 c63f
00000130: 85d1 c057 9263 d03f 51bd 15ce 192b c53f
00000140: f0cd 50b1 55f2 b63f 754a 5335 f9b9 a6bf
00000150: 588c ca36 1900 d5bf f3ee b042 681a 8dbf
00000160: 9f6b 3810 3148 ab3f eb86 1f0e 4505 b2bf
00000170: f070 6f5e 6bf9 d93f 8da2 e1fc 7791 bebf
00000180: 07de 5c6d e8eb b2bf cd57 b725 0f89 d2bf
-0.03646516984127763 -0.15472863089547415 0.036944939120404745 0.037114350694314166 0.17857712329612208 0.10270152579161762 -0.1876118989980987 -0.39203797968736587
0.09843676620151504 -0.395727904799284 0.22805351881395214 -0.32017811533875873 0.08687098922518696 -0.3152696150494079 0.10840052703356842 -0.30955880577341893
-0.13845037495748194 -0.08141745512529497 -0.06264231734175432 -0.016857797664351724 -0.25357023601243533 0.4724891839616488 -0.005327546490389202 0.07318232439412517
0.06733112463972707 0.10362470218003582 0.2986941527979391 0.1097609102458065 -0.2928817816601838 -0.06671516891711304 0.0697131322875417 -0.03036012047201439
0.14443887133731703 0.10990647751936528 -0.22507209537049833 0.3695266259628658 -0.24178213242639104 0.17704417275725623 0.2560773713078322 0.1653778320573829
0.08963523463244605 -0.044387614974444135 -0.3281310114927627 -0.014210524115803013 0.05328515360834917 -0.07039290995410467 0.40584835264395647 -0.11940717624532678
-0.07391216917027786 -0.28961542781086963

layers.12.bias f8 [5]
00000000: bd50 f05f 787c cebf 7789 07a0 1f49 d33f
00000010: 5261 0240 46b9 cb3f 2842 d5ff 55a1 b1bf
00000020: a57c fc9f fa24 d3bf
-0.23817352947719952 0.30133810642123343 0.21659162641004542 -0.06886804099963995 -0.2991320192686067

layers.13.weight f8 [5]
00000000: f072 cdbc 4cc6 f03f c4ea 7c69 dbff f33f
00000010: 5a6f b5f4 0e77 f33f 08db 4684 804c f23f
00000020: 9463 3962 7eaf ef3f
1.048413026342299 1.2499651070235567 1.2165669974264888 1.143677250581904 0.990172569126218

layers.13.bias f8 [5]
00000000: 6f6d c049 4a3e c7bf d95e 0623 e4d2 c23f
00000010: cf33 dd31 e897 c63f 6be9 a06c 3241 c5bf
00000020: bd5b cd19 867a a6bf
-0.18158844567447427 0.1470608874340005 0.17651083407181864 -0.1660521536267184 -0.043903532647781664

layers.13.running_mean f8 [5]
00000000: c5e6 6cc8 bbf0 ddbf 98eb 0d7a 8fd0 8f3f
00000010: 45e5 0ec5 a1a1 d73f 2294 e107 558f cd3f
00000020: c1be 3512 3104 dcbf
-0.46781820843498806 0.01553451625090023 0.36924022907222237 0.230936650131441 -0.437755840094706

layers.13.running_var f8 [5]
00000000: 2cfa 40dc 82d3 9b3f 5d77 9c56 9864 8f3f
00000010: 0e1f 8f37 a47f 9f3f 97eb 612c 0bfa 853f
00000020: 7e0a 6a87 cfe0 7a3f
0.02717403859446159 0.015328588622249556 0.030760351077133534 0.010730826656290477 0.00656205240250307

layers.15.weight f8 [3, 5]
00000000: 77ed de48 42eb db3f 7879 d2d6 98a0 ac3f
00000010: 1094 4a2e c0d8 d43f de5f 0c5f 213b d63f
00000020: 0257 4dc4 e9ba d0bf a710 24d5 02f9 dabf
00000030: 18ec 08a5 ae7c d63f 360b c3f6 72fb d63f
00000040: 0e8a eb39 98f1 a83f 3c90 2fd5 c3f6 c73f
00000050: d511 498f 7a42 d53f 0e46 ca82 b44e c43f
00000060: 1230 d296 3c80 ad3f 6ae2 102f c983 d03f
00000070: 5f71 3d1e 09fc c13f
0.43623406521120195 0.055912758086594516 0.32572941322934046 0.34735903055252304 -0.2614082734120161 -0.4214484292463205 0.3513599979084474 0.3590972337516861
0.048718220777818386 0.18721816930258395 0.3321825408241044 0.15865188966977012 0.05761899319722387 0.2580435714367356 0.14050401665270848

layers.15.bias f8 [3]
00000000: 3ddb 9f4a 7800 c1bf 19a8 fba3 2e50 a53f
00000010: 47ec 3824 a094 b53f
-0.13282683986445845 0.04162736655946748 0.08429909595808836
