neural_network/gaze_ee_model.pt (torch_old, 20437 bytes, 38 tensors)

layers.0.weight f8 [10, 3]
000000 92 54 56 e8 8a 06 b1 bf 8c 3a 67 7b c8 24 c8 bf
       -0.06650608227058033 -0.1886225321345204
000010 ea b1 6c d3 d4 dc b7 bf 78 f9 65 f7 f0 a2 be bf
       -0.0932133690045657 -0.11967378654478533
000020 dc d9 aa 96 28 52 d7 bf 65 b7 a1 78 26 92 dd 3f
       -0.3643895598756026 0.4620453050655356
000030 9f 03 c0 68 a4 24 d3 3f b7 6b cf 9a 2a 97 be 3f
       0.2991114638280638 0.11949411658808527
000040 38 7c 99 c1 17 94 d0 3f a6 40 c0 50 c2 0b ba bf
       0.25903886705595225 -0.10174192878207808
000050 da cf 50 26 98 33 7a 3f a7 c7 47 ea cb a6 d0 3f
       0.0063968604418284895 0.2601804530996738
000060 0c 8c 82 f9 54 05 cf 3f 47 c0 80 68 5c 77 d8 3f
       0.24235021765807152 0.3822852154289688
000070 a6 79 a7 6e 37 29 d5 bf 17 22 5a 8d bc ea e2 bf
       -0.330640657482855 -0.5911543617995133
000080 13 57 f8 54 03 b3 b3 bf 97 97 36 bd a9 07 c3 3f
       -0.07695027183975993 0.14867135752609492
000090 8f 87 80 ff 88 5f dc bf 78 20 e4 8f 9d ec d2 3f
       -0.44333100272535203 0.2956918626009677
0000a0 39 4a c1 e9 c5 33 d1 3f c0 d4 c8 fc 94 e4 e0 bf
       0.26878497913017757 -0.5279030739972299
0000b0 93 a9 3c e7 7c 55 a5 bf d9 86 41 13 57 7b ba bf
       -0.04166784594265773 -0.10344452114216142
0000c0 c4 e5 5a ae e6 c1 ce bf 34 06 78 3f bb 6d c7 3f
       -0.2402923919051273 0.1830362377077549
0000d0 95 77 37 57 16 3a b2 bf fc a2 f3 62 6a 45 e4 3f
       -0.0711988413745231 0.6334735806131842
0000e0 17 6f ac 5a f0 8f e1 bf 06 20 ac 69 a0 5b d9 3f
       -0.5488206644981543 0.396217444606464

layers.0.bias f8 [10]
000000 9f d8 0b 00 1c 8c dc 3f a7 32 0a 80 c7 cc da 3f
       0.446051597638311 0.41874873641863036
000010 5f b7 fd 7f 50 53 cc bf 97 49 3b 00 28 07 9f bf
       -0.2212925553280298 -0.030300736440787537
000020 e7 1d e8 bf 7d f3 df bf ce c3 12 00 a6 58 aa 3f
       -0.49923652401818547 0.05145758391279963
000030 99 f6 f8 ff 29 f3 b2 bf 67 ff 20 40 6f 44 c0 bf
       -0.0740228891308682 -0.12708845740598493
000040 08 82 00 40 3b 9e d0 bf 83 7b 0f 00 89 ee b9 3f
       -0.2596576809901596 0.10129600764729045

layers.1.weight f8 [10]
000000 0c 69 25 61 a4 1f f2 3f 14 44 2c 43 ef 04 f2 3f
       1.1327251238604417 1.1262047409002252
000010 18 1e 65 bd 7e c2 ee 3f 8d 2e 2b a5 2c 5a ee 3f
       0.9612420748825938 0.9485076166105998
000020 df 5a 64 c5 56 21 ea 3f 5c cb 06 a1 8c 6d ef 3f
       0.8165696959793783 0.982122721199953
000030 cf 7d 65 8e dc 3d f2 3f 3c 6d f8 42 15 74 eb 3f
       1.1401029169427266 0.8579202945724442
000040 0e ed e3 8c 10 93 ec 3f 47 7f 40 98 13 70 f6 3f
       0.892952227760732 1.4023624369946945

layers.1.bias f8 [10]
000000 31 d6 ba 30 97 79 c2 bf cc 6f e5 3a a9 e0 b5 bf
       -0.1443356502474429 -0.08545930564781584
000010 bf ec 09 66 9e 3e cf bf 70 a9 2b 52 6a 5b b0 bf
       -0.24409847242700342 -0.0638948870288567
000020 82 28 a4 89 3c f1 ba bf c1 7c c4 69 21 9f bd 3f
       -0.10524347648984825 0.11570938904013685
000030 5e 1b 21 90 7f 0a ce 3f 04 8d 59 f0 56 16 bc 3f
       0.23469538247646943 0.10971587531962618
000040 7b 83 3c 28 e1 31 c1 bf 79 b3 c4 73 5e 0b aa bf
       -0.134334702154799 -0.05086798823535949

layers.1.running_mean f8 [10]
000000 83 03 a4 1d af b1 04 c0 b6 3b a0 df c5 fe 2f 40
       -2.586759788101007 15.997603405294154
000010 66 6a f4 7a 19 92 21 40 1e 84 95 a6 55 ef 20 40
       8.785350649200335 8.467450338126636
000020 30 d2 e8 08 99 01 27 c0 72 a9 be 6c cc 73 10 40
       -11.503120687885797 4.113084506165579
000030 56 91 fc 72 ff 70 1f 40 fd e2 ed b7 5b a5 11 c0
       7.860349461236487 -4.411482690710497
000040 81 14 75 b6 2c cc 09 c0 3b d9 f2 cf 98 d7 2d 40
       -3.2246946577529916 14.921087740320777

layers.1.running_var f8 [10]
000000 55 32 29 bd fd c4 fa 3f c8 8d 73 a3 d5 27 45 40
       1.6730935467814068 42.31120722906377
000010 1d 83 a3 3b 14 fc 23 40 b2 19 67 e6 a0 dc 28 40
       9.992341865262967 12.430915069661612
000020 91 80 f2 ae 97 8a 3a 40 ee 74 e2 4b 1f 02 2c 40
       26.541377004818575 14.004145022767684
000030 e5 92 41 1d 0f e4 33 40 b0 20 1b 65 f2 87 14 40
       19.890855625638228 5.132760600834601
000040 b8 ce b0 40 3c b9 fc 3f 50 32 00 0f 09 69 3e 40
       1.7952234770754512 30.410294473216993

layers.3.weight f8 [20, 10]
000000 e6 33 42 a2 71 90 bc bf f4 8d f9 60 4d c3 d2 bf
       -0.11157903872863492 -0.293170304014182
000010 7b 53 f5 10 b9 fc bb 3f 90 31 a1 eb ac 45 d0 3f
       0.10932499565144653 0.2542526532240794
000020 b3 b8 b7 52 09 46 c2 bf 4b 1f 59 2b 73 47 ca 3f
       -0.14276234187076894 0.2053054773007211
000030 82 71 bd 5d fc f4 c0 3f 34 3e 40 95 65 7d c4 bf
       0.13247637345456204 -0.16007680690425874
000040 52 7d 20 80 55 ad b5 3f f8 37 6f 39 fc 05 d2 bf
       0.08467611673448985 -0.28161531075318136
000050 96 32 55 e2 2d 6f cc 3f 90 69 5e 25 54 4d d1 3f
       0.22214292098432925 0.27034476899429993
000060 5e 37 b3 e4 5c 96 a7 bf 6d cb 54 49 eb 4b c9 bf
       -0.04606905261753867 -0.19762936668993394
000070 ad 0a e5 48 c5 78 cd 3f e0 69 c8 4d bc c6 c1 bf
       0.23024812754927862 -0.13887742803565484
000080 0e 01 05 9f 50 d8 c1 3f 86 8d be d4 98 86 d2 bf
       0.13941390766741119 -0.2894651486951364
000090 8a 3b 9b 30 0f 4c b5 bf 89 e2 14 1a ec 1c b6 bf
       -0.08319182335547573 -0.08637881886250844
0000a0 c2 e4 0f 68 40 39 d1 bf 98 30 f7 02 9b 16 d1 3f
       -0.2691193596106808 0.2670047310791772
0000b0 bb 84 22 f3 45 84 d5 3f 5b 37 79 5b 00 b4 d0 bf
       0.33619831794392113 -0.2609864133163364
0000c0 b6 2d e4 fc ae 81 af bf e9 5d 6a 15 c7 5d ba bf
       -0.061536281939051404 -0.1029934336933064
0000d0 a7 17 68 d8 d4 23 cf 3f 7f 31 02 4d d6 a6 d4 bf
       0.24328098837594078 -0.3226829292332453
0000e0 c0 53 97 69 2a 5a a9 bf 5c d6 60 b9 07 c3 c2 3f
       -0.049516034497777195 0.1465768485228861
0000f0 5b 17 fa b0 e6 ba d1 bf 84 7a 3f 02 29 c7 bd 3f
       -0.2770325401582931 0.11632019333726801
000100 c1 ea ea fa e6 06 c3 3f 5d 58 5d 78 8a 58 cc bf
       0.14864814044798005 -0.22145205380610636
000110 fd 03 58 3c 60 70 d1 bf 2b b5 94 55 ab 61 c8 bf
       -0.27248388188314704 -0.1904806297183453
000120 cb 76 f8 d1 7c 36 ba bf 44 d7 72 9f a1 c4 a5 3f
       -0.1023939144729084 0.042515803064289176
000130 e5 9a a5 30 b9 04 c3 bf 88 7f b4 66 7a 39 cc 3f
       -0.14858164668404253 0.22050409331222576
000140 c9 5f 33 3e a8 c9 cc 3f 02 26 39 d3 a9 95 ab bf
       0.2249040893282184 -0.05387621596726079
000150 87 a6 c0 ab 9b 3c ad 3f 52 23 cb 85 20 6d cb bf
       0.05710302802647243 -0.21426779301534765
000160 68 52 47 c0 06 7d 61 3f 86 0a ca 7e 9d 02 d4 bf
       0.0021348125321572382 -0.3126596201110846
000170 28 58 24 f7 70 16 c1 3f 79 39 87 5d fa 5c c2 3f
       0.13349735324362766 0.14346246306235935
000180 e7 33 d9 83 59 b7 c9 3f 27 ef b6 bf 8d 62 b8 bf
       0.20090788782036315 -0.09525381022006894
000190 02 1b d8 21 a6 1f c6 bf 4e da 91 b6 ff 37 c2 bf
       -0.17284084942385652 -0.14233395018136935
0001a0 de 26 c5 1d 97 30 cb bf ab 62 97 31 7e ed d1 3f
       -0.21242035821551658 0.2801204189577599
0001b0 53 40 8a c8 2e a7 ca 3f 08 73 d9 2b 52 58 c0 bf
       0.2082270125579294 -0.12769534245571657
0001c0 38 a5 13 26 56 23 d3 bf 6a 92 b6 05 45 4a a7 bf
       -0.29903176992828007 -0.04548850722065796
0001d0 b1 70 14 56 9f d8 d4 3f bb 11 bd a7 ce 31 c3 3f
       0.3257215824721796 0.14995749655112242
0001e0 81 28 8c 8a 21 9b bb bf 48 6f cb 2b 69 29 cb bf
       -0.10783586151606707 -0.21220125807200874
0001f0 e6 1c 0c 82 0c a8 ce bf 75 82 61 b7 ce 07 d2 3f
       -0.23950344419447517 0.2817265311078139
000200 33 91 3d f3 e1 b1 ca 3f 33 91 7d 05 a6 3f dc bf
       0.2085535466859568 -0.4413847974413045
000210 e3 4f 0e c3 9e 67 bf bf 07 cb 77 c5 fb 68 87 3f
       -0.12267486822230426 0.011430708850615824
000220 ac bc 1d aa 98 d6 c1 bf 90 54 a7 fe df b5 9c 3f
       -0.13936146074727185 0.028037547986816735
000230 6e d5 7d 8e b6 75 a3 bf 00 b2 a9 21 f4 45 d3 3f
       -0.038007454771029056 0.3011446312655437
000240 8b 22 27 1f ba 93 d2 3f 41 b4 cc 78 d7 d1 a1 3f
       0.29026654283783476 0.03480409001927188
000250 27 c0 3a 9b 8d 45 d0 3f bf b9 7d d2 5f a4 c6 bf
       0.2542451873696358 -0.17689130571257114
000260 76 63 f1 20 9b 4f d0 bf 16 07 6e cb 8b 2d bb bf
       -0.25485876290399945 -0.10616372791812653
000270 a9 90 aa 93 23 c9 b8 bf e4 60 dd fa 04 ee d1 3f
       -0.09681913714536229 0.2801525544978303
000280 97 7c 45 9a b7 f4 c3 3f ce 8f d3 73 9b ad bf 3f
       0.15590567620072157 0.12374278619569098
000290 06 94 fe 2d 48 82 d4 bf 45 90 d5 f0 f5 a1 c9 bf
       -0.3204517792858613 -0.20025514850124373
0002a0 d1 f9 6a f8 01 ec b3 bf a3 0e d0 d5 f5 ba 93 3f
       -0.07781994166268837 0.019267884421437242
0002b0 df 18 1b fc 44 3c 95 3f 85 4b f9 ea 9c 45 bc 3f
       0.02073772228939041 0.11043720947900056
0002c0 c5 df 4a d3 c5 04 c3 3f 82 ed 24 60 29 f3 91 bf
       0.14858315293326832 -0.017529150479487672
0002d0 a5 84 8e 62 3a 72 a8 3f 71 19 b6 3c d7 5f cf 3f
       0.04774649098477227 0.2451123281900425
0002e0 e4 5f b0 85 1b 00 c5 bf bb ea 95 50 2b bf 73 bf
       -0.16406578090459256 -0.004820985029591436
0002f0 de f1 58 d1 f4 10 d2 3f f7 9f 97 4e a8 75 b0 bf
       0.28228493160329815 -0.06429531019932698
000300 66 fe df af 0b 6f cb 3f 33 71 ab e6 d0 b2 d3 3f
       0.21432634437222758 0.3077890637048483
000310 5b eb 0e 0b 4d f2 bb bf d7 00 1b d1 35 ed d3 3f
       -0.10916596908547886 0.31135316296059784
000320 a5 ff 63 1f 2b be ca 3f 01 48 23 75 c3 e5 b7 3f
       0.208928480460597 0.09334966287431713
000330 51 9c f9 77 03 85 b1 bf 63 e4 05 77 dd ec c5 bf
       -0.06843587569311295 -0.17129104911490164
000340 f4 3d 01 f9 85 1e c2 3f f8 32 ef d2 4d 98 d4 bf
       0.14155649813118 -0.32179589842853273
000350 30 6b e2 c8 7f 99 ab 3f 79 b9 e6 4d 08 0f cd 3f
       0.05390548064425216 0.22702125362179595
000360 77 af 8b de d5 16 cf bf 35 33 ac a7 ea ca d1 3f
       -0.24288438192831638 0.2780100476673398
000370 3e 58 af e9 3b 49 d2 bf 40 db c5 f7 2e 53 cc bf
       -0.28571985073847717 -0.22128855798993108
000380 0a 07 16 ad 73 ef cc bf 0d ac 8f 76 22 78 b0 3f
       -0.22605749083964383 0.0643331088501073
000390 8e bc d7 5a d8 83 b4 bf 37 00 20 a3 b1 30 ac bf
       -0.08013679712142815 -0.05505900493881238
0003a0 5b 1f 1f fa 7e 47 bf 3f c4 e5 55 7e a2 c0 b2 bf
       0.12218469244464585 -0.07325187286723805
0003b0 29 e8 89 76 df 0b c0 3f b1 fb e8 f0 69 7c 95 bf
       0.12536233222982787 -0.020982413605675713
0003c0 90 1a 5f 93 de 19 b6 bf 18 05 aa 86 80 83 cc 3f
       -0.08633223627030362 0.2227631242313144
0003d0 36 99 a8 79 41 d6 cd 3f c4 86 90 28 8d 8b d1 bf
       0.23310106697426541 -0.2741425415170904
0003e0 7e 87 5c 08 e3 05 d7 3f bd 24 09 bd 47 0e b9 3f
       0.35973430458590616 0.09787414898996168
0003f0 18 e6 54 9d 47 af ac bf 26 8d bd bb 57 05 c9 3f
       -0.05602477832367131 0.19547554652226856
000400 60 a2 72 b7 25 e7 bc 3f ac c2 2b 68 5c 2f cb 3f
       0.11290202835756125 0.21238284193488732
000410 7c 73 1a cd 32 97 cd 3f a8 a0 df f9 9a 0e d2 bf
       0.23117671027003073 -0.28214144136155506
000420 f2 7c ae 7d 87 e0 cc bf 82 db 1e ac 8f 58 c3 bf
       -0.22560208927914221 -0.15114017395327656
000430 6c e1 e3 06 ca 16 d2 3f 2f af b3 6d 7b 8d d1 3f
       0.2826409404074386 0.27426038468432784
000440 d8 c5 f0 77 27 f7 b5 3f d5 95 a2 17 9c 71 d3 bf
       0.08580252340541195 -0.30380918796649087
000450 1f fd 64 ea ca f3 d5 3f 38 d8 80 9d 4e 07 c6 3f
       0.3430049218186059 0.17209799471464904
000460 ff 53 54 88 3d eb d4 bf 8c ae 31 6e 26 0c c5 3f
       -0.3268579322187292 0.16443329220361524
000470 cc af fc 23 03 61 ca bf 34 b4 e8 d7 4c 4a ce bf
       -0.20608557946377315 -0.2366424612277186
000480 7a 53 bf 04 1b 45 d1 3f 08 2e 05 04 75 92 c5 3f
       0.26984286750421627 0.1685320157651946
000490 35 95 50 33 27 cf ca 3f 0f 76 39 d9 a7 d7 d0 bf
       0.20944681172947247 -0.26316257680250116
0004a0 06 31 3f 30 c0 ac c2 3f 95 ab 88 af 79 8e b1 3f
       0.1458969340877802 0.06858025107855632
0004b0 99 1e 4c 1d 39 18 9e bf 3a bb 31 14 d7 c3 9e 3f
       -0.02938927880589279 0.03004394589191437
0004c0 df 8d 02 b3 76 ec d2 bf 3e a9 30 5c 16 af d8 bf
       -0.2956825969833669 -0.38568648341119516
0004d0 20 06 d8 31 58 96 b8 3f 23 b5 37 1d ef eb a2 bf
       0.09604407517328939 -0.03695628387127161
0004e0 fe 40 d8 c2 3a 8c c7 bf dd 3d 5b f2 2b cc af bf
       -0.1839669658079472 -0.06210458119823745
0004f0 ae 64 76 41 36 39 c0 bf 8e a7 73 bc ae b4 ce 3f
       -0.12674596973810054 0.23988899423357818
000500 50 80 b0 ed 7f 72 be bf 57 6e ce a4 dd 42 cc 3f
       -0.11893462708440095 0.22079058215318767
000510 6a eb 3e e3 3c 12 d9 bf 81 79 9a d0 ae f3 c4 bf
       -0.39173814956637065 -0.1636866110392923
000520 f9 8c cc 3e 4e 81 b7 3f d3 f1 9a 3e ca 60 b1 3f
       0.09181679757289264 0.06788314846466585
000530 c0 a2 9c c8 dc 94 8b 3f 8e 04 26 21 a7 07 b3 3f
       0.013467526313961087 0.07433552321710321
000540 6f 81 21 b6 f5 35 c0 bf 20 de 5c 3a 6a 2c d2 3f
       -0.12664672272786556 0.28396087359894473
000550 88 c8 56 39 b8 d2 c2 bf 50 40 4c 46 4c f8 ab bf
       -0.14705565261607867 -0.05462873800399903
000560 e6 de 6b fa 70 f1 c9 3f ce e3 0b 17 08 f0 ca bf
       0.20268070438009217 -0.21045018315615355
000570 62 14 c3 2b 29 24 b4 bf b8 43 10 57 b8 d9 c8 bf
       -0.07867677038582735 -0.19414428950451934
000580 78 55 52 20 17 fd cd bf 69 04 4f a7 0a 62 d4 3f
       -0.23428620413021028 0.318483985316624
000590 73 04 59 1c da a5 a9 3f 42 31 b5 91 2c 54 cd 3f
       0.050093475304046196 0.22913128962171397
0005a0 7f 86 19 b4 c7 69 bb bf a9 1c ff 62 6b 04 ca 3f
       -0.10708282610860385 0.20325987180533403
0005b0 72 5d 08 aa 07 8a a8 bf d8 21 41 60 49 b8 6d 3f
       -0.047928084855977895 0.0036279137730483683
0005c0 0e ab 8b 01 b7 2d d0 bf 15 37 70 59 d8 c5 b4 3f
       -0.25279021407065805 0.08114387687257037
0005d0 e1 bc 59 c0 fa 9d c6 bf 90 36 e8 93 76 2a d0 3f
       -0.17669615165821198 0.2525917477040389
0005e0 4f c9 3b 9e 7e ec a1 3f c0 55 b2 55 99 b0 8b bf
       0.03500743562280439 -0.013520429542306256
0005f0 e0 ef 19 88 1e aa bc 3f 51 60 59 a8 a3 f8 a7 bf
       0.11197081396852537 -0.04681884222071687
000600 a0 a0 a1 c6 b6 f0 bc bf 71 55 ac c8 9f b9 a2 3f
       -0.11304800366781587 0.03657244991897358
000610 b9 00 3f 78 02 23 ca 3f 2f f9 13 fd 9c 92 cb bf
       0.20419340964691005 -0.21541178090405697
000620 c0 a9 34 85 49 17 ba 3f 54 72 b5 b7 54 4f b9 bf
       0.10191783430187851 -0.09886674389913114
000630 a2 ae dc 95 16 8b b8 bf ba c8 6b 12 6a c5 c2 3f
       -0.09587231787434772 0.14664960765327867

layers.3.bias f8 [20]
000000 de 10 24 01 8b 2c a3 bf ee 60 1d 40 4f a5 cf bf
       -0.03744921101500308 -0.24723234778026132
000010 e2 b4 05 40 9c 45 c4 3f d7 9b ee 1f 1d 2b d2 3f
       0.1583743393524975 0.28388145559659733
000020 aa cf 86 fe 9d 57 9d 3f 66 2b d4 7f 7b e9 b9 3f
       0.028654545459815196 0.10121890898532868
000030 00 05 d1 ff 84 36 bd bf 6c d3 fd bf 9a e3 c4 3f
       -0.11411315198440164 0.16319593786797826
000040 48 06 df 00 75 95 aa 3f 33 38 c7 00 e7 97 ac 3f
       0.05192151675829543 0.05584642300128486
000050 0b 81 f5 ff 7b f0 bb bf d7 04 cc 7f a9 01 c2 bf
       -0.10913825034140616 -0.1406757234581508
000060 a7 a7 a2 be 1d 3f cc 3f 83 0f 9d ff e3 dd b4 3f
       0.22067615326278409 0.08151078215183642
000070 b8 1c 29 40 5f 92 ca bf ec 6a 07 20 8c 9d c3 bf
       -0.20759192116586234 -0.15324546398081595
000080 fa 38 40 20 33 2e c2 bf d7 d1 7e bf d3 7f c9 3f
       -0.14203490328549845 0.19921347475395976
000090 a9 fc ca bf 84 77 ca bf af 16 36 e0 1d 8d d3 3f
       -0.2067724167336327 0.30548807998307387

layers.4.weight f8 [20]
000000 94 6c eb 5b 66 90 f1 3f e8 f4 a5 7c 2f df ee 3f
       1.0977538672075626 0.9647443232094277
000010 45 2f c8 a3 21 64 f0 3f 7b 76 eb b9 6d c9 f0 3f
       1.02444614388783 1.0491769087306284
000020 78 5c f1 3f 2c 69 f2 3f cd 28 74 84 70 a5 ec 3f
       1.1506769655004785 0.8951952540385492
000030 69 f0 87 d4 82 a9 f0 3f fc ef e4 f3 1c a4 f0 3f
       1.0413845350258504 1.04006667395788
000040 1f 52 86 74 b6 55 f0 3f 5e 83 f8 38 78 5a f0 3f
       1.0209259559388852 1.0220873094005678
000050 54 b2 ea 84 68 58 f2 3f ac 97 3c 6c ee 8e f2 3f
       1.1465840522825106 1.1598953464503934
000060 26 83 78 63 58 0b f1 3f e2 8c a7 27 7e cd f0 3f
       1.065269840772268 1.050169138813367
000070 ec cf 6d 2a fa 58 ea 3f ae fa 94 91 af 46 ef 3f
       0.8233614758196359 0.9773786395451987
000080 ce 03 26 a1 16 97 f6 3f f3 9e 7c 52 16 c7 ef 3f
       1.411886815534888 0.9930526362486191
000090 9c e6 d9 77 60 85 f1 3f 40 ae 3a b6 22 1a ed 3f
       1.0950627023397947 0.9094403800167541

layers.4.bias f8 [20]
000000 a3 cf fb ce 5c 90 b7 3f a9 c3 4c f6 1b 82 91 bf
       0.09204654744445277 -0.01709788981242225
000010 74 02 11 e8 97 e6 c0 bf 61 09 fd 5e 4b 3e c4 3f
       -0.13203715163583107 0.15815107477289828
000020 0f 6f 88 cb 5c a1 61 bf 42 bc d5 86 0c 04 c6 bf
       -0.0021521389392215105 -0.1719985636113695
000030 3a 38 e1 5a 37 da c4 bf cf f0 89 77 f4 68 c5 bf
       -0.16290943086136328 -0.16726547085625618
000040 db 4e d7 ae 84 b6 98 bf db 28 b3 22 92 b6 c3 bf
       -0.024133752032709715 -0.15400911993339758
000050 14 08 05 a9 30 d3 b7 bf 40 5f de 2f d8 bc ab bf
       -0.09306625486809167 -0.05417514404615398
000060 eb 6c 2d fa d0 3d 67 bf 96 7b 99 e8 b1 93 b0 bf
       -0.0028370935046219035 -0.06475364617061383
000070 f2 d8 76 9a 27 92 d1 3f a8 d2 b9 4c 58 76 c9 3f
       0.27454557499312593 0.19892410036449815
000080 14 ba 40 27 96 71 ce bf 6d ad 03 58 26 27 d3 3f
       -0.2378413860000853 0.2992645129695209
000090 06 e4 ac 0d fc be c1 bf 6d 14 f5 44 ab 0d a7 3f
       -0.1386408869527999 0.045026161353725815

layers.4.running_mean f8 [20]
000000 24 5d e5 7c df 96 87 3f 0d f0 ff 97 31 7e d3 bf
       0.011518236159345614 -0.30457725375868067
000010 11 c9 0d 6b ff 8a c5 3f 8d f6 bc 0d bc 9e d3 3f
       0.16830437400091872 0.3065633901750083
000020 90 34 80 eb a3 2b 9b bf 05 42 aa 70 5e d2 a1 3f
       -0.026533662079647302 0.03480811238580731
000030 a5 95 0d 6b ad 4f c2 bf bd 1e 65 23 cf cb a5 3f
       -0.14305656172943518 0.04257056529109835
000040 c0 e9 1c 81 21 58 b2 3f b4 da 55 16 df 38 b8 3f
       0.07165727045222692 0.09461778922364311
000050 54 38 82 c9 69 50 c1 bf da a2 51 74 b7 8d b0 bf
       -0.13526651706019044 -0.0646624239904087
000060 c6 2f a0 74 1b 8f c6 3f 28 ef 57 dd 92 92 a7 3f
       0.17624228663077995 0.046040143508405074
000070 75 e2 eb 25 ad 44 c2 bf 05 6a e4 5d 07 57 c3 bf
       -0.1427208361781315 -0.15109340748388447
000080 60 4e c0 89 8f 8a b1 bf 99 65 c1 96 df 06 c5 3f
       -0.06852051842752749 0.16427225934129977
000090 6a 72 cc 17 69 20 c6 bf 4c f4 a6 0a 2f c7 d1 3f
       -0.17286409055749924 0.27778221168756967

layers.4.running_var f8 [20]
000000 56 0d 33 56 3a 57 b3 3f 7a ea a5 ca 74 86 b0 3f
       0.07554974178770144 0.06455163905585862
000010 d3 ac ea a8 a0 2c dc 3f f4 1e 0d c4 8d 98 c5 3f
       0.4402238511635918 0.16871807167830577
000020 62 12 fd fb b1 d1 c8 3f 44 a4 a2 21 9e f7 b9 3f
       0.19389939121369354 0.10143459626364498
000030 c2 33 b2 8a 50 88 ca 3f 9b 5e e1 d4 78 0d cd 3f
       0.2072849919535696 0.22697363276050883
000040 e5 7c be ec 49 b4 c2 3f 52 c1 1e 72 60 47 a9 3f
       0.14612697658319643 0.04937268632000048
000050 eb ba 78 e9 4f e9 b8 3f 61 be 56 eb 97 e5 a0 3f
       0.09731006097784316 0.033001658895383874
000060 6a 79 f4 08 f6 fa 7c 3f b2 bf eb 67 c3 fc c8 3f
       0.0070752726308270595 0.19521372389089958
000070 2b 43 46 76 b1 0e a7 3f e5 7e 6e f9 21 c6 c6 3f
       0.045033975303459726 0.1779215305259562
000080 59 76 41 e4 14 fb 95 3f a2 37 dc 4b d7 de 9b 3f
       0.021465612823126843 0.027217258458271616
000090 9a 55 82 68 be 92 b3 3f 0d 26 ae ae ab f8 ae 3f
       0.0764578824185577 0.060490956376337925

layers.6.weight f8 [25, 20]
000000 8f b0 75 72 26 d7 b9 3f b2 f9 fd ce d3 04 ca 3f
       0.10093918127467048 0.2032723198607989
000010 44 4f 96 66 88 b3 6f bf 1e 9a c2 b9 15 fe c3 bf
       -0.003869787604978388 -0.15619155474014773
000020 82 65 48 2f c4 46 b7 bf fc 88 4c f8 4f 3a c0 3f
       -0.09092355875363548 0.1267795526883403
000030 32 eb f4 dc 77 23 ba bf 2f cd 5a da 2c 2f a7 bf
       -0.10210370201540966 -0.04528179326498571
000040 8a 9c ef 76 37 f1 ce 3f b4 ee db 5e 15 a3 c0 3f
       0.24173634822293294 0.12997691280167134
000050 4f 87 73 26 cb 72 c2 3f ac 50 78 71 a7 69 d0 bf
       0.14412822129730293 -0.25644861298611477
000060 43 0f fe 0f 63 0b b8 bf 9a 0b 10 e5 d3 a2 aa bf
       -0.0939237512630458 -0.05202352687049157
000070 d0 7a 9a 3c 01 d7 6d 3f b5 be db 10 13 f6 a0 3f
       0.003642561355106856 0.03312739926138645
000080 a6 dd 06 16 90 f9 bc bf 23 16 a7 64 4f 66 bd bf
       -0.11318302667392874 -0.11484237868634088
000090 69 f0 57 9a 70 f9 b5 bf 5c df 5d 51 e6 a3 c4 3f
       -0.08583740013267661 0.16125182126028903
0000a0 e9 ab 81 0d 98 67 ba 3f c0 be d9 6d ab 74 b7 bf
       0.10314321832417729 -0.09162398750208478
0000b0 29 f9 34 81 e7 9e c2 bf f0 60 82 75 a6 a9 64 bf
       -0.14547437485630013 -0.0025223017838237258
0000c0 b6 b8 cd ee 70 e4 a2 3f 18 2a d3 2a 0e 8a 8b bf
       0.036899117613630336 -0.013446913415823977
0000d0 ca 3a 83 f4 30 3b c5 bf ad 43 e1 1c 04 5d a9 3f
       -0.16586887301533287 0.04953778126276318
0000e0 3f 57 aa 31 83 c8 d0 3f a7 c1 4a b4 f2 76 ca bf
       0.2622383103383647 -0.2067550068218342
0000f0 53 be 89 c5 d1 e8 d0 3f e0 be 55 af cc f6 aa bf
       0.2642101697046872 -0.052664181140128496
000100 c8 2f bd a0 0b 2a bb bf 65 33 8b 32 38 9a ae 3f
       -0.10611031221668477 0.05977035157193348
000110 d6 8a dd d5 22 5a cb 3f 7b 50 84 da 7c ce a7 bf
       0.21368823473593207 -0.046497251200123345
000120 2c fd f0 d4 cc 74 b8 3f 6e 15 69 5d 6b 3d 90 3f
       0.09553222845805881 0.0158592963946566
000130 9c d8 a8 7c 84 00 a3 bf f2 d0 29 a9 03 c5 bb bf
       -0.03711332341883741 -0.10847494964565721
000140 e9 8a af 89 f3 05 a7 bf 80 cb 08 c3 ef 48 c1 bf
       -0.04496727996572309 -0.13503834746515153
000150 52 f8 81 91 9a c9 b8 3f 33 16 14 21 c5 cc b7 3f
       0.09682622959550827 0.09296829278545075
000160 fd d6 68 39 05 30 b2 bf 9f 09 95 ae ed 14 c0 3f
       -0.0710452332649218 0.1256386854602853
000170 bf 2f 8a e9 1e aa a7 3f 8c ea 68 4a 02 60 bb 3f
       0.046219793327594065 0.10693373028417791
000180 b0 3b b4 f9 00 3c 95 bf d1 7e c9 78 2e 91 a6 3f
       -0.020736708870625342 0.04407639717532919
000190 7c 90 48 5d b3 38 d3 bf 1b 9e f5 56 1e 4b cc 3f
       -0.30033573255264634 0.22104243513170804
0001a0 9f 4a 8c 3c 8a c6 8d bf 7a 24 32 36 5d be c7 bf
       -0.014538841221598374 -0.1854969515445964
0001b0 4e f2 07 8a 46 ac b3 3f 24 a4 2e a7 ea 3c ca 3f
       0.0768474661817404 0.20498402751152967
0001c0 67 71 cf 63 56 9a c1 3f 78 96 90 86 a2 44 b2 bf
       0.1375225055079554 -0.07135978493951167
0001d0 f5 1d 6d 6f 35 88 b2 bf 04 23 ef fe 28 a9 c4 bf
       -0.07239088030211589 -0.16141235778766128
0001e0 4b 6b 09 7f 44 ae cd 3f 35 d8 5e be 16 a0 92 3f
       0.2318807239815562 0.018188815469066994
0001f0 c9 cf 17 8a 24 3a 82 3f 95 5f 67 e3 91 79 c1 bf
       0.00889996096064029 -0.13652251819325714
000200 14 68 63 db 0d 83 cb 3f d4 cd 55 52 e9 c7 bf bf
       0.21493695461578055 -0.12414415607582124
000210 9e 3b 16 67 7e 4d ab bf 59 97 0f bc 70 17 a6 3f
       -0.05332560547241559 0.04314758582749673
000220 77 6d c7 af 64 da c4 3f ae 53 25 b6 20 0d a8 bf
       0.16291483481368704 -0.046975157007785526
000230 a8 96 09 9e 31 f5 b8 bf a3 cb 15 0b 5e 46 c6 bf
       -0.09749136074386888 -0.17402244130388764
000240 63 e6 52 da 7c 8c c5 bf 4d 1d ec 9a 29 9a a1 bf
       -0.16834984455435906 -0.03437929168836238
000250 36 51 1b c6 53 3d 9a bf 0e 29 7b 47 ef 8a b8 bf
       -0.025624569860910294 -0.09586997504371572
000260 68 8b 57 0a e5 c9 8d 3f f4 75 97 22 00 c5 c3 3f
       0.014545239809142976 0.15444947899861428
000270 81 2d 5d 49 7d 6d b8 3f 7b ec d1 21 cd d1 ca bf
       0.09542067566979108 -0.20952762748115447
000280 5b 6f 8f 7e 25 d8 c7 bf c0 65 5d 72 6a 4e b1 3f
       -0.1862837665529423 0.06760278026685906
000290 6b b1 a5 48 c4 68 a9 bf 77 4a eb 5b 02 fc c3 bf
       -0.04962743174368963 -0.15612821090924786
0002a0 e5 93 f3 b2 eb aa 9b 3f cf 0b f1 5a 0a 58 b2 3f
       0.027019198224383607 0.07165589065793586
0002b0 8c 8b b1 9a 03 d1 ca 3f 23 7c 47 95 9e 05 c8 bf
       0.20950360349078456 -0.18767149247193612
0002c0 13 8e bf 6e ba 55 c0 bf ce 3d 60 94 7c 88 cd 3f
       -0.12761621863965952 0.23072774166983695
0002d0 8e 8e 1f 1f b3 9d ab bf bb 92 f0 3e 29 de bd bf
       -0.05393752818033902 -0.11667115961661072
0002e0 9d 3c 92 e3 61 e9 cd 3f 35 1d 2e 87 98 82 98 bf
       0.23368476497532678 -0.02393568348955207
0002f0 55 d5 a8 8a 7f d3 c2 3f 6e 53 7b f6 90 52 a0 bf
       0.14707941313251163 -0.03187993058023762
000300 06 7c 96 b2 b3 11 a3 3f 1c 69 97 94 e0 00 cb bf
       0.037244430113098345 -0.21096427207414414
000310 46 aa 2e 18 9a 1a be 3f 4b e8 65 8e 55 94 80 3f
       0.11759341326129755 0.008095425041336443
000320 a0 c9 b8 2f e4 4e 83 3f 3b 17 19 99 2d 8a b6 bf
       0.009427817064623423 -0.08804593074554827
000330 b8 39 86 26 33 93 bf bf 6b e2 94 9b d0 2d c6 bf
       -0.12333984079871285 -0.17327315899617032
000340 51 50 83 8f 79 84 cf bf 6d 9a a4 1c 33 8b 9c 3f
       -0.24623031146495802 0.027874754546383707
000350 0a cb 59 b0 1f 81 c5 bf ce 8e de 97 6f 81 ae 3f
       -0.16800304518582038 0.059581267632237464
000360 71 8a 25 9d fc 06 a6 bf 21 22 b9 b5 23 9d b3 3f
       -0.0430220548467063 0.07661650835610391
000370 f2 66 f7 ec c9 ca 96 3f 2e 94 48 3a c2 4d c9 bf
       0.02225795277431692 -0.19768550725817263
000380 88 b7 c3 28 06 5f 99 bf 95 d5 e4 57 5b 53 9a bf
       -0.02477655052000885 -0.02570860599481291
000390 86 87 8d 4d 0e 96 cd 3f 12 ce 16 9e 59 01 c1 bf
       0.2311418417621633 -0.1328537008208604
0003a0 a6 2b 39 3e 1e e0 a5 3f e8 36 f5 f5 33 d8 b4 3f
       0.04272551068841972 0.08142399554091251
0003b0 d4 49 29 96 00 e9 c2 3f bf ee 0b ed bb 80 c8 bf
       0.14773566562742124 -0.19142865252057636
0003c0 dc b9 8b 84 a7 c4 ca bf 04 41 17 f1 9f 18 cc 3f
       -0.20912641498530504 0.21950148841870754
0003d0 8e 83 e8 fe 7a 88 a8 3f 52 2e 49 93 e2 3e c0 3f
       0.047916263214808116 0.12691909972851306
0003e0 36 c0 da 61 97 f9 af bf 26 85 23 97 39 99 ad 3f
       -0.06245110578072437 0.05780963869052362
0003f0 14 8f fb 61 c6 0c c9 bf 5c 8f 3e a3 80 ad c8 3f
       -0.1957023600035589 0.1927948758212733
000400 4e d9 4e e9 25 4d cd 3f a5 43 58 18 d9 95 c2 bf
       0.22891687290184354 -0.14519799889288013
000410 9a 60 b6 cf 5c 2b b7 bf d3 f6 49 22 7b de cc 3f
       -0.0905054099188213 0.22553958105338853
000420 92 66 73 68 ff fb b8 bf 6e 26 5c 86 bd 00 9d bf
       -0.09759517955844846 -0.02832313664024471
000430 1d 46 63 20 a5 ad bf bf 3d 05 ee 00 ff df bd bf
       -0.1237433628150701 -0.11669915936183357
000440 50 cf 2a 2c 7d 77 74 3f 17 84 25 ca 5c df ba bf
       0.004996766047657378 -0.10497074065416744
000450 33 20 66 e5 f0 67 96 3f 80 cc 1f 4e e7 79 c8 3f
       0.02188087844982096 0.19122020067843337
000460 d0 98 e8 04 4e dd c8 bf cb 3a b9 c9 ae a5 b6 3f
       -0.19425368537594645 0.08846561837092819
000470 7a b0 df 6b ef b0 a0 bf 20 4e 4e 4d 28 8b bd bf
       -0.03259990875071224 -0.11540462386465622
000480 1f fc 46 65 2d fd b7 bf 0e d1 7e 05 56 07 b6 3f
       -0.09370692942228274 0.08604943880238045
000490 c4 2f 91 94 64 47 b7 bf 6a 98 a4 17 ab fc bb bf
       -0.09093311907889673 -0.10932416274281001
0004a0 c6 35 72 bc 39 a2 c2 3f 89 a5 f0 81 8c 4a ba 3f
       0.14557573033782328 0.10270002529491341
0004b0 42 51 57 a1 2d c1 a0 3f 08 31 62 6d 90 6d cb 3f
       0.03272383303161287 0.21428113308900998
0004c0 1d 46 9f 69 0e 3b a6 3f b6 2f 4d 8f 6d 61 a1 bf
       0.043419313805895345 -0.03394644140516283
0004d0 81 db 5a 2e 52 2c be bf c9 a9 82 df e8 7b c6 bf
       -0.11786378509246555 -0.17565642274469287
0004e0 33 e1 3a 0a 1e d4 a4 bf a9 13 20 2c 6f de c2 3f
       -0.04068082690122523 0.14741315512233413
0004f0 28 52 4e 75 9c ad c3 3f ec d0 08 e1 95 cd bf bf
       0.15373569228963047 -0.12423073524479705
000500 36 11 76 b1 57 24 ca bf 69 ce 72 fd e0 12 ca bf
       -0.2042340866575018 -0.2037011373082465
000510 ec fa 52 52 42 86 bd bf 75 d9 e6 58 c6 54 a7 3f
       -0.11532988080851297 0.045568655349984256
000520 7c 64 07 6d 46 2c be 3f 12 ad 93 78 52 5b b2 bf
       0.11786308442914789 -0.07170596545954691
000530 97 28 7e f2 3e 20 81 bf df c0 48 f2 72 b8 a6 3f
       -0.008362285399716547 0.0443759842640945
000540 3f e3 5a 12 f4 6d c3 bf 64 59 b8 fa f6 50 c8 bf
       -0.1517930116295023 -0.18997084848588053
000550 f4 b8 c2 92 c9 24 cc 3f 5e 53 08 63 d4 66 b4 3f
       0.21987266222044577 0.07969405572687324
000560 82 70 22 23 37 b1 b0 bf 9c 6b ac 29 a9 f6 c6 bf
       -0.0652040920999202 -0.17940248999442765
000570 5a 1c da 5b 19 54 cd 3f 59 9a 03 f5 6b 87 b7 3f
       0.22912899956665705 0.091910121267213
000580 09 a5 41 6b c7 60 c4 3f 2b 5e 27 e4 a0 37 a1 bf
       0.1592034600937853 -0.03362753663139658
000590 c1 da 4a 75 5a 46 c0 bf 9c 55 48 5d aa 1d a0 3f
       -0.12714701392333974 0.03147632969573097
0005a0 35 aa 2b a5 f1 5e b8 bf 13 11 b3 24 23 9e c4 3f
       -0.09519872934803504 0.16107596675841104
0005b0 f4 07 3d 55 e0 11 cf bf 08 d4 ff c6 f7 60 bb bf
       -0.24273304140120866 -0.1069483624304014
0005c0 ba ad c5 01 b5 f8 b1 3f a6 ea e0 82 61 5e 95 3f
       0.07020121854082265 0.020867847073740585
0005d0 7b 14 5a be 6d 62 c2 3f 89 33 bf ae d5 55 c8 3f
       0.1436288051083102 0.19011946709215646
0005e0 b0 e3 ad 30 4d 1c 9d bf a9 7b 4f 23 50 69 b0 3f
       -0.028428274246355023 0.06410694944450647
0005f0 e6 eb 19 7f 95 c7 c4 bf 4d 0d 16 8c e9 f9 c3 3f
       -0.16234081941715245 0.15606421795028283
000600 81 6e 67 77 ea b2 cb bf 20 73 5e 4b b0 0f b5 3f
       -0.21639757948183916 0.08227063980161775
000610 89 5d 06 8d 32 fe 95 3f 5f f3 88 4b 27 76 c4 bf
       0.02147749887225595 -0.15985575855475084
000620 23 5c 58 83 f1 9c c9 bf fd ed 0a 06 b1 5a aa 3f
       -0.2001020327886361 0.05147317122233728
000630 83 39 ee 39 50 a7 c3 bf ed 97 fd 83 ea c0 c4 bf
       -0.15354349926606056 -0.16213733143666734
000640 81 ac 2c 8c 23 75 d0 bf d5 c7 e9 1e fd fb 96 3f
       -0.2571495884792015 0.0224456358068393
000650 53 02 8e 41 f8 e6 90 bf fa 9b 8c 2c 44 af c9 bf
       -0.01650607967485691 -0.2006612031484279
000660 03 3a f2 0e 9b 90 a9 3f bd ce 5e 2a 88 64 cc 3f
       0.04993137891243651 0.22181799000610694
000670 62 2e 35 b8 20 33 b0 bf 31 55 c7 64 ca 0d a2 bf
       -0.06328014848002675 -0.0352614639302068
000680 d1 7b 04 17 69 d0 c5 bf 4b ff f7 7d af ee c3 3f
       -0.17042268394376817 0.15572160387818665
000690 90 de 58 dc 81 ac ca 3f 4d d3 be da b5 70 c8 3f
       0.20838950404298773 0.1909396474926787
0006a0 ca bd 18 58 e2 08 5f 3f 70 bb 18 54 7c 99 b9 bf
       0.0018942079917784065 -0.0999982552827825
0006b0 56 d9 08 e5 ec fe c2 bf d4 1b 9e ae 7a 0c a5 bf
       -0.14840470488861496 -0.04111083394587181
0006c0 78 0c 15 bd 96 ff b6 bf 65 16 72 92 ab 6f cb bf
       -0.08983747593178915 -0.21434540415446005
0006d0 6b 6a 94 cb 2e 0b b4 3f 75 b2 24 fe 5b ba a9 3f
       0.07829563589295112 0.05024993398032943
0006e0 6d df f3 90 eb 5e c5 3f 5d 46 38 5c 4a 9f 81 3f
       0.16695923402562177 0.008604603709531472
0006f0 85 ad b2 98 c4 4e cd bf 9d c9 89 f3 63 41 9e 3f
       -0.22896630722003067 0.02954631971301468
000700 b0 f8 1f f3 9e cc 9c bf 45 99 08 96 3b 70 a5 bf
       -0.028124316777387193 -0.04187189299072939
000710 59 6d ac ae 7e 35 cd 3f c0 c3 66 7c 29 b8 b3 bf
       0.22819503334981553 -0.07702883994239951
000720 51 aa 17 b7 66 6b c1 3f f4 d1 d1 e9 8d 82 b6 3f
       0.13609012546597168 0.0879296012734086
000730 eb 84 c6 a3 ac fa b0 3f 7c ec 7a ae e4 81 bf bf
       0.06632498739647345 -0.1230757642724018
000740 23 6f 2b 47 f2 77 ca bf 30 aa e7 f1 87 52 c2 bf
       -0.2067854735859039 -0.1431436473061054
000750 86 66 30 fc 8f 24 b0 bf 27 e8 a6 ad 1d ee c7 bf
       -0.06305789858779506 -0.18695422152615146
000760 98 14 39 f1 7b d9 bc bf e7 c9 f9 93 90 a9 cc bf
       -0.11269354476196936 -0.2239247057473925
000770 c1 6d 76 61 62 13 c0 bf c8 5b 41 dd 19 85 cd 3f
       -0.12559156187931644 0.23062442115289472
000780 cb 95 2f f4 7c 1f b7 3f d4 eb 28 38 48 3d a9 bf
       0.09032422029084512 -0.049295670371484995
000790 58 78 17 db 43 9c c0 3f 0b d2 97 37 25 44 be 3f
       0.12976883123241367 0.11822731597187201
0007a0 f1 1d 7d ad 53 e0 bf bf 46 d8 b6 ee 84 3f a9 bf
       -0.12451670632901092 -0.04931273855201872
0007b0 85 87 08 8f d6 ea a5 bf 34 06 f4 89 3b da 90 bf
       -0.0428072976685732 -0.01645749120235092
0007c0 0e a0 20 c2 d4 45 87 bf 23 5a 0f 86 20 ee a3 3f
       -0.011363660978602776 0.038926140179388356
0007d0 86 cc f7 3f 1f 49 c9 3f 02 d2 a5 1b 33 2d a1 bf
       0.19754400847850578 -0.033547970890968073
0007e0 c5 ad 09 4d 10 ab c2 3f f5 7c f2 7e 95 a9 ab bf
       0.14584544908153255 -0.054028198000418394
0007f0 39 14 85 b1 3e 98 bb 3f f7 ee 02 ca 4f 2f b3 3f
       0.10779182275753464 0.07494066888733274

layers.6.bias f8 [25]
000000 08 a3 f0 3f dc 61 c1 3f 2e 2b d9 bf 00 b3 b9 bf
       0.13579896089620314 -0.1003876179103542
000010 fa d0 c7 7f 8d 3b af bf 97 6a da 7f 18 f1 c0 3f
       -0.06100122628041223 0.13235765688735476
000020 de ed 78 80 50 ab b2 bf 20 8a 35 00 7a 17 ad 3f
       -0.07292655121357636 0.05681973698189702
000030 9b 86 db ff c7 9e b7 3f e7 27 f7 7f fa ed bc 3f
       0.09226655956765699 0.11300626396328504
000040 47 99 98 00 cf fa af 3f f4 62 f3 ff 98 60 c3 bf
       0.062460392782940626 -0.1513854264983575
000050 13 ee 09 40 08 49 b3 bf 04 4d a5 7f 32 ab c4 bf
       -0.07533313334891316 -0.1614745257635165
000060 ad 99 26 00 5f 59 c8 3f 85 62 26 00 0e b4 9d bf
       0.19022738940584585 -0.029007166632796916
000070 0a e8 12 00 ee c6 c3 3f 3e 8c ee 3f 65 02 c7 3f
       0.15450835231405363 0.1797606050650717
000080 f6 c8 fb 7f 19 7f c9 bf 67 26 16 00 40 80 c4 3f
       -0.1991912722510915 0.16016387943482188
000090 9c dd 5f 00 14 e2 c2 bf d7 bd e0 7f 44 9e c3 3f
       -0.14752435701641964 0.15326744312322546
0000a0 a8 df 34 80 39 9b b4 bf fa 4b 81 ff 9b 4a 90 3f
       -0.0804935396198504 0.015909612149993514
0000b0 af c2 92 1f b5 12 cb bf 0c b2 db ff 0c 03 96 bf
       -0.21150840799011436 -0.021496012798637706
0000c0 f0 a5 19 80 4b a2 bc 3f
       0.11185142400213244

layers.7.weight f8 [25]
000000 ee 45 da a3 80 43 f2 3f 0c 47 bd 22 9b e6 f1 3f
       1.1414801025861112 1.1188002926832636
000010 21 b8 93 02 7d 7b f5 3f 53 8e fb 2f 27 dd f1 3f
       1.3426485157647294 1.1164924501726048
000020 35 33 68 8d c1 b3 f7 3f 7c 83 c7 64 85 14 f1 3f
       1.4813857578003085 1.067510026616417
000030 2c be b5 13 98 18 f0 3f 49 fa 32 82 af db f5 3f
       1.006004406921316 1.3661341749099327
000040 3c e1 29 f0 a3 6e f1 3f 9c c0 f2 cd 55 80 f0 3f
       1.0895118123426775 1.0313318295339178
000050 3e 3f b3 12 9c 2e f1 3f c5 c2 03 2e 85 b7 f1 3f
       1.0738793116069725 1.1073047444771629
000060 fb 1a 94 92 90 8e f1 3f 87 28 08 64 44 da ef 3f
       1.0973058438991632 0.9953939393756323
000070 c5 ca ee f4 50 72 ec 3f 3a 8b 0b ad d4 8c f0 3f
       0.8889546188205136 1.034382511098285
000080 3b 47 e8 ad f6 11 f2 3f 97 61 bb 6c bd 55 fa 3f
       1.1293856423621509 1.6459326026289085
000090 2b d4 01 0e a9 e2 f1 3f d4 4a 54 58 f2 d5 f1 3f
       1.117837004390149 1.114733071361731
0000a0 14 7d c1 70 26 d1 f0 3f 2b c1 1b 73 b3 37 f2 3f
       1.0510620502971664 1.138598870889903
0000b0 3f e8 56 c7 a4 97 f3 3f 32 f8 c5 64 56 3d ec 3f
       1.2245223795603264 0.8824874847630382
0000c0 78 63 01 45 d4 ae f1 3f
       1.1051829047703148

layers.7.bias f8 [25]
000000 4d b5 ed 2c bf a8 b2 3f 26 99 78 3c 4f 95 3c 3f
       0.07288737151039477 0.00043614563444051497
000010 7f 83 7d b5 2a 37 b1 3f 33 3c fe d1 a6 e8 b8 3f
       0.06724802905001857 0.09729998232636276
000020 5e 3f 8c 5c a2 b7 d6 3f b2 54 fe 9c 6f 98 c5 3f
       0.35495814359545885 0.16871447721192606
000030 1b 95 ee 27 fe 13 d1 bf 24 5d 96 9e 44 41 ba 3f
       -0.2668452634773801 0.10255841132890403
000040 ab ab ae f1 fe b7 bd 3f 5b bd bb 17 0b 56 c3 bf
       0.11608880424925754 -0.15106333407264114
000050 f1 0b 2e 90 4c d6 bc 3f b4 fd 8c 8e 6f f4 96 3f
       0.1126449443818698 0.022416823459250515
000060 13 dd d5 70 1d 80 c3 bf 72 72 2f a5 b4 f1 bb bf
       -0.15234725961247672 -0.10915688546033112
000070 59 8e 4c f2 5d e4 cd bf 25 24 6a b2 81 4b c5 3f
       -0.2335317071057144 0.1663667794385059
000080 c7 f8 31 60 00 73 ad bf 2e 13 b7 02 1b 02 d7 bf
       -0.05751801656968918 -0.3595035101428036
000090 da b0 1e 86 89 c1 b6 3f c6 0f 1e f8 ca 3f c3 3f
       0.08889064335261612 0.15038430323704527
0000a0 31 ad 53 b1 4d 69 a6 3f 59 f8 9f fe cd 5f be 3f
       0.043772151848168746 0.11864936319759191
0000b0 e7 0b d7 65 bd 8e c1 3f 54 7c 32 0e d6 d8 c6 3f
       0.1371685740724324 0.17849231427405476
0000c0 17 0a d4 80 5d 13 b8 3f
       0.09404549021932272

layers.7.running_mean f8 [25]
000000 78 21 93 de 71 16 c0 3f 42 ec 30 e2 d2 81 9d bf
       0.12568496101290427 -0.028815550857171475
000010 12 41 79 02 6d 10 af bf f5 33 09 de 8a ad c3 3f
       -0.06067219405361092 0.15373359529112887
000020 fe da 19 13 e8 ae c2 bf f2 74 e9 16 47 e4 b9 3f
       -0.145962724043521 0.10113949117063095
000030 06 48 3c d2 4a 58 a9 3f ea eb 30 76 91 b9 af 3f
       0.049501741565237053 0.06196264808428238
000040 56 a8 93 83 e4 f9 c0 3f 69 f4 82 96 7a a2 c5 bf
       0.13262611794135876 -0.16902096127697355
000050 11 02 77 e8 bb 17 c9 bf b4 f8 83 1f 35 f7 c7 bf
       -0.19603680468391407 -0.18723167456477585
000060 37 01 3f 95 6a c0 cd 3f 67 9d ff 16 71 26 90 3f
       0.23243458068282916 0.015771643665997283
000070 c2 0a d8 a7 d3 ff b4 3f c6 c1 2a 06 ca 54 b4 3f
       0.08202860687019167 0.07941877985536569
000080 eb 49 fc e0 ca 22 c6 bf 9c dc 6f 0e 8e 77 ae 3f
       -0.17293678269977816 0.059505881559681145
000090 36 84 88 13 64 49 c2 bf 54 da 45 7c 02 59 d0 3f
       -0.1428647132279665 0.2554327214815306
0000a0 92 70 a6 40 91 47 af bf 0c b4 27 6e 8a 47 9b bf
       -0.06109289087473359 -0.026640093777974314
0000b0 af e6 e3 8c dd b2 a8 bf 6b 44 04 ad 15 90 a2 3f
       -0.04823963494159266 0.03625552880306134
0000c0 50 a7 ae 35 15 76 ba 3f
       0.10336430130578589

layers.7.running_var f8 [25]
000000 af bc 49 19 00 93 c1 3f 12 8e 36 4e 37 0a b2 3f
       0.1372985957600341 0.0704683843564953
000010 f2 56 98 ba 7c c2 c8 3f 19 9f 3f 70 8a 60 c6 3f
       0.1934352789982579 0.17482119065174898
000020 0d f3 15 3e 42 be 9d 3f 06 43 40 c4 8f eb d3 3f
       0.02904609207097324 0.31125253834856925
000030 53 03 e2 b5 d7 9f a6 3f 29 f0 83 37 cf 55 b5 3f
       0.04418825240373416 0.08334059815746343
000040 ca 39 51 a8 38 fa b3 3f af 90 f8 46 5e 77 cb 3f
       0.07803682431515493 0.2145803305185203
000050 28 e2 93 45 21 1b ae 3f 62 3f a2 fb 90 51 b6 3f
       0.058800735228889345 0.08718210357096504
000060 57 af 43 13 a0 f2 cc 3f 21 68 b5 a9 51 35 c6 3f
       0.22615433636326074 0.17350216661981313
000070 cc 2e b5 80 b8 30 b7 3f 54 8d 03 87 59 52 d9 3f
       0.09058716909674586 0.39565122780750994
000080 0a 9f 3f 33 9b b2 e0 3f d8 aa 4f 6c 65 ef ba 3f
       0.5218025208423296 0.10521539587322637
000090 77 1f a6 ba 32 0b b3 3f ec fe 5f cb b0 38 d4 3f
       0.0743896203695139 0.31596011982763517
0000a0 66 1f 7d e5 2b 67 c3 3f cf 52 f2 6b 51 37 d0 3f
       0.15158604341035725 0.25337634603174036
0000b0 e1 a0 49 f2 d9 0d a2 3f 95 78 53 ce 3d 90 b5 3f
       0.0352619274388546 0.08423219954736035
0000c0 42 f1 46 f2 91 8b c5 3f
       0.1683218415254349
