neural_network/mymodel.pt (torch_old, 11898 bytes, 32 tensors)

layers.0.weight f8 [10, 3]
00000000: 6ba3 91de 62f7 e03f 1629 4805 afdc babf
00000010: 9943 e588 97a0 ca3f 502e 8fc5 27d9 d9bf
00000020: 1386 e5de 3b42 dfbf 616e 1105 2a93 b7bf
00000030: a0f4 7bb6 fcd0 e2bf 6934 0621 9d91 babf
00000040: 84c8 a1ae b301 dcbf f4d5 f420 b350 a03f
00000050: 7bb8 c408 e4d4 d83f ac7e 19ea a3f2 d93f
00000060: 7e20 9256 f883 b9bf 710d a13d 5f44 d5bf
00000070: 9afd a92e 4a22 dbbf f3b8 2d85 7ca8 d03f
00000080: 331e f809 62d7 da3f 0f09 2585 243d c23f
00000090: fe5a 1d4a a8b6 aabf b409 ec2b 3778 cebf
000000a0: d8b1 3d9f 6f15 dc3f d337 4fb3 8348 d03f
000000b0: cbb1 c405 57e7 d8bf e2cf 9740 0cb0 9fbf
000000c0: fc3a 505c 8f6b d7bf 42a9 d8a7 3a4b d2bf
000000d0: 8533 77d7 d2cd d53f 6c1c 645c cc5d c6bf
000000e0: b440 fbb3 b3e8 c6bf f40c b686 6ee4 e03f
0.5301985117958855 -0.1049298656363685 0.20802587684968613 -0.40387911122227127 -0.488417594597281 -0.09208929656727484 -0.5880111278671798 -0.10378439003234664
-0.43760387472060125 0.03186569001483611 0.3879938207272812 0.4054345880631256 -0.09966995347542881 -0.3322980977865973 -0.42396788174661426 0.26028359418604835
0.419395932899053 0.142490925800367 -0.052174815222931756 -0.2380436863387111 0.43880835104826366 0.2544259310787968 -0.38911986888231515 -0.030945006792492687
-0.3659399415491149 -0.28584162131541657 0.3406874756008665 -0.17473749648363268 -0.1789765003982261 0.5278847342564448

layers.0.bias f8 [10]
00000000: 6aef e0ff 1852 b13f abdb fe7f 69c3 e03f
00000010: 214a 1600 77c3 bfbf 7245 0040 ca7d d63f
00000020: 1b36 0180 0355 d6bf 1a5d 0300 7f86 db3f
00000030: 0522 02c0 db3b cebf 83c1 da7f 358d ce3f
00000040: 138b 0100 752b d83f e04a febf 783c debf
0.06765896079099112 0.5238540172493819 -0.12407630684018801 0.35142761468986017 -0.3489388227506837 0.4300839901092829 -0.2362017333546335 0.23868435614486935
0.3776524066981192 -0.4724408984122146

layers.1.weight f8 [10]
00000000: 904b 4d54 fa33 f03f 7de5 e462 4f09 f03f
00000010: b763 14c1 1483 f13f 593f faf5 a020 ed3f
00000020: 4983 77f4 9653 f03f ed95 880c 289c f03f
00000030: 160f 850c 9c86 ef3f b714 ad3d d4a9 ee3f
00000040: 7498 743d d7f2 ef3f 796d f007 eae9 ef3f
1.0126899045032793 1.002272974305327 1.0945022146390622 0.9102330021141639 1.0204076337324344 1.0381241311637226 0.9851818317915526 0.9582310871707226
0.9983936500837118 0.9973039774953768

layers.1.bias f8 [10]
00000000: 7076 63ce 0915 a23f 6d45 d339 24a8 b5bf
00000010: 7ef1 3304 7d3a 343f 4063 6c8f 4db0 8fbf
00000020: 3bf2 3e56 8b88 bd3f 663f 655f e556 a0bf
00000030: 449f f509 f2e1 b63f 0532 b886 fcc8 aabf
00000040: b1a4 c2de e02f b23f 1f4f fe8b e971 9c3f
0.03531675953284441 -0.08459688579320863 0.00030866195829994797 -0.015472989978250973 0.11536475043880838 -0.031912963767011956 0.08938515418196596 -0.05231465477490719
0.07104306639179715 0.027778290910261846

layers.1.running_mean f8 [10]
00000000: e670 1b45 33ca 2840 409e c70f 7a44 0240
00000010: 541b 00cc 1f60 2ec0 fcd7 8e73 3b87 1040
00000020: adc4 ec9c 29cd 18c0 e478 2fc9 79ed dabf
00000030: 6d14 afef 8bf4 2b40 8d2c e02b d73e 2140
00000040: 2523 390e d97a 2340 d676 de34 1151 2b40
12.394922408675892 2.2834359391015653 -15.187742590916663 4.132062726586806 -6.200354053450764 -0.42074436804786175 13.977630128976864 8.622735377421373
9.73993725249745 13.658334400326037

layers.1.running_var f8 [10]
00000000: a942 3fdb e91c 1140 809f 340a b2f7 0940
00000010: 067b 6ee0 0213 3240 70c5 1317 f0b9 2e40
00000020: fe8b f184 0164 3040 00c0 6b4c a1d4 0e40
00000030: cefa 1110 3a46 2840 0568 5b37 dfe1 e53f
00000040: 4a0c 51c2 5acc 1740 611f ea88 08b0 3140
4.2782358414994315 3.245945052843979 18.074262644741815 15.36315986744259 16.39064818284168 3.853823277509946 12.137161733813084 0.6838222581093311
5.949564968296793 17.6876302310551

layers.3.weight f8 [20, 10]
00000000: 4b4a b489 6456 bbbf 6417 32b5 76f9 cf3f
00000010: 8995 bf3d 5802 b5bf 494c 9826 6a18 d0bf
00000020: bc55 af25 7a7d cf3f 33a5 c781 ba1e cfbf
00000030: b6f9 af09 9729 983f f37d c5b9 e675 8b3f
00000040: 8193 6aa9 2c3f bdbf 55f2 d203 93b7 ca3f
00000050: 1d18 a47b 1616 c03f 4271 7d7e b30a b83f
00000060: 1874 391d 3238 c23f 2a69 bcb3 8095 d0bf
00000070: c52e 1c9d 73d8 d13f cfe9 3178 6a25 c93f
00000080: 46de 9dbf 3307 ba3f 7b97 b20e 496b c43f
00000090: b58c 82b2 eece d0bf fff9 1ec9 d21e cebf
000000a0: 5331 4b5a 91f0 c23f 1192 d686 1209 b43f
000000b0: f078 764f b916 d53f 199f a713 e2e0 c3bf
000000c0: 8095 24d3 cee9 ac3f ee24 a411 cb43 d3bf
000000d0: be7a bbec f026 d4bf 3a7e 4073 a790 c03f
000000e0: c811 df3f d458 d0bf e432 0b4a 7555 cf3f
000000f0: 1703 9d95 38e2 cd3f 9812 0ffd 47f3 abbf
00000100: 2e36 a317 b9e9 c9bf f70f ff8f 3571 c3bf
00000110: c841 70f3 8dac cf3f 8b1c 916c 8478 d3bf
00000120: 0d49 cb89 b14f c4bf 7c79 7d44 57ae aabf
00000130: ea24 268a bf74 d4bf c914 cee1 d172 a2bf
00000140: 6d8a 0012 ba5d c2bf 8402 b729 9e19 d3bf
00000150: 8ab9 3c83 73cb d1bf a854 d4ae ca97 d0bf
00000160: 676c 6217 643a ccbf bf76 a200 1c76 c4bf
00000170: a239 efbf 483c d2bf bf02 aa40 9bf9 cbbf
00000180: a134 f6ce e366 b2bf 6c82 965b 08d9 ce3f
00000190: e67a dad9 b61d d5bf 7ec2 714c 98d6 8cbf
000001a0: 3209 0bf0 ede3 b8bf 7b62 9367 0af3 ccbf
000001b0: 5e5b b091 ecc1 cfbf 8dc1 47f5 616d d53f
000001c0: 5dc4 69f8 10ca d03f b727 23da cfeb 83bf
000001d0: f98e 3a29 6ecb 963f 4f4d 6f54 e916 d0bf
000001e0: de91 58d6 743b 9e3f cac2 45a2 ab1b b93f
000001f0: 2dc7 cc74 ff33 c3bf bb55 896f b7df c93f
00000200: dff0 a1db e739 b7bf dd57 22bb 6078 c53f
00000210: 7eaf 2f6c 422c ae3f bded 62dd 8bdf a6bf
00000220: 6b60 83b0 8a87 c2bf 2a88 ac24 13e5 c03f
00000230: a37f e1d3 125f d03f 23ee 86fb 24f4 d0bf
00000240: 72ae c87f acf9 c8bf 32f9 aeeb e4c7 bcbf
00000250: c73d 5c5f fc37 bfbf 8540 5d65 2c92 cdbf
00000260: 4a1b feb6 cf1b b6bf df66 a30c cfdc cc3f
00000270: ba65 5228 964e b83f 9376 5c38 3fcc cf3f
00000280: ddc5 9b6b e118 d6bf 4f88 820a 85c5 cc3f
00000290: fd25 c8f3 aeb2 aabf b874 a4c1 0736 cfbf
000002a0: 2909 7a02 8c31 adbf fe71 1c42 ae3d c53f
000002b0: 187d edf1 2392 c0bf faea 3e8c db83 b7bf
000002c0: accf e199 80ad a0bf 89b3 9822 d5e8 b93f
000002d0: 34ff c562 92ca c43f c472 b8fb 0b5c b2bf
000002e0: 9734 2047 6efe b4bf 9495 126f db69 a1bf
000002f0: 800b 2ffe de08 a43f c4dc bb45 5e2c cdbf
00000300: 3508 167c e11a a1bf 24eb 6b64 4fa1 bfbf
00000310: 0ffc 21f8 3d06 c23f 9ebf 84f4 558a a43f
00000320: 7752 8daa 91fc aabf 01e5 2f50 259d c93f
00000330: 91e5 2297 4fd7 b43f aa6e 58be 1d90 a5bf
00000340: 95ea 115c e6b4 cabf 7f3c ae91 b6da 74bf
00000350: bb64 6f21 3b15 9a3f 6fc3 6b94 29a5 cbbf
00000360: 9762 72d4 8368 cfbf e59d 1f85 3ec9 d13f
00000370: dfcd 4573 20ac c3bf c96c 252e c8e7 c83f
00000380: 95ef b95a cc7a c3bf df37 574f e93d c9bf
00000390: bfe6 faa2 422f 8dbf b3db 6670 72e8 c7bf
000003a0: aeb4 4a48 7bf0 bb3f 6449 d440 04d0 923f
000003b0: 0f63 5006 a3a5 d4bf 0605 ffc0 9c2d ab3f
000003c0: ac92 568b 7cc2 d03f 2b72 b5f7 5771 d23f
000003d0: 17a8 ac8b 6619 9abf 4ddf ed72 9496 c3bf
000003e0: cff0 9cad 324e cabf 5594 0db2 92db a2bf
000003f0: a717 cc6d 57ea a73f d37c 441d 27ee a0bf
00000400: 624d 7765 6bdf c63f a962 ce90 7261 c4bf
00000410: ca62 bbc0 2a2e bd3f 28c8 ef7d ff21 c5bf
00000420: 338a 9966 0f0a d13f 3c68 7e00 3c0f cfbf
00000430: 73c6 ed52 59be c9bf 5e5a 7638 bfc4 c43f
00000440: 3158 8e30 a23b cbbf fda3 ac34 5d57 cebf
00000450: 16e5 70ec b98c 673f 2f9c 9cb5 2cec bcbf
00000460: 2121 d976 7f93 a8bf e7dd c955 ca50 c43f
00000470: d8b5 e4a7 475c cc3f a2d7 cf27 7501 c6bf
00000480: a179 c556 7356 bb3f 0050 f258 2ea4 cc3f
00000490: fbf4 91a3 9192 c0bf 5e31 8af2 daf4 d3bf
000004a0: c375 031c 4013 be3f 2689 f47c 49c1 c7bf
000004b0: a650 6a41 79cd a53f fb7c 0de8 c76b d0bf
000004c0: e529 03dd 1617 97bf 6026 6337 7731 a63f
000004d0: e1bf e1b0 764a b5bf 8385 fbf0 8d08 cf3f
000004e0: 9a10 7c60 8183 d7bf 3f5f 02b9 af35 97bf
000004f0: 64bd aa27 45dc acbf 2c75 a6fb f274 bd3f
00000500: 301a 1947 f21e b2bf 3205 29f2 4468 d23f
00000510: 6e7a fd50 d60c b83f 4fa9 8da2 4259 b4bf
00000520: 8f12 1f2a ba57 c9bf 7825 6285 746c a83f
00000530: 2445 8466 aad0 d5bf 9a56 7692 0330 973f
00000540: 5dc3 9ffb 860f d4bf 80f1 c6b4 20bd b33f
00000550: c4b7 3e02 1bd5 c2bf 0864 532a 771d d2bf
00000560: 8faf a639 18fd cebf d285 79b1 fa8e d1bf
00000570: 739f 5a49 5fc2 d03f 5755 004c 37c8 d5bf
00000580: 6d9d df43 f671 c13f aa1c 9069 e105 b5bf
00000590: 964d ced3 6076 c5bf 6cd2 0c96 0f6f c13f
000005a0: 9cec 0bec e8e6 a43f 9de2 1283 0db3 cd3f
000005b0: 06b7 3889 f07a 8ebf 6609 4db7 e00b c33f
000005c0: ef2d 99ec 6a80 cfbf 86bf a65f 1ffb d0bf
000005d0: 0f4b cae5 9367 a2bf 61c7 d8fd 5502 abbf
000005e0: 33a0 ce34 a7ee cc3f e6d0 24c3 e272 d0bf
000005f0: fa3d 4301 17de a5bf a238 fb92 4e50 a0bf
00000600: 749e 6577 6827 bbbf ce14 78cd 3f53 c03f
00000610: 3754 7ecf 9ab4 d4bf 8005 b4e5 f5f6 d4bf
00000620: 0d50 5999 c52a cfbf 2c9e 9e1b b141 ce3f
00000630: 1f09 87dc c471 c33f a4b9 9e57 5cb3 d2bf
-0.10678699838562371 0.24980052802510067 -0.08206702716377924 -0.25149015206369946 0.24601675834735015 -0.2431252607050652 0.023596153227112025 0.01340847258023723
-0.11424521576061687 0.20872724234313247 0.12567406689794405 0.0939132865727901 0.14233995844816216 -0.25912492325155034 0.27883615820676894 0.19645434254546365
0.10167239597455432 0.15952408998162668 -0.26263015205968127 -0.23531565494882042 0.1479665461432754 0.0782634333796255 0.3295119548801173 -0.15530038795190462
0.05647131278446249 -0.3010127708699447 -0.3148767768706583 0.12941449286971524 -0.2554216979736137 0.24479547610680819 0.23346621804559994 -0.05459046329591394
-0.20244516042878175 -0.151892371473991 0.2474534453072137 -0.304230791113192 -0.15868205288149576 -0.05211136542378633 -0.31962574473489147 -0.036032255949103816
-0.1434853160763682 -0.2984385878917595 -0.27804267707951935 -0.25926463196931104 -0.2205319513494459 -0.15985441237437745 -0.284929454265603 -0.21855488450457547
-0.07188247492577428 0.24099831077639366 -0.32993861460447105 -0.014081182320496707 -0.09722792730739085 -0.2261670118084743 -0.24810559381213698 0.33480118706850065
0.2623331476125424 -0.009727119297526217 0.022260400072481954 -0.2513984036024412 0.029523683149948236 0.09807846748095553 -0.15002434924240884 0.20213978716007638
-0.09072732078670097 0.16773614060792755 0.05893142290719221 -0.04467427327605431 -0.14476140612419228 0.1319908074447665 0.25580282870759613 -0.26490139544668717
-0.1951194404549486 -0.11242514375678495 -0.12194802597172504 -0.2310233588164047 -0.08636186807244176 0.22548854939559868 0.09494913563175703 0.24842062236796333
-0.34526858814851186 0.22477782262018528 -0.052144496210598114 -0.2438363738555489 -0.05701863794549162 0.16594484546739346 -0.12945985138774385 -0.0918557374379069
-0.03257371786540317 0.10120899290696007 0.1624320013324848 -0.07171702285308884 -0.08200730549306666 -0.034010751064936035 0.039130180862705366 -0.22791651158306625
-0.03340820922586866 -0.12355514718721544 0.14081549278122948 0.04011791810842101 -0.05270819861349179 0.20010820784936104 0.08141038360454035 -0.042115144238974736
-0.20864562507252474 -0.005091393623742778 0.025471614757269317 -0.2159778570853876 -0.24537704347018938 0.2779079723390779 -0.15369039181278674 0.19457342389327995
-0.1521850054740496 -0.1972018849759811 -0.0142502981174063 -0.18678122032517094 0.10913820757805823 0.018371645409453477 -0.322609668890025 0.05308236938391002
0.261870513985097 0.28816794576940435 -0.02548752048020483 -0.1530328332116774 -0.20551141240310364 -0.036831459269514845 0.04670975890444078 -0.033066961596199505
0.17869322256465653 -0.159223862367772 0.11398570256586563 -0.16510003709078203 0.2662390233946638 -0.24265241645918134 -0.20112148808725613 0.16225424057911914
-0.21275737162494715 -0.23704114028922155 0.0028747206993357073 -0.11297873910790267 -0.04800031972678399 0.15871552647489226 0.22156615922851475 -0.17191948360385562
0.1067878805965621 0.2237604078587765 -0.12947292792151885 -0.3118197792580498 0.117481238211858 -0.18558615304306975 0.04258326457525756 -0.2565784231318983
-0.022549016227268032 0.04334614325632624 -0.08316747492221978 0.2424485613510506 -0.36740145132376656 -0.02266573492724366 -0.05636802777496078 0.1150657524471696
-0.07078470454971675 0.2876140942426729 0.09394587971972054 -0.0794870039805222 -0.19798972183902605 0.047702447206641574 -0.3408609391345456 0.022644096197459086
-0.31344770977653075 0.0771046105718991 -0.14712846383684852 -0.283048430761085 -0.24209883513446726 -0.27435176211846823 0.2618635383937466 -0.340345215053579
0.13629034341941396 -0.08212097956867362 -0.1676751169403416 0.13620180918373437 0.04082420236041992 0.2320267572411198 -0.014882926166218901 0.14879998159637892
-0.24610649635938794 -0.26532730427697293 -0.035946485329210735 -0.05275219653812147 0.22603311613534202 -0.25701207215321487 -0.042710036186345904 -0.03186269325452541
-0.10607006945576264 0.12754056484860715 -0.3235232378295367 -0.3275732749171638 -0.24349279391992731 0.23637975548375445 0.15190945403998854 -0.2921973090805301

layers.3.bias f8 [20]
00000000: b5e5 d8ff db24 8dbf e156 0560 6b79 c8bf
00000010: f5fb fe1f d64b d2bf 2d6f 03c0 a19e cf3f
00000020: b18e 0f20 6290 c5bf a585 f0df 95bb d23f
00000030: d05a 1140 13d1 ccbf 272d f83f fa61 cd3f
00000040: b200 f91f b1e3 d03f e76c 0980 0ac2 c23f
00000050: 17e4 a67f 2434 be3f eacc 05c0 47bb cb3f
00000060: f189 ec5f 3337 c0bf 8c80 fedf 6f86 d13f
00000070: 78e0 fc9f 17bf c3bf f551 1e00 a5ee a0bf
00000080: 3ffd fdff e446 b13f 146e f5bf 824f cdbf
00000090: 4948 6260 3ad5 d3bf 10c1 5cf1 3f0d 433f
-0.01423045992406711 -0.19120542706030277 -0.2858786880933047 0.24702855945258176 -0.1684687286898359 0.2926993071469844 -0.22513046863851693 0.229552537188604
0.2638972103341174 0.14654666187093499 0.11798313251974012 0.21665284038645122 -0.12668459113872602 0.2738303840105878 -0.15426917373565963 -0.033070713295419475
0.06748801469619979 -0.22898897526725703 -0.3098894063233542 0.0005814134808357647

layers.4.weight f8 [20]
00000000: a85e 62b8 2392 f03f e069 e90d 47aa f03f
00000010: b8f1 5dbe 964e ef3f a961 2442 ea5a ee3f
00000020: 135c 833a 1716 f03f 9178 72d2 e829 f03f
00000030: c976 e1b3 3883 ed3f 6745 01aa 5607 ed3f
00000040: 3a3c a874 01b4 f03f f4f7 f9ee 762a f13f
00000050: 3e11 56a2 24c3 ef3f 6094 60e9 6aa3 ef3f
00000060: eea0 37b8 a9e2 f03f 7fc7 e1b6 c640 f03f
00000070: 9edf d7b3 f042 f13f c391 19f1 0ae2 ee3f
00000080: cb53 3ba7 fbad ed3f bc8e 33e7 6604 f03f
00000090: 6871 da68 acd9 f03f 1e89 ca82 8198 ec3f
1.0356785967359574 1.0415716689518533 0.9783433645348429 0.9485980312193095 1.0053932462376494 1.0102318020431407 0.9222682488723076 0.9071458168420293
1.0439467007561363 1.0728673300759484 0.9925711794499319 0.9886984403752983 1.0553376384723907 1.0158145088030037 1.0788428330542739 0.9650931080801047
0.927488161682612 1.0010746985725936 1.0531429382163768 0.8936164431109181

layers.4.bias f8 [20]
00000000: 387f e5e7 153d 2e3f 4067 c52b b3a4 a33f
00000010: dd64 d4e1 df4a b5bf 17f8 3654 0c3e b1bf
00000020: 8e53 e20f 38e0 c5bf 7022 d188 8b5f bbbf
00000030: dfc3 13b3 1139 aebf eff3 5ca3 3c81 b8bf
00000040: aae0 b0ec 2965 933f be92 8619 baab b93f
00000050: 90ec e68e 41cc 8a3f 305e 7199 684d 99bf
00000060: f65e 7dc2 4d82 b23f 2c86 e686 0e22 a53f
00000070: e1db 9990 6abc 86bf 3b0f d31b 6521 a1bf
00000080: 242d cc07 ee42 b5bf f0b6 a737 d57c a7bf
00000090: 4ee5 bf5c 5e36 cbbf 5e52 e943 989a ba3f
0.0002307023277792143 0.03836593541445987 -0.08317374480647595 -0.06735302978538048 -0.17090512061681945 -0.10692665186173556 -0.059029152975092584 -0.09572199810368408
0.018940596648662357 0.10027659533677544 0.013084900067829502 -0.024709352841766286 0.07230077741894178 0.04127545735105928 -0.011101563012955342 -0.03345790829328484
-0.08305251779909334 -0.04587427429565405 -0.2125966980818625 0.10392142923348888

layers.4.running_mean f8 [20]
00000000: b8d4 10f2 e9c0 9cbf b65a 9c39 b430 a1bf
00000010: b291 17a3 3a46 d3bf 5aa5 7820 dc22 b2bf
00000020: a4f2 d61b cdc4 ebbf e5c3 acc5 c16c a93f
00000030: cfe9 2d7c b4fc c1bf fe57 8c3a 68e6 c23f
00000040: 6f27 1bff 6e84 ae3f 4c8c 9043 8e84 b73f
00000050: c7cc 72ff 736d a43f d72a 6797 232a b2bf
00000060: a696 5853 b17b aebf 6dab 0397 3da3 a83f
00000070: 4236 f4d8 488d bfbf ba6e c3ef 21dc c8bf
00000080: c6e5 faf2 6115 c6bf 1257 4347 aa75 e3bf
00000090: 7c54 1646 dc5d dbbf d245 8933 f866 dabf
-0.02807965793563902 -0.03357470706230485 -0.3011614411064115 -0.070844419410283 -0.8677735847228019 0.04965787446997875 -0.1405244451851346 0.14765646799850168
0.05960413803184294 0.0918663897469269 0.039897561009092856 -0.07095549055444948 -0.059537450241163456 0.04812042683064175 -0.12324958130576483 -0.19421791274259254
-0.17252754558812294 -0.608113421617164 -0.4276037868924687 -0.4125347617419638

layers.4.running_var f8 [20]
00000000: c82c 763a 4017 c93f 673e c9ec d8a9 cf3f
00000010: 0486 924c 4f7e d73f 6333 5621 4631 c73f
00000020: 7191 c713 66c9 c93f 84a8 ab12 7d49 a43f
00000030: 18f9 d5b7 6f41 bc3f 8ca2 1c06 8c64 bf3f
00000040: c112 5ea2 e750 b63f 853f f47f e60d 9a3f
00000050: 16b9 538f 25c9 873f d95c 47d7 d7c0 c43f
00000060: b8c4 1481 ce35 913f 8b98 069f 621b a63f
00000070: 1b71 8aad ef9a b43f e1d6 ed05 9350 a83f
00000080: 5bc8 9a7d 16b0 cc3f 74bd e7b7 d708 bb3f
00000090: 5fb8 874c 80ff 883f e484 8cb3 ecdd bb3f
0.19602206091471985 0.24737083017179204 0.3670843360688141 0.18119122150201425 0.20145870176123595 0.039623173264616646 0.11037348020724769 0.12262797497954575
0.08717200960206652 0.02544365077943624 0.011614125668043356 0.16213510524423816 0.01680681860779451 0.04317768279297337 0.08048913943133977 0.047489733194124424
0.224123774843579 0.10560367812990085 0.012206079803004309 0.10885505088346609

layers.6.weight f8 [10, 20]
00000000: a169 cb80 a030 ad3f 3a52 05f5 e73c c03f
00000010: 2c57 6a48 00b0 cb3f 2298 8928 c287 ac3f
00000020: 7f1c 10b5 f6d9 cdbf ac1b 3dd0 a0d8 abbf
00000030: 9757 833e e905 c23f 18fe c3b4 6913 ac3f
00000040: ac0a a8f3 42cb c53f 9614 ecb4 68e2 cabf
00000050: 55e4 4f2a e396 cebf dc01 eecc 388b c33f
00000060: 096e 5962 d515 c4bf 22c8 c8f9 558c ad3f
00000070: bb68 0398 555f b03f 7e88 ce12 82be b0bf
00000080: a6dd fe9f 9e0a c2bf 3049 5447 d69b c93f
00000090: 4e49 8daa 887a b0bf 8f5d abeb ca3f b63f
000000a0: 42bd 70d1 e71b ccbf 2345 ab16 3bf2 a4bf
000000b0: c73b 8f46 9ba4 97bf 2128 5d08 ffc7 3dbf
000000c0: 4fc6 f757 49ca c63f bf93 af91 1057 a8bf
000000d0: 7f30 d12e a9d6 b4bf e0dd 46fa bf8d abbf
000000e0: 8a41 8288 613d c1bf 2a23 05e0 1110 9abf
000000f0: 491f 5570 775a acbf cf0f 17f5 89c5 aebf
00000100: a4a6 a852 757e bb3f 42b9 16cc bc8d b93f
00000110: 85f6 2a8c 1bac a13f 468a 1d36 378b be3f
00000120: 5151 a83a a88e 9ebf fdc1 de66 a472 c8bf
00000130: 517b bd8f 54b8 ce3f aca6 567b d347 b5bf
00000140: f4b2 8b54 952a c33f 14c7 b66d d903 ca3f
00000150: b975 8cfb 9cdd 983f 7464 6de4 d24b c53f
00000160: da67 3235 f888 b53f d646 013c bfe4 b83f
00000170: fd56 6726 abbe c03f 121a 38a7 a99e c0bf
00000180: 0520 ed09 2a87 963f e7fe 5bf0 54c5 c23f
00000190: 526f 3729 1b79 c03f 430c 903c 4e7d b6bf
000001a0: 0fbd 2cef 9b9f a6bf b898 935c 5e61 c4bf
000001b0: 3160 161b 63f8 d23f 27c0 1dd4 e4d3 a0bf
000001c0: 0e0c 0fee 5a9b 8b3f 5dc0 e965 e141 2e3f
000001d0: a001 4457 75f1 be3f 9b58 56eb d2f3 bbbf
000001e0: 6d13 b78c 9d93 c73f e1df 03b6 b823 cfbf
000001f0: 875d 09f1 10b7 b1bf 7570 9f71 73ad ce3f
00000200: 4637 9b72 827c b93f 1ef2 aaa7 111a cc3f
00000210: 3e02 3fd0 c379 b1bf 9c45 935f 5ad1 703f
00000220: 7689 9f86 ed28 c7bf 1785 b657 89ac cf3f
00000230: 1202 7364 38a2 bfbf a6ba 7eac fbf6 b33f
00000240: c322 e159 0544 b4bf 4179 7991 99c9 aebf
00000250: c1a1 9366 a06c ac3f 95d8 0081 df21 cebf
00000260: f416 de4b eba5 bebf 76b0 6446 5f4b c0bf
00000270: 5e01 e298 7a52 b5bf 49fa acee 7fe4 c7bf
00000280: 989f 8401 ad66 b6bf b734 163d 2a46 bd3f
00000290: 490c 617d ddbe c6bf e9a5 e3cb 9818 c2bf
000002a0: de3b 395f 9141 c33f 5025 bdc1 3296 d5bf
000002b0: 331b 262b 24f9 c03f 3bdc 3e12 acd3 6f3f
000002c0: 20b0 dcfd 8975 b0bf 028a 0e25 21f6 b33f
000002d0: 5e65 0b93 d7de c73f 1ee5 83d7 992d c13f
000002e0: e3a4 5d8b 1150 bcbf 5026 c410 6a22 c33f
000002f0: 4b6a eb71 c9a3 ae3f 151b 2910 4ee6 b0bf
00000300: bc85 2ed6 ae71 87bf 4aa3 73bd 8a8f cabf
00000310: 1869 ab98 8fea adbf 2f1a e092 799c 75bf
00000320: fb59 2a26 6c57 b9bf c8f9 d14a 9390 b63f
00000330: d8a0 ab28 3226 a53f 7501 d52f e411 a23f
00000340: 3136 912e b301 be3f d642 f722 915b c13f
00000350: 028d 7ccc 34c6 b7bf b76a 6c72 ee8a b7bf
00000360: 7769 5f77 8b43 b13f d54a 10bc 8499 afbf
00000370: e2eb dbc1 31e6 c93f 57b7 ce9e 9fbd c83f
00000380: 6299 ceb9 9da9 d03f acb3 c62c e8f1 90bf
00000390: 5be1 f039 1737 a0bf 1bf4 e1f1 f6fa c2bf
000003a0: 3452 fcf0 d97c c33f 3e09 f3f9 edca cc3f
000003b0: 817e 4863 7ed7 b5bf 6388 8360 3ec5 c2bf
000003c0: 5c0f 919e 29f0 cabf be9f 97b7 00bd 7d3f
000003d0: 48af 5339 36df bf3f f4b8 e35d c075 c53f
000003e0: 947f 0d1a 627e b43f 3bfe d99b f701 b5bf
000003f0: f68c 0b0e 9064 c5bf 64d8 e6d8 83f4 bcbf
00000400: d4dc 6af8 f41a a13f ba7b 48b3 8095 cbbf
00000410: 84d9 e605 5df0 c83f 9f70 1a4b e617 b53f
00000420: b831 ce7b 4423 d33f 0f84 810f ac7f b53f
00000430: eef2 ce9e 0dd7 babf 2dba 75b7 a5bd c03f
00000440: ad9e 2011 6cd9 b93f db4a cead 54a0 ad3f
00000450: 8f17 492e c9a3 b93f 2a19 d531 a9cf c3bf
00000460: c5f7 03ec caa6 d03f 2beb 2a34 c418 5fbf
00000470: afc4 54df 4ee4 8abf 22bc f780 5d4c a53f
00000480: 0a1b 7817 af26 b4bf a330 d911 6022 a4bf
00000490: 817b 416d 4f22 cdbf a681 8c4e 4f86 a6bf
000004a0: 3b92 8a40 5a17 b4bf 98eb 8bdd 8d8a c4bf
000004b0: 9bba cf9b f899 bdbf b078 d981 7964 bbbf
000004c0: bd44 865d 21b6 68bf 5878 694d 9618 d3bf
000004d0: 1cdd 5e64 0395 ca3f 1962 4fe5 bab9 aebf
000004e0: 6820 b5b9 707a bc3f 4404 da6c 15e9 b0bf
000004f0: 37e5 3fcd eb59 7abf 6914 0813 36e9 b23f
00000500: 6a02 04fc 9103 c1bf cd92 3ba0 fecf 903f
00000510: f5fa f866 15a4 bf3f c455 501a 1b38 bb3f
00000520: 0620 8a65 b0de 9ebf 8595 3469 3066 b73f
00000530: 30fc 7317 ba42 a23f abf5 02b8 5672 9abf
00000540: b020 8968 a014 cbbf a647 e44c 5ec1 cd3f
00000550: 1cf9 e37f b47f a03f 32ab 9ac5 d114 a3bf
00000560: 552b 3d31 8c2c b73f fa8f 4af6 146b debf
00000570: 0eb0 4d6e 0faa c3bf a36c af67 edc2 96bf
00000580: fd80 39ea 6f87 c5bf 12ed 28ab be8c b3bf
00000590: 8b9b 6717 9ef9 cbbf c9c7 07e5 dd97 c8bf
000005a0: faac a30e bce7 983f 2e5f 9059 6a13 cdbf
000005b0: 6fb1 e1d6 7a48 be3f e6cd d0da 880f d3bf
000005c0: 7eab 5031 47f3 943f 2d51 c1a8 b185 c3bf
000005d0: cc73 84fc 82b9 8abf c1d5 0e73 bba8 b33f
000005e0: 08fa 0d43 d081 bc3f 9b24 532f fca5 bebf
000005f0: a6cb 6cb6 3149 a5bf 4732 cbb2 20ef c2bf
00000600: c022 ff73 7339 c0bf 7ff2 1291 2df9 ccbf
00000610: 8bea 1229 82c3 9fbf 6a27 6b51 dae3 c0bf
00000620: 68c5 396b 05ea a93f e341 da23 680d c83f
00000630: a5ad 7e2b a1a1 c7bf 6374 4d87 f108 bfbf
0.05701161930274457 0.12685870613008082 0.21630862747104496 0.055723254631445465 -0.2332142242523538 -0.054387116832507715 0.14080539276500012 0.05483560878382948
0.17026554963384422 -0.21003445467082277 -0.23897971693057465 0.15268621450742514 -0.15691630651677738 0.057711302510498066 0.0639546867491018 -0.06540692290448821
-0.14094908535274192 0.2000682686126054 -0.06436971820702306 0.08691089872023937 -0.21960160948354185 -0.04091057445260506 -0.02308886163865134 -0.00045442558654385136
0.17804829402261865 -0.047539251121441854 -0.08140046494480833 -0.0538158410085392 -0.1346856991335808 -0.02545192651567444 -0.05537770506140178 -0.06010085217306448
0.10739835041081364 0.09981899244914863 0.03451620183976182 0.1193117625348715 -0.02984106882111465 -0.19099860213238165 0.24000031488955156 -0.08312722932046296
0.14973703983505227 0.20324247223975844 0.024282887318909128 0.16637645867993778 0.0841212396502721 0.09724040236440187 0.1308187425153661 -0.1298420015811677
0.021999985557414465 0.14664708839699545 0.12869586479689105 -0.0878495118959544 -0.04418647093404548 -0.15922145386065778 0.29641034741644307 -0.032866621869175376
0.013479910268761965 0.00023084522668481963 0.12087186222561863 -0.10918920751132292 0.18419236536842779 -0.24327763450105436 -0.06919961819345676 0.23966830299366718
0.09955611513143223 0.2195455616655559 -0.06826423486837371 0.0041059045990591535 -0.18093651841543207 0.24745289595470218 -0.12356903507589603 0.07798741303734377
-0.07916291660616097 -0.06013183499156805 0.05551625492245505 -0.2354087238215398 -0.11971922495112236 -0.1273001760213252 -0.08328977806559609 -0.1866607585343039
-0.08750420844137208 0.114351882852321 -0.1776997434809309 -0.1413756366303425 0.15043847226703994 -0.3372923747998202 0.13260318858029904 0.0038851128356003606
-0.06429350326351413 0.07797438769060963 0.1864881008139418 0.13420413039401863 -0.11059674885258945 0.14948774164831713 0.059843344837379485 -0.06601417440934328
-0.01144730178004038 -0.20750555277416033 -0.05843018282549134 -0.005276179215803852 -0.09899021083615615 0.0881435449282214 0.04130703684296727 0.035292750204919544
0.11721343886275616 0.1356069012386089 -0.09286813728663293 -0.09196367543737947 0.06743690170643456 -0.061718128163325815 0.20233747449660117 0.1932868504931615
0.2603525461694486 -0.016547801716729246 -0.03167030889784669 -0.14828383265185682 0.1522476603210109 0.22494291977461417 -0.08531942294984597 -0.14664439880931743
-0.21045418016921758 0.007260325242420094 0.12449969195921284 0.16765598854494324 0.0800534547429364 -0.08206126742333535 -0.1671314304904638 -0.11310600324108716
0.0334087899440704 -0.2154999614149043 0.19483530796214776 0.08239592870308109 0.29902755823493576 0.0839793718200925 -0.10484395148428025 0.13078757722856107
0.10097384851598674 0.05786385175374217 0.10015542392747377 -0.1547748082468357 0.2601802162970411 -0.0018979946186578704 -0.013130775633359041 0.041598245614175036
-0.07871527026155092 -0.03932476251483876 -0.2276095660663167 -0.04399345239494616 -0.07848133159365826 -0.16047833745673468 -0.11563066295614492 -0.10700187130120997
-0.003016534010563092 -0.29837567863240144 0.20767252350717846 -0.06001075791545336 0.11124329122424259 -0.0660565748930973 -0.006433411694154948 0.07387102093351107
-0.13292145543529738 0.01641843655569879 0.1235974670789622 0.10632485763956995 -0.03014636630771863 0.09140303200236673 0.035665336001322934 -0.025826792699026473
-0.2115669737270358 0.23246363405683929 0.03222431241191456 -0.037268214580157624 0.09052349283335322 -0.47528575946694185 -0.153627327784648 -0.022227963880010148
-0.16819571434735528 -0.07636634520251942 -0.21855522291954474 -0.192134606200453 0.024321497338786614 -0.22715501187553272 0.11829345461018702 -0.29782315605845466
0.020459282288509233 -0.1525175165176135 -0.013049147921771274 0.07679339942008935 0.11135579716754063 -0.11972023158445426 -0.041574052351641286 -0.14792259912646186
-0.1267532650365606 -0.2263543089265063 -0.031019243008567215 -0.13195351577297326 0.05061356481463514 0.18790914297689118 -0.1846200430276045 -0.12123021653447234

layers.6.bias f8 [10]
00000000: 8817 0200 cac4 b23f ceeb 0e00 4eaa babf
00000010: cf87 a6fe c312 72bf 309b feff a6ad b43f
00000020: 4830 f5ff aa8d c23f 488f ca7f 84a6 babf
00000030: 92c3 ebbf 25e1 c1bf 5243 0560 1423 ccbf
00000040: 781f 0060 7b44 bbbf 97a3 fb7f d2f4 bf3f
0.07331526279639722 -0.10416114331648815 -0.004412427524956144 0.08077472448222234 0.14494836328447236 -0.10410335655120406 -0.13968345519199638 -0.21982054413322288
-0.10651370137941096 0.12482944130500893

layers.7.weight f8 [10]
00000000: 96c4 cf01 7a76 ef3f e6f9 1fab 8ed6 ed3f
00000010: dc83 05f5 49cb f03f 4eca 9aec 1be6 ef3f
00000020: 5891 4e5b 9dfa f03f e68a e302 92f2 ee3f
00000030: 7771 ffd6 e836 f03f 29cd d625 7a82 ed3f
00000040: 5c43 c143 349a f03f c559 e774 fdc7 f13f
0.9832124743826565 0.9324410764964426 1.0496310778764757 0.996839487188774 1.0611852232624042 0.9671106392309781 1.0134056471207182 0.9221773852390572
1.0376474997212517 1.1113256994773206

layers.7.bias f8 [10]
00000000: f508 571c cded 4dbf f8a2 1a84 325a b1bf
00000010: a686 011b 5e0f a6bf d9f8 eee2 b3a3 a4bf
00000020: 2a7f 1e52 62d6 d1bf 1640 698b 4aaa a2bf
00000030: 69e8 6ad8 0b10 b5bf 5cae 537b d153 80bf
00000040: 0d45 8aa3 6e16 ad3f 4d09 17af 9c44 b7bf
-0.0009133578793625573 -0.06778255200573458 -0.043085995480180814 -0.04031145234283579 -0.27870996493764955 -0.036455468671761235 -0.08227609666474368 -0.00797237069715278
0.0568117689737254 -0.09089068674714902

layers.7.running_mean f8 [10]
00000000: e0b4 ca21 a05f c53f d537 bef8 f25a ccbf
00000010: 1f11 a443 c96c d93f 115b 3145 03ab b4bf
00000020: 4339 052a c51a b43f 6686 9560 5044 c43f
00000030: ae33 a1e7 5739 a0bf 0e1d 542a adef dbbf
00000040: 40f3 d29f 847f dfbf 4493 84bb 9e30 d7bf
0.16698075914374666 -0.22152554650932524 0.39726478200488374 -0.08073444785382501 0.0785334804142837 0.15833477703113202 -0.03168749525557445 -0.4365036881794858
-0.4921580849439131 -0.3623425322751255

layers.7.running_var f8 [10]
00000000: 386d e36e da07 cf3f b28e 3bd4 60ee b23f
00000010: b494 cd2b 3200 c03f e547 2ef8 ddae a53f
00000020: 2cbd 2820 7ecc 993f 5051 62d1 a8a8 9f3f
00000030: bbe8 829e 215a 943f cc66 b6a2 0faa ca3f
00000040: 4209 2438 a186 d33f c586 7bdf a191 983f
0.24242716230842531 0.07394986325703704 0.12500598086186232 0.04234975485373108 0.02519414016040604 0.030916822223461538 0.019875073718801355 0.2083148521895083
0.30509214861389833 0.02399304319886288

layers.9.weight f8 [10, 10]
00000000: 5a3f 7c93 57a7 d2bf 24e3 2a6f 770d c43f
00000010: ba3a 9da5 b1cd c13f d5f9 6986 6fc3 ad3f
00000020: 0ac9 0441 6aca b1bf 81a4 4750 93c8 d13f
00000030: cd06 8672 09da a63f c5da f876 dfce b23f
00000040: 1eee fab2 5bbf a4bf 09a4 c202 0c87 babf
00000050: 5f95 24b6 8e0f cdbf 9084 32e0 ad0e cebf
00000060: c781 c117 0b36 d7bf f968 294d 1665 c5bf
00000070: 259e 2479 da5e 8dbf a356 fe28 2855 cd3f
00000080: 9542 c91d 938f 7abf 6753 5687 5018 c4bf
00000090: 2768 7d4b a9a6 c9bf 8121 55e2 3433 a8bf
000000a0: 3576 a2b1 278a ce3f 6124 77c9 7dca bc3f
000000b0: 5f1d 420c 7a96 c7bf c4e7 ff03 650e d3bf
000000c0: 8e11 2221 fab0 c83f b6f8 7f80 9d17 d03f
000000d0: 68d7 89d2 cf39 c7bf 7242 0166 22fa babf
000000e0: e43b c743 dd37 b13f db80 063e df47 b7bf
000000f0: a261 93c2 9750 923f 1ee6 d270 c126 d1bf
00000100: c8a4 9a29 39e2 c6bf 325e a804 a507 d43f
00000110: 602a 8ae5 b7c3 9fbf 9464 6653 a3c0 b3bf
00000120: f890 d848 7be7 ca3f f56a 6bd8 a0bd b8bf
00000130: ea8f a486 1e4d c9bf 09f6 0759 1213 cb3f
00000140: 6f9d 723d 5146 c13f 4b8a 81fc 16b6 c93f
00000150: 5345 8885 88df 9cbf 0f88 8731 7898 bf3f
00000160: 0b38 b616 65f9 8fbf 4e74 3a1d 4e31 c83f
00000170: c1ed 4060 aa0c cbbf ca5a b743 c344 babf
00000180: faca 4eb7 8e92 c3bf 74d8 55bf cb83 d2bf
00000190: 560b 4610 8f32 c9bf f91f 087d 7f3c 9cbf
000001a0: 7908 38fc b966 b93f 7cde ef9d 22b4 8e3f
000001b0: f42c 72b9 66ea bfbf 09be 1c97 6f00 ca3f
000001c0: 1526 0c48 27a5 c1bf 305e 4058 ac1a c1bf
000001d0: d67b b3dd 315b bdbf b289 3c2b 6c1e abbf
000001e0: 963c 550a d16f c83f 1327 2da9 7207 a7bf
000001f0: 1dfc 5883 9f52 743f 8954 a849 b230 d5bf
00000200: 57fe dde8 9a11 c03f b0c6 3d5e 8a1d cd3f
00000210: c404 adc3 760a d8bf 08fd b144 1e85 cb3f
00000220: 234a 56db a22b c13f bb16 f443 11c1 acbf
00000230: dc86 a766 415d ca3f ee29 d748 fd4f c33f
00000240: 955e d14c 7ccd c9bf 91cf af25 2ab9 d8bf
00000250: ad00 d057 264c d23f a0d8 3191 0eb9 c83f
00000260: 3f9b 77bb b465 d03f bb4f ac67 49fa 863f
00000270: 34ff 896e b961 cf3f 184c 329e 7dce b23f
00000280: 6f3f 52ff c746 c63f 0174 e52f 5cb0 ca3f
00000290: dd7d bcaa 1c5c c63f 1b76 d381 acae b43f
000002a0: 38c8 c421 f7b2 c5bf 9702 976e 71c5 c5bf
000002b0: 3f4c 15a9 85e7 cd3f 05f5 de62 179b cebf
000002c0: 9465 14f6 f883 c73f 8548 dea4 f2c4 c13f
000002d0: 86ae 574c 2b33 d0bf 77f2 1baf ee50 ba3f
000002e0: a63e 2ab8 1dbd a3bf 75bf 8b70 22db d53f
000002f0: f345 a2dc bd15 c73f e12e a1c4 2f4b a13f
00000300: 0074 74e1 46dd ca3f b543 b934 0a1d cf3f
00000310: 8d8b 4af8 befb d8bf 570b ba17 c933 57bf
-0.29146375086655996 0.15666096618749592 0.1390897806799865 0.05813168063922417 -0.06949485862131524 0.27786715354756814 0.0446322395610089 0.07346913008300777
-0.040522447202843134 -0.10362315242186083 -0.22703727620789046 -0.23482297370086203 -0.3626735431662635 -0.16714743392623868 -0.014341074773780946 0.22916128160129742
-0.006484579728365821 -0.15699202163946355 -0.20039859949139435 -0.04726567519043368 0.23859115766110653 0.11246477287854041 -0.18427968596027264 -0.29775357618893517
0.19290091150118055 0.2514413599855162 -0.18145177631566445 -0.10537924757341857 0.0672586718057882 -0.09094043030063707 0.017885562182387134 -0.26799045579864067
-0.17877878695916238 0.3129665894971111 -0.031020043740264902 -0.0771581724751676 0.2101892572110342 -0.09664349826509151 -0.19766599249226086 0.2115195212099226
0.13495841503502556 0.20086943940539678 -0.028196461820760032 0.12342025002683975 -0.015612401729210764 0.18900467326321507 -0.21132402133831188 -0.1026117363283944
-0.1529100794847052 -0.28929418263522355 -0.19685543341264616 -0.02757453156121412 0.09922373206794245 0.014992018170217884 -0.12467042949190327 0.2031383025982765
-0.13785258310262863 -0.13362650212433058 -0.11467277205109325 -0.05296648052014365 0.19091237072504857 -0.04497869792119338 0.004961608026461864 -0.3310971946060098
0.12553726549593833 0.22746400453211413 -0.3756386671921741 0.21499994615803808 0.134144169901064 -0.056160487694837134 0.20597093117162657 0.15087858254112468
-0.20158342123862796 -0.3863015525851035 0.28589781356277905 0.19314748849473506 0.2562076407179354 0.011219571567870781 0.24516981027044837 0.0734632979604587
0.17403507201060672 0.208507083308092 0.17468603455289058 0.08079031152325238 -0.1695240893255361 -0.17008798503777164 0.23362799411788335 -0.23910801246339744
0.18371498122796182 0.13882287073335334 -0.2531231160671513 0.10279742980123695 -0.038552216273385384 0.34149991026696763 0.1803510024370066 0.03377675318969665
0.2098778344015102 0.24307372640990157 -0.39036535498797137 -0.0014161552234390384

layers.9.bias f8 [10]
00000000: 303b ff5f e7ab d1bf 57f4 f67f adac b53f
00000010: eadb 0580 fd00 b73f e2cf 1600 3188 a23f
00000020: 86a4 ff9f 63d1 d2bf efd2 1b00 6eb9 bcbf
00000030: f59f ff3f 39fa cb3f 83fc 0580 9c64 babf
00000040: 9269 0700 6f15 bf3f fc84 f47f 418a cbbf
-0.27611717581469275 0.08466610311639165 0.08985885978277933 0.03619530798042071 -0.29403010010589303 -0.11220443251279354 0.21857371926239436 -0.10309770703860192
0.12142080069262409 -0.21515673396883261

layers.10.weight f8 [10]
00000000: 3521 73d5 b16b ed3f 801d 4cf0 181a f03f
00000010: 7026 0b36 562f f13f 6017 4d23 9fd0 ec3f
00000020: b5b2 c399 0d66 ed3f a2e6 99c8 cb50 f13f
00000030: 116e ce2b 7f8f ec3f 5903 eb05 35a0 f03f
00000040: ebe4 bdf3 9ebb ef3f b536 d059 4542 f13f
0.9193963211955977 1.0063714396108878 1.074056826694143 0.9004665078616476 0.9187076571666554 1.0822255931838431 0.8925166946023088 1.0391130667851114
0.9916529427129296 1.0786794193585767

layers.10.bias f8 [10]
00000000: 6279 ab11 3b90 b3bf d5cf 7367 1db4 c1bf
00000010: ea74 fa60 12d0 c6bf 322d 99ac a415 d0bf
00000020: 95dd 3b34 6746 cebf 7f9b 8efb f500 b5bf
00000030: a50c bcf7 748d a1bf 1a81 54cc 2ce9 803f
00000040: c913 f67c 4503 5abf 139b 02f4 b453 babf
-0.07641953641311752 -0.13830916930567008 -0.17822484717627357 -0.2513209996729585 -0.23652353334885548 -0.08204591170816221 -0.03428235553840268 0.008257246003780017
-0.0015876940341012938 -0.10283976514129405

layers.10.running_mean f8 [10]
00000000: ac9b bc2b cf92 c7bf 0ae6 b75a 4ef5 dabf
00000010: 89ea 34f5 3e18 b73f aa1b ae8b cc6d 9cbf
00000020: 6020 8a06 b8f8 d5bf 4116 3137 8d53 d3bf
00000030: e6f7 a688 272f d13f 8945 2811 7034 cc3f
00000040: 38d7 a0a2 e96a d93f 7af8 ba77 7609 babf
-0.1841677630956985 -0.4212222944184708 0.09021371351711073 -0.027762599969289127 -0.3433055938589913 -0.30197458638972213 0.26850307793563244 0.22035027349242522
0.3971504295508228 -0.10170689032654137

layers.10.running_var f8 [10]
00000000: 5e49 5059 fbb6 a73f a2f9 8da8 5ee0 bf3f
00000010: 1689 7fff 5b9e 9e3f bfec 21d1 4e35 a73f
00000020: 9c1e 888e a0ef 9c3f 2e93 2658 d6e0 8c3f
00000030: aaba c008 2968 c53f 65df ae2f a1a5 b83f
00000040: 8a50 977e 0c14 a23f b703 58f7 2212 af3f
0.04631791558508057 0.12451736083128265 0.029900968045589137 0.04532858183753196 0.028257855128713247 0.014100718083520283 0.16724121978173417 0.09627730764520732
0.03530921025563412 0.06068524617513254

layers.12.weight f8 [5, 10]
00000000: dfeb dc66 01c6 ca3f 7a9f b0d3 faed c0bf
00000010: ff8a 2cf2 14e7 d63f bb71 6de3 06cc a53f
00000020: 46e9 a1f3 df4a afbf 18fb 9804 355d cc3f
00000030: d92e e53d bb27 b13f 07e4 dbe6 8d6d b1bf
00000040: 1f75 3e7d 1421 cc3f dce6 e8c7 e7fe 9e3f
00000050: 5788 2626 308f c9bf 1a08 903a 1d4a d13f
00000060: 88b6 33fe 71d3 c23f 2b90 c407 dbad ccbf
00000070: d745 0ac4 66f2 ba3f 4491 9560 efd5 bcbf
00000080: d7f1 7f0b 6334 a73f e731 ce58 d56f d8bf
00000090: c04f 77e2 a335 a2bf d5c5 6f54 6576 cf3f
000000a0: c9f7 7499 cda6 b33f c15e 097e 63b4 b23f
000000b0: 2e56 c105 f09b ccbf c200 5705 6bae b43f
000000c0: 8f35 83fe 73ec cc3f cc6b 7544 c1d4 bebf
000000d0: 7868 adf8 618c c1bf b01d ef71 8038 cf3f
000000e0: d286 9eb9 54ca b13f 8c78 6a98 9c27 d5bf
000000f0: d8c4 879a f008 cc3f cf76 983b dfc1 ccbf
00000100: 03c0 3a29 226f d03f 5f16 5dcb 7c50 c13f
00000110: 75ab 3feb de19 d4bf c72f 369c ec5a d43f
00000120: 664c 0564 09a6 c5bf 9e8e ebad e62c c83f
00000130: 4027 e8ce 692e d63f 5ba6 3861 fc37 c6bf
00000140: a764 446b 7d01 b63f a17d 43fd c364 c3bf
00000150: e45a f9f1 1307 c0bf 2427 8374 7106 cf3f
00000160: a9bb 8b18 61a6 bf3f 8750 810e fc8a bf3f
00000170: 1979 6bb2 ca2f a43f b3e7 f28f 5082 cf3f
00000180: 4728 3a48 76c9 c03f b17a cae0 ec25 c9bf
0.2091676475773445 -0.1322625669138196 0.3578541150074414 0.04257222677435687 -0.06111812447575686 0.22159445499888686 0.06701250325312048 -0.06807791601376333
0.21975952258518647 0.030269261909984788 -0.1996822534829927 0.27014857024198735 0.14707779800612664 -0.22405565146721193 0.10526125227104131 -0.1126393900681864
0.04532155528429243 -0.381825768207618 -0.035565492052824776 0.24580065367585627 0.07676396366602413 0.07306501223626595 -0.22350883751885092 0.08078640823714792
0.22596597602243348 -0.12043388291696927 -0.13709664003801314 0.24391179621873738 0.06949357539863435 -0.33054270634046 0.21902282281329266 -0.22466650400104135
0.25678304697339643 0.1352687829004706 -0.3140790269232448 0.3180495763306194 -0.16912953742812248 0.18887027256197525 0.3465828438353249 -0.1735835528100321
0.08596023434474152 -0.15151262155903303 -0.12521600070132088 0.2423841303737443 0.12363249634994013 0.12321448663834832 0.03942712238289143 0.2461643889308199
0.13114813353269225 -0.19646988845939498

layers.12.bias f8 [5]
00000000: f5ab 1480 91ef b83f 1a1f a7ff f51e 973f
00000010: 487e f0ff 9e7d b73f 4d6b 12c0 6b8a c53f
00000020: 385d fbff 1363 cabf
0.09740552308055313 0.022579044083413803 0.09176057575722851 0.16828677061570332 -0.20614862441173343

layers.13.weight f8 [5]
00000000: f644 397c 2077 eb3f c6ae 78d7 0a6a f63f
00000010: b6f1 5c99 5704 ee3f 2483 df9a 0776 f43f
00000020: 69cc a094 c84f ec3f
0.8582918573612506 1.4008892456867428 0.9380300517437294 1.2788158464174524 0.8847391989605856

layers.13.bias f8 [5]
00000000: 9dad e6b0 98ca c3bf 1fbf de17 97f8 d43f
00000010: b183 a991 5748 c2bf ba1b 3ce5 1a96 cf3f
00000020: 4d5f d6ee 63ea cabf
-0.15462025296924944 0.32767274218621084 -0.1428327046624225 0.2467683429060495 -0.2102780262182428

layers.13.running_mean f8 [5]
00000000: f883 54db 56d2 db3f f8d6 6383 00b1 a5bf
00000010: 6cda 413d 1087 a43f 25bb 3078 8e40 dc3f
00000020: 11e7 58e8 974d a2bf
0.4347130910774122 -0.04236604312784026 0.04009295223015816 0.44144021737422384 -0.03574824057836968

layers.13.running_var f8 [5]
00000000: 308a 933a 43a9 a43f 9892 3528 a05c a23f
00000010: d1f4 518f 1a23 9a3f b12f 6e72 05db bb3f
00000020: 2019 af0f be52 883f
0.04035387125056322 0.03586292734943192 0.025524535176818134 0.1088107494708186 0.011876568654667852

layers.15.weight f8 [3, 5]
00000000: 292d acc6 26f5 b33f e877 4937 7dbb d9bf
00000010: 2532 6c0b 28f6 ccbf fbc1 71f0 f170 e1bf
00000020: f748 a28a e52a c3bf 1641 2f54 087f d1bf
00000030: 6703 600a 0bb0 d33f 77ff 1a58 934c cfbf
00000040: c057 436f f234 e13f 161e 2228 6cb0 b9bf
00000050: 2458 81d4 79f5 c83f 4707 bf50 cf09 983f
00000060: cea9 4f1c 4403 e33f f6ad c994 7276 b1bf
00000070: 158c f6ef 3c33 d9bf
0.07795946455387494 -0.4020684280311557 -0.22626209790941335 -0.5450372406176592 -0.1497466017650095 -0.273378450595389 0.3076198197668902 -0.24452440073036616
0.5377132580858799 -0.1003482435208912 0.19499132992012946 0.02347492151580546 0.5941486885979488 -0.06821361668124112 -0.3937523215665249

layers.15.bias f8 [3]
00000000: 1655 f920 7dd5 f03f 7658 b417 34a8 91bf
00000010: 82d5 bd4e 2fdf d73f
1.0521212852521038 -0.017243207880789112 0.3729971188507407
