neural_network/mymodel_with_losses.pt (torch_old, 11898 bytes, 32 tensors)

layers.0.weight f8 [10, 3]
0	0x3fddeb56ade9726f	0.4674889276846334
1	0x3fc29c24a67c78a6	0.14539011124810947
2	0xbfd3c44d73d9049d	-0.30885635674719386
3	0xbfd1ee47b84e5656	-0.2801684665549592
4	0xbfc5a2b0fd0b5fe6	-0.1690274463242069
5	0xbfdc0f811ff135a6	-0.4384463130889692
6	0xbfd70f81fee927c8	-0.36032152074460244
7	0x3fd700fbef3d06f7	0.3594350658714655
8	0xbfe10781cf73c419	-0.5321663905907627
9	0x3fcb31e448251c9f	0.21246007464126124
10	0xbfab447567cbba5d	-0.05325667278326727
11	0xbfd8604eec696944	-0.3808781918247812
12	0xbfd6966c4671e1db	-0.3529310882509244
13	0x3fe0454697f3f06a	0.5084565131978824
14	0xbfdea3db72840e91	-0.47875105078876695
15	0xbfe3510692549105	-0.6036408288969431
16	0x3fd61b70b128a29c	0.34542481709153505
17	0x3fd05561f08d8ed1	0.2552113389158253
18	0xbfbeb9036f076e6a	-0.120010580641457
19	0x3fd6498471f55980	0.348237143790719
20	0x3fda319bc6c27eb4	0.40927786264544896
21	0xbfde4c58fac00394	-0.47340988623914737
22	0xbfd413f5ac56637c	-0.31371824102239265
23	0xbfc6f4115f9a17e0	-0.17932336013853867
24	0xbfb627e9206cdd13	-0.0865464882052616
25	0xbfd9b3d9a75e0e98	-0.4016021856734624
26	0x3fd0d9649a0e38eb	0.2632686142395772
27	0xbfd8eb694b36b7e2	-0.38936836571781275
28	0xbfc48fb3d151dff0	-0.16063544960684295
29	0xbfd1a3efabb1239d	-0.2756308724097439

layers.0.bias f8 [10]
0	0x3fdf918b8001f488	0.49325835705514764
1	0xbfddba387fff9c66	-0.4644910097108038
2	0xbfc213d7fff8ffc7	-0.14123058317818346
3	0xbfdf47b7dfff4f6c	-0.488752335307473
4	0x3fb601a40004708f	0.08596253395484353
5	0xbfd7d3fe3ffedbeb	-0.37231403588833584
6	0xbfe0fc0b0000c5be	-0.5307669639643604
7	0x3fcd041a7ff8aba8	0.22668772934534087
8	0xbfdd82619ffab5fa	-0.46108284590704296
9	0x3fe165af3fffc2f4	0.54366266727274

layers.1.weight f8 [10]
0	0x3fef3f007356875b	0.9764406445212716
1	0x3ff002ef6b61f45c	1.000716609443109
2	0x3ff1168e296a9cf2	1.0680066697912562
3	0x3fefb6948c717fef	0.9910376303705543
4	0x3fee89a19be7fcab	0.9543006939928963
5	0x3fef4ad665e89304	0.9778854360962161
6	0x3ff09bb6e1676052	1.0380162052952255
7	0x3ff02edcd43052ae	1.0114410675643444
8	0x3ff088040f541972	1.0332069968004274
9	0x3fef0f2249ae1006	0.9705974043904468

layers.1.bias f8 [10]
0	0x3fa14d43b64020d2	0.03379260635125693
1	0xbfb3b874546e4e0f	-0.07703330098438975
2	0x3f9b039a64b4fd87	0.026380932232539258
3	0xbfad6937ebf44036	-0.05744337802218562
4	0x3f97b27532329859	0.02314169997102797
5	0x3fc7973577590a37	0.18430202796487702
6	0xbfbc7b2ffa7f6078	-0.11125469079650141
7	0x3fb21809cc4e950d	0.0706792949482244
8	0x3fa807dfbb6809a7	0.04693507349658726
9	0xbfadc2a92df3ab0c	-0.05812576948104295

layers.1.running_mean f8 [10]
0	0xc012c9795cefb781	-4.696752025729325
1	0xc026916c42dd7871	-11.28402909234521
2	0xc036eb8b9904e0ee	-22.920098842326233
3	0xc01af60248c48c91	-6.7402430887188
4	0xc037cfd318b561d6	-23.81181482723499
5	0xc0188b11a7f91d3a	-6.135809540347788
6	0x400351b25a4fd05d	2.414890962181785
7	0xc00e679d4e26a025	-3.80059300475479
8	0x4027a4f6e6f978eb	11.822196214631239
9	0xc01e183a8ab7cc12	-7.523660819500053

layers.1.running_var f8 [10]
0	0x4013ce782792726c	4.951630228341497
1	0x4030df7514cd40d2	16.872880268202444
2	0x4033be0fb302dccd	19.74242705173383
3	0x4023f260bee75191	9.973394361245285
4	0x402e469c91b97fa2	15.137913278478496
5	0x40141c1ec8ac95e1	5.027461181196004
6	0x402cd7399bd7337c	14.420361394900958
7	0x40148ea833971fbe	5.13931351289642
8	0x400d01d7a2c0118a	3.625899573790041
9	0x401f5aae424ed85a	7.838555370390248

layers.3.weight f8 [20, 10]
0	0xbf90ba038b3123c4	-0.016334586496927775
1	0xbfd108463b71b288	-0.2661300259121977
2	0xbfd13e2a2973a66e	-0.2694192318727805
3	0x3fd10569e4da9caa	0.2659554228689084
4	0x3fb90d04b24028c9	0.09785489417859873
5	0xbf9f12859730b492	-0.030344092705651145
6	0xbfbbceac6350c0a1	-0.10862233566945402
7	0xbfb8948acede2dc3	-0.096016574387412
8	0x3fd39e97020b9db7	0.3065545577978485
9	0x3fb1fe9e3794dfff	0.07029141289683592
10	0x3fa191b0f7a600eb	0.034314661245845667
11	0x3fccc188bda61233	0.22465619335356876
12	0xbfd6329417723c13	-0.34683706559820954
13	0xbfd5801c26f1d3f1	-0.33594421199023744
14	0x3fcb9eb02f237275	0.21578028012926934
15	0xbf941f45a8d65f38	-0.01965054362298632
16	0xbfc955a53754b4a9	-0.19792618943885046
17	0xbfb50726b982f309	-0.08214036969270579
18	0x3fc65cce5a18243d	0.17470721625457655
19	0xbfcf8399fb3eb4e0	-0.24620365875072192
20	0x3fc5d5a630e63528	0.17058255565317748
21	0x3f6a3acc960efc6d	0.0032018657516057953
22	0x3fd1628dcf09d0f7	0.27164025515163764
23	0x3fa789132d97a066	0.04596767360254787
24	0xbfd4491fde12a50a	-0.3169631642036427
25	0x3fb61ec725a468f5	0.08640713376044913
26	0xbfd543c3e43c812c	-0.3322610596533362
27	0x3fa4b59174d33004	0.04044775534711678
28	0xbfb4bf78d01755b6	-0.08104662971830731
29	0xbfa25518a2e82500	-0.0358054827557428
30	0x3fc2d0bc9f752958	0.14699514184969575
31	0x3fc3c8ca2cc835cf	0.1545651167547661
32	0xbfb796b1c9e94ed1	-0.0921431653926519
33	0x3fc8898863c3d4f2	0.19169716712318735
34	0x3fad4e4c15ed842f	0.05723798530267065
35	0xbfc60967b75c4ff7	-0.17216202214387952
36	0xbfd5ed9df70e1993	-0.34262799383614
37	0x3fbb0a714f272d9a	0.10562809164473777
38	0x3f836672519e2330	0.009472745052123338
39	0xbfd0af5a1d5154ac	-0.26070263732010335
40	0xbfc7ad85a9089db6	-0.18498297456356533
41	0xbfcc5b782510b446	-0.22154142198397347
42	0xbfb5185d176616af	-0.08240300961741796
43	0x3fcd30550a7eaa3c	0.22803748142662694
44	0x3fb25427dc6cf41c	0.07159661418423052
45	0xbfc1825d3233b9e6	-0.13679089499733194
46	0x3fd754837febc9d3	0.3645333050946224
47	0xbfc4184b9f9b9827	-0.15699143689488546
48	0x3fc7e9db6e941d4f	0.1868242540296969
49	0x3fc39da459e3fa67	0.1532483519476557
50	0xbfc48eeddc9c8152	-0.16061185142553797
51	0xbfc8cfbb2f6c5e10	-0.1938394528922207
52	0xbfcaecd385d7e89c	-0.21035236392328194
53	0xbfca7c3d27e2b46e	-0.20691647002732644
54	0x3f95155437177189	0.020589176046870192
55	0xbfce39fe167f74c5	-0.23614479158906057
56	0xbfd0ff832e7fe915	-0.26559524098378634
57	0x3fd3cf02db145a93	0.30950995821459876
58	0xbfd78827fcaddd1e	-0.36768531490038636
59	0x3fc30565cb804dfe	0.14860222279149576
60	0x3fcf1f53814056a3	0.2431434994802447
61	0xbfc72006efe44b48	-0.18066488946404946
62	0x3fa595be942058a6	0.04215808447058693
63	0x3fcc7b4588bee80d	0.22251195122754588
64	0xbfcaa114bbefdcec	-0.20804080177888495
65	0x3f9ed9111a1cd792	0.030124919146338032
66	0xbf848ccc0ca5aa4a	-0.01003417409511544
67	0xbfbb3c7256d5f58f	-0.10639109249128452
68	0xbfccb5a186b343a3	-0.22429293706093487
69	0x3fc9878bdb183336	0.1994490451619641
70	0x3fc834cc0c70ed3e	0.18911123855091633
71	0x3fa1623ddc74cdc8	0.033952649270215185
72	0x3fb0e846ae151d2c	0.0660442519193693
73	0xbfd0258b116e84d8	-0.2522914571982944
74	0xbf65f7ba57ea834f	-0.0026816024322474995
75	0x3fd02f4127098f2d	0.25288418590774847
76	0x3fd6f91ef6db76e1	0.35895513636738313
77	0xbfb21203206969d9	-0.07058734456351291
78	0x3fbad7a1cbbaf3cb	0.10485278343089914
79	0xbfb5aa854b202481	-0.08463318904991192
80	0xbfccc40466e2e975	-0.22473197005985993
81	0xbfa3177367811441	-0.03728829039076987
82	0x3fd3424019785616	0.3009186028224077
83	0x3fd24ca4075bfa8f	0.2859277793758474
84	0xbfcf812687cdf38b	-0.24612886077002502
85	0x3fd129af0b080db4	0.26816917493143966
86	0x3faf72bb36efc72d	0.0614222054063148
87	0x3fc911c2a6b4ead6	0.19585450305915825
88	0xbfce846b1a54b5c3	-0.238416087967762
89	0x3fd40f810b869eb6	0.313446294074747
90	0x3fae93348b0401ca	0.05971683690040981
91	0xbfc31f808ddd4780	-0.1493988697716837
92	0xbfb02e63427a629d	-0.06320782063483894
93	0x3fb77afdb5ba1e50	0.09172044455237338
94	0xbfb69634cda1f935	-0.08822946567849928
95	0x3fbceb78d9846258	0.11296801863171291
96	0xbfcba58cfc60a845	-0.21598970721362512
97	0x3fa8192322bf078b	0.047066781989555904
98	0x3fd0a76e56e0aeae	0.2602191780485822
99	0x3f68d266a8b24318	0.00303001452045527
100	0x3fd990a8845f2454	0.39945424010199315
101	0xbf9060b457be3464	-0.015993898253828923
102	0x3fd016476d378988	0.2513598028728201
103	0xbfcfe95413b911c4	-0.249308118467651
104	0xbfcbdd13de89f26c	-0.2176842533698563
105	0x3f9ee629ccde7157	0.030174878243643146
106	0x3fa88a7238fdfc1a	0.04793126054482162
107	0x3fb7bdf264eab893	0.09274210895339001
108	0xbfc6dd21283d22cc	-0.17862333740983727
109	0x3fbc180f65e776d8	0.10974212873358213
110	0x3fc4b11e4f9d6573	0.1616552246803554
111	0xbfca609a88a6685f	-0.20607310936321974
112	0xbfd213f42447ecf7	-0.28246787589132744
113	0xbfc322d0ce407f4c	-0.14949998923202157
114	0xbfbbf6e34d6b4943	-0.10923596038927479
115	0xbf83c3372c7b8e63	-0.009649687809946522
116	0x3fb1cf352bb575e8	0.0695679885588657
117	0x3fd03e9938a788d7	0.2538207104936538
118	0x3fc3b911e62248cc	0.15408538567550634
119	0x3fbdbf090e1cd5b3	0.11619621843859455
120	0xbfd0b8cd1fd02fd7	-0.26127937418709507
121	0xbfcac4bc0f8cc4a8	-0.2091288638999107
122	0x3fc7baed1331a2f8	0.18539203107072644
123	0x3fc88429e51b8228	0.1915333145798439
124	0x3fc92cc274da7365	0.1966784544537418
125	0xbfc316ef93117058	-0.14913744622288294
126	0xbfd4ee4fbdbe2a03	-0.3270453789670286
127	0x3fd1958a90bbae56	0.27475227483839626
128	0xbfd1e3e045a58560	-0.2795334510938883
129	0xbfd0115b7a19d4c9	-0.2510594074622757
130	0x3fd04f0e7dcc3c40	0.25482523236218313
131	0xbfc299a26a0931c6	-0.14531355073485325
132	0x3fce1ce974215918	0.23525732202933436
133	0xbfacd7a337ce6991	-0.05633268409947612
134	0x3fd82844bae3cb4f	0.37745779276808816
135	0xbfcecf960f29f102	-0.24071002712651796
136	0xbf8f5e693ccf5219	-0.015316793602246513
137	0x3fd33088962e8028	0.29983725229431224
138	0x3fcccb7b911388ca	0.22495979865840915
139	0xbfc93690e0121eba	-0.1969777196975338
140	0xbfba2ca74be0e585	-0.102243858361268
141	0xbfabb019d1669168	-0.05407791787300448
142	0x3fc13be8e852823f	0.13464080184805202
143	0x3fc7aa861e99f02d	0.18489147657590035
144	0x3fcc9064e00ea03b	0.2231565565136878
145	0x3fcfa527b9baa0fb	0.2472276360397315
146	0x3fd163fafc9ee6da	0.27172732038489544
147	0x3fcfeb204c9b3286	0.2493629812292008
148	0xbfd2cc3f18da9078	-0.2937162153923576
149	0xbfd39d61e27d085e	-0.30648085706719097
150	0x3fc985cea39bc527	0.1993959711904065
151	0x3fc454e1213289b9	0.15884031411139946
152	0xbfa7265b129d350e	-0.04521450617049015
153	0xbfbbe01466edeecc	-0.10888793480801978
154	0x3fd2a84aa80c5a06	0.2915217057319811
155	0x3fd18ce9991a190f	0.27422561599122813
156	0xbfa1739ac3bf89d7	-0.03408511771683081
157	0xbfc91e826709894f	-0.19624357253185074
158	0x3fc56c0afb12494a	0.16735970744464118
159	0xbf839264dc35ce49	-0.00955656811741003
160	0xbfa7bb315dfe07d2	-0.046350043033285396
161	0x3fbaa62c5fe50b11	0.10409810391596987
162	0x3fb51c74a8471843	0.0824654494127524
163	0x3fad91fb4f00991c	0.05775437678703296
164	0xbfca0e8df6f6e930	-0.20356916960538163
165	0x3fce02b5c094505e	0.23445770171440733
166	0x3fb21ac78afb20d1	0.07072112219896388
167	0x3fcdd194090d62a4	0.23295832101827785
168	0xbf896c4785003ce7	-0.012413557764402628
169	0x3faf0265fedffe6d	0.06056517349497601
170	0xbfbf05589868080a	-0.12117532463892658
171	0x3fc902b7f669ae39	0.19539546520114628
172	0x3fc51ade02690939	0.16488242261591227
173	0x3f94cb8f2fd23290	0.02030776719452604
174	0x3fb37101547efb39	0.0759430724419702
175	0xbfc514ca0f276b54	-0.16469693889561177
176	0x3fd39c6b3115b095	0.30642204087667696
177	0x3fd26c057ff23940	0.2878431081270669
178	0x3fb846e336c6f482	0.09483165824254239
179	0xbfc4f9bc21f7ed25	-0.16387130411735842
180	0x3fd0da077ccd1028	0.2633074492225682
181	0x3fc9a186bcc8c6cf	0.20024189203245732
182	0xbfba2f1cdfab4836	-0.10228138409300488
183	0xbf90321036d1c4eb	-0.015815976472770037
184	0x3fd4610852ae8c49	0.3184223945083358
185	0xbfb1fbd12ba51372	-0.07024867358729894
186	0x3fb4f6bfb24b3a81	0.08189008810880162
187	0x3fcba7f00f0c7d9a	0.21606255278400682
188	0x3fd33703d0029073	0.30023284257391153
189	0x3f76260add42cb63	0.005407373846696514
190	0x3fbfddb4dc4c1631	0.12447672251081411
191	0x3fcb23fb53207c7b	0.21203557547503124
192	0x3fd48abf317bd6e0	0.3209684355964395
193	0xbfcf3f2b67fc4cf4	-0.2441152818433704
194	0x3fbe2fdc6956c71e	0.11791780063392962
195	0xbfd1c11c5e1589dc	-0.2774115484991435
196	0xbfd239afd815c92b	-0.2847709284025252
197	0x3fc46314f31207e0	0.1592737376086566
198	0x3fb7c3393cb5929e	0.09282262546691775
199	0x3f7ebe32bdbf605e	0.00750560589582258

layers.3.bias f8 [20]
0	0xbfc76445a02de68d	-0.18274755784277766
1	0x3fc0b692fff330fa	0.1305717229610151
2	0xbfb74ced7fe9c507	-0.09101757405166576
3	0xbfc7fbff3ffef5b5	-0.1873778402786407
4	0xbfb258187fef41d4	-0.07165673373606946
5	0xbfd0e8ee3ff5fbae	-0.26421695944002976
6	0x3fd21d04dff456f2	0.28302118177940294
7	0xbfa0ad94ffe93645	-0.03257432578957923
8	0x3fa433cafffa7c94	0.03945764899003126
9	0xbfd02f9ec0159048	-0.2529065013716303
10	0x3fd127c99ff2eb81	0.26805344219217636
11	0x3fa0134000039f67	0.03139686584637396
12	0xbfc622f1dff63efc	-0.17294143138541773
13	0xbfd0ecf9a0054d24	-0.26446381213209436
14	0x3fcd9f8cc01a6ab0	0.23143157367743106
15	0xbf4725bfd73ec641	-0.0007064043734230156
16	0x3fba6d59ffe07803	0.10323107239716482
17	0xbfc6f2a1dfff8491	-0.17927955090911898
18	0xbfcd7f0600042dad	-0.2304389476852128
19	0xbfb92580000537ce	-0.09822845459458948

layers.4.weight f8 [20]
0	0x3fefd4a50d0a3d74	0.9947076086699966
1	0x3ff0b0ca8b61f881	1.0431619114529271
2	0x3feee2d1b05c2e80	0.9651878780873204
3	0x3ff031e9baf92134	1.0121857932700324
4	0x3ff02bbe030a4353	1.0106792563203342
5	0x3ff01791b13652e6	1.0057541773177774
6	0x3ff098912d8d5b6d	1.0372478274709593
7	0x3ff06fadba6c8bca	1.0272652895152867
8	0x3ff0167c9beabca4	1.0054899302011018
9	0x3fefecdeb5a795b7	0.9976647899572332
10	0x3ff00e63744a1895	1.003512815719238
11	0x3fee7894e7334e15	0.9522194400437366
12	0x3fee9c17c561178a	0.95655430365217
13	0x3feee0ff320f66df	0.9649654367196624
14	0x3fef951f30eb7a1a	0.9869533496346918
15	0x3feffc13451f6f28	0.9995209074072351
16	0x3ff06d38b8595100	1.0266654206398584
17	0x3ff09223df9c3a32	1.0356787428642176
18	0x3ff09a557d752a54	1.037679185933162
19	0x3ff01905461e0f16	1.006108545204318

layers.4.bias f8 [20]
0	0xbfa1984c4776f6b8	-0.03436506626483776
1	0x3f9a4a19b6cbac0b	0.025673295766790043
2	0x3f9614ae2cfd6b66	0.02156326436611824
3	0xbfa432a40d445696	-0.03944885885190989
4	0x3f6ab2e197a155af	0.003259125337573741
5	0xbf9cb689bee3a74b	-0.02804007747264529
6	0x3fafba645f0094a3	0.061968933674770875
7	0x3f74cc15f564d49d	0.005077443862593925
8	0xbfbc63a3735dd463	-0.11089536253514747
9	0x3fa23db72aacda5b	0.03562710185945114
10	0xbf96710bd1f0d24e	-0.02191561192394636
11	0xbfaf4040d39dcf71	-0.06103708823402954
12	0x3f8c46e32376ed6b	0.013807081718246924
13	0xbfbb52c78b25834f	-0.10673186442501258
14	0xbfb0845eca18c8b7	-0.06451981004718986
15	0xbfb9dc13e97908ba	-0.10101437044162057
16	0x3fb39771238e59ef	0.0765295707518374
17	0xbfaede6dadf28aab	-0.06029074428922362
18	0xbfcc46ccdc41498b	-0.22091065172805843
19	0x3f903e28820f4b54	0.015862114847389933

layers.4.running_mean f8 [20]
0	0xbfca56ae30a464c6	-0.20577027678590393
1	0xbfb9b74ce420fcd5	-0.10045319146682925
2	0xbfbecd5fdcbed8d4	-0.12032126559538209
3	0xbfd10a990f8cdc46	-0.26627184408738847
4	0xbf8fd0e3d07014df	-0.015535144613759431
5	0xbfe7f39d777c2102	-0.7484881719292675
6	0x3fd12d0a72a772bc	0.26837407299698746
7	0x3fccfe35bf1d40a1	0.22650787193061198
8	0x3fd4d3788c5dbc84	0.32540715892441363
9	0xbfc9d4104d55a657	-0.20178416992284795
10	0x3fd9454f70b918c1	0.39485536583050523
11	0x3fa3214c13bd97e1	0.03736341229414087
12	0xbfda1353bf980756	-0.4074296351465042
13	0x3fb36d0cab0333bd	0.07588271308050216
14	0x3fde46561ea6154a	0.473042993479187
15	0x3fd3530bfa0e4f62	0.30194377345582357
16	0x3fd6ea984d2016da	0.35806853801510174
17	0x3fbae168259ae4bc	0.10500193517772777
18	0x3fd10899dc72f704	0.26614996460180884
19	0x3f976b9cd8b1ebab	0.02287144730187733

layers.4.running_var f8 [20]
0	0x3faa401ab80da47a	0.05127032753700518
1	0x3fb7b1ebe144aeb6	0.09255861520494588
2	0x3fb23a9ba90632a1	0.0712067878395808
3	0x3fc5f07f2702214a	0.17140187649443767
4	0x3fb9c23b9c907092	0.10062000820511433
5	0x3fcd770aa35b0123	0.23019535995809645
6	0x3fa7ef0fb321ea6d	0.04674576818157026
7	0x3fcc41c7c0e427d8	0.22075745504872546
8	0x3fbbaa50856a8415	0.10806754357555833
9	0x3f983387ce68ec18	0.023634073231942748
10	0x3fb1ab626832601b	0.0690213684450786
11	0x3faa676fc0d956d0	0.05157040814507996
12	0x3fd10e4af342f89a	0.2664973617173786
13	0x3fc9b14dbc1e6a56	0.20072337804306767
14	0x3fa80cbab96fe777	0.04697211755406177
15	0x3fab9d5afa2a936e	0.053934901273612876
16	0x3fa1ed2015e5a1fb	0.03501224772736929
17	0x3fac481c5cecf709	0.05523766168924566
18	0x3fc23c3a8cd3a067	0.14246303440382066
19	0x3fd6cda5828e77fe	0.35630166768703464

layers.6.weight f8 [10, 20]
0	0xbfa846c5eaba4e65	-0.04741495600060545
1	0x3fb76e5bc8bb14fc	0.09152768755582835
2	0xbfb5ab8419eeaa9c	-0.08464837678062981
3	0xbfbcf6daede7de6c	-0.11314171131368206
4	0xbfd036fe0d47d3a8	-0.2533564691250896
5	0xbfb5d01b34184bf5	-0.08520669957970013
6	0xbfba319cdcc5e002	-0.10231953039135536
7	0xbfa7a69194c9fde2	-0.04619269315025655
8	0x3fb03ac65e7d42dc	0.0633968334852954
9	0xbf67b1966c034d86	-0.002892297547171632
10	0x3fb4b05d9a808c8b	0.08081612607979786
11	0x3fc5487e6ac8d7b3	0.16627483572091037
12	0x3f9e608b7847e44d	0.029665164200171557
13	0x3fb81bfbcc0e0306	0.0941769955807211
14	0x3fc3083bbc7de0a7	0.14868876174637544
15	0x3fb4aa48631a120b	0.08072330874899351
16	0xbf86edb0d542003d	-0.011195546634780945
17	0x3fc2e8c940b824a2	0.14772906932947644
18	0xbf9f3249f9822ba4	-0.030465274671353307
19	0xbfb38717ca4ad69b	-0.07628010453012239
20	0xbfc933867e2d24b8	-0.19688492928461243
21	0xbfcdfe5edcee2edd	-0.23432527339570344
22	0x3fc44190cb9e2d0f	0.15825090353278212
23	0xbfc210436b065487	-0.14112131810967218
24	0x3fb2385cd6d6a6db	0.07117252583580173
25	0xbfc71c4556e450f8	-0.18055025809065461
26	0xbf941f95fba94e4b	-0.019651740536870837
27	0xbf88ab054e124f1c	-0.012044946141294192
28	0xbfb09152946b2b35	-0.06471744655133878
29	0xbfc3804e4d1614dc	-0.15235308422067007
30	0x3fc6ce0f5d2f3e75	0.17816345262552927
31	0xbfa258aed6a3e738	-0.035832847310258875
32	0xbfc4f5ffc70d2ed9	-0.16375729770003636
33	0xbfbb8927fdb8487c	-0.10756158775646613
34	0xbfb2434a766ed6a0	-0.07133927718572375
35	0x3fd1ad1b8ea3e9e4	0.27619065217700567
36	0xbfc5118d0cea3d38	-0.1645981133519656
37	0x3fc16ed9d7ba9548	0.13619540246615203
38	0xbfcb859c91a24364	-0.2150150023558367
39	0x3fc5f543e11f4880	0.17154739849371836
40	0xbfcb18da7c2d7501	-0.21169596732480758
41	0x3fac7c5adbceff65	0.055636252719977
42	0x3fbb02981de0af73	0.10550833444056966
43	0xbfca7ceb9dee5152	-0.20693726741286383
44	0xbfc0cbf5a7573f95	-0.13122435255945378
45	0xbfbba05cd8a5a706	-0.10791569031939838
46	0xbf74957490d48c9e	-0.005025344214376974
47	0x3f91d377929ec115	0.017408245395643968
48	0x3fc905c304c7344d	0.19548833592708306
49	0x3fbcbcfb69fd51f4	0.11225863778719952
50	0x3f9d1d74d333edbb	0.02843267954902527
51	0x3fc1cd85d95471d0	0.1390845595532384
52	0x3fc3c4c0cc4e4d86	0.15444192863342837
53	0xbfca29c794b362a3	-0.2044000125959161
54	0xbfa3566c62a63c58	-0.03776873306480216
55	0x3fc69548eb461efc	0.1764308117674246
56	0xbfc22a4fc25b2521	-0.1419162463192061
57	0xbfd0227d6b494df5	-0.25210509755308347
58	0x3fc3470db53fab03	0.1506058821681436
59	0x3f99e71133b139f2	0.025295513896986983
60	0xbfa0f45ada16553a	-0.033114279863335885
61	0x3fae1f6037e8615c	0.058833128761935
62	0xbfca84cf6636f55c	-0.20717804423285713
63	0xbfc972eb9bfbf176	-0.198819590725076
64	0xbfcea15c08c14333	-0.2392993014095964
65	0xbfafbda0cd563125	-0.061993622842324826
66	0xbf94420fca2b20c1	-0.01978325530470282
67	0x3f9a82e9f22d3070	0.025890021711618194
68	0xbfa71823f265ad28	-0.04510605176877852
69	0xbfacc4bce052e027	-0.05618849027945343
70	0xbfa725138cd28df8	-0.0452047452356758
71	0x3fc226562a7fa3e3	0.14179493975760157
72	0xbfbdc3e1d62169fb	-0.11627017476840955
73	0xbfa8b3aadb0107f3	-0.048245753511324006
74	0x3f3c2f86fc50392d	0.0004300789408383684
75	0xbfc65cf46b676dda	-0.17471175426804458
76	0xbfc0386c96abacd6	-0.12672192913973984
77	0x3fba958a196f3824	0.10384429093321096
78	0x3fc61065207fe447	0.17237533652203949
79	0x3fa7199b985a57b3	0.04511724695946331
80	0xbfc9d377f3da5b0f	-0.20176600844271106
81	0xbfacf765dcba7703	-0.056574996179945124
82	0xbfbb391dea3de9f8	-0.106340284049942
83	0x3fd071fd1265ee29	0.25695730969138936
84	0xbfa604cdd85e9494	-0.04300540224293417
85	0xbfb68ffa60a6ccea	-0.08813443050057726
86	0x3fb56ad020886611	0.08366108698137277
87	0xbfd1d72efc8bfa8b	-0.27875876105091696
88	0x3fb442697b44c4ea	0.0791383672665408
89	0xbf859bba1ded146c	-0.010550931967040898
90	0x3fca8a69abda7e4c	0.20734902278217004
91	0xbfb4ec0075292c01	-0.08172610149738092
92	0x3fc361814bbfc6b6	0.1514131183499125
93	0xbfa3dda6554ec31b	-0.03880042830804183
94	0xbf829c4ac61716b0	-0.009087165994866225
95	0xbfc7991f0f0a7b62	-0.18436039194508697
96	0xbfbd3e9d767b692c	-0.11423668043736218
97	0x3fbeeb0211513c8b	0.12077343867098216
98	0xbfc0ca3a67b3988c	-0.13117151320983955
99	0xbfb99c401cdbe576	-0.1000404425102682
100	0xbf9b35407097dc29	-0.02657032668318152
101	0x3fbeace3398dac56	0.11982555537331172
102	0xbfc02f3dc11a50e2	-0.12644168785903448
103	0x3fa371fc9390dced	0.03797902394620132
104	0xbfb3ef2fff242181	-0.07786846140891691
105	0x3fb17c8c0410c25b	0.06830668544058353
106	0x3fb4ca8ae3f2ca5d	0.08121555390497677
107	0x3fc3275e2e72a29e	0.14963891284903225
108	0xbf842c20d1c825f5	-0.009849792863877641
109	0x3fce187fff7d62c6	0.23512268042647672
110	0xbfccae5e8eff1566	-0.22407133085486491
111	0xbfbb0fc5a296b864	-0.10570941180660182
112	0x3fc754a69f2bb6c7	0.18227083942422537
113	0x3fc0c34d47437330	0.13096014003431256
114	0xbfa8391c95a1291b	-0.0473107273724784
115	0x3fc543949b9d0081	0.16612489317231297
116	0x3f8586530aca5a78	0.010510109679029642
117	0xbfcf4f33bffdb5f2	-0.24460455774844508
118	0x3fb29e562fe51f70	0.07272852582275191
119	0xbfb6664bb1e35568	-0.0874984082505158
120	0x3fc254f2e7f8620c	0.1432174332301347
121	0xbfc6c9997370e072	-0.1780273259807959
122	0x3f98dbfc908ae14a	0.02427668220727356
123	0xbfb4ab8549f84ee8	-0.08074219756991463
124	0x3f9e476455bddf04	0.02956921361280164
125	0xbfc2eebc05dbf8c0	-0.14791059766861814
126	0xbfccdb81aa1f9bac	-0.22544880682764068
127	0xbfb1a14fd842cc3a	-0.068867674158171
128	0x3fc47a77b1992b96	0.15998741313736947
129	0x3faa5c870469055a	0.051487178123816604
130	0xbf94b5fbb8a6acad	-0.020225461144644786
131	0xbfb5eb507e74fdb5	-0.08562186324433337
132	0xbfba42483c128527	-0.1025738855992314
133	0x3fbcd7f74747560a	0.11267037859155252
134	0xbfcbf50b3115334f	-0.21841564079877648
135	0x3fb2050bd7c55132	0.07038949983445233
136	0x3fd10096893e089b	0.26566089060373493
137	0x3fafa0cf4ad548de	0.06177375591745869
138	0xbfa370c8f1d20147	-0.03796985580356931
139	0x3fc1796899115a45	0.13651759599697946
140	0xbfbfc93f6480e898	-0.12416454509448938
141	0xbfbb7352ff7e9257	-0.10722845780998945
142	0x3fb5e2ef8b21e506	0.08549401423251277
143	0x3fc51978436410da	0.16483977594919602
144	0x3fc2be6dcdfe4ade	0.1464364295794302
145	0x3f95ab1404070556	0.02116042399007275
146	0xbfa38f3f74b1398a	-0.038202269549049
147	0xbfc016e269864205	-0.12569837715683732
148	0x3fcb63b2993607a1	0.21398003083237163
149	0x3fc675bfb4558589	0.17546840958952384
150	0xbfc7864f80755f6e	-0.18378633282076912
151	0xbfbb6e19707a94a8	-0.10714873310151296
152	0xbfc5a35b962905d1	-0.1690477832035371
153	0xbfc545e80d4e7e6d	-0.166195875642177
154	0xbfb048d317279f07	-0.06361121478368768
155	0x3fbb11c6c3348ddd	0.10573999658350126
156	0xbfd0383baa1df38d	-0.2534321938799671
157	0x3fd05b73547b1927	0.2555816960342718
158	0x3fa7a79c4321a3c3	0.046200640864135355
159	0x3fc8642e0b54c299	0.1905572467162713
160	0x3fc4d70ffeaad66d	0.16281318602493702
161	0xbfbd71c9d0e63efb	-0.11501752233584377
162	0xbfbd08647121fb2c	-0.11340930711774594
163	0xbfb67f794335145c	-0.087882594020884
164	0xbfc6ce63c572c387	-0.17817351475744322
165	0x3fc24b36399f3bb8	0.14292028249334776
166	0x3fc1c4d5746fc522	0.13881939111119218
167	0xbfbf4ac7ca003d1c	-0.12223480874694242
168	0xbefa17772fb98b00	-2.48829482941788e-05
169	0x3f90c0493983fcd1	0.01635851300761432
170	0x3f9d7a5769cca818	0.028787008125768038
171	0x3fc5dca603d35db8	0.17079615771102197
172	0x3fc9b141bb7f844e	0.20072194724255826
173	0x3f8423a04d840ae9	0.009833576551050398
174	0x3f88bf34649b9023	0.012083443947126743
175	0xbfac3ca2e304106c	-0.05515011807622802
176	0xbfc39086d2686cb6	-0.15284810327361747
177	0xbfafeff640273219	-0.06237763913268086
178	0xbfc5eff0dd87daa8	-0.1713849145596289
179	0x3fce55b79da357f2	0.23699088284655506
180	0x3fb7df8335faa767	0.0932542807373956
181	0xbf77c306061ddfb2	-0.00580122330745063
182	0x3fc08fcb1e299519	0.1293882272031304
183	0x3fb9262b79938fd4	0.09823867529081493
184	0x3fc540518dd9b9f9	0.16602534700673724
185	0x3fcf245f0f25e852	0.24329746474887998
186	0x3fcd25b6d98a0721	0.22771344778089378
187	0x3fc80d19af401a35	0.18789979035519058
188	0xbfb926304c34758c	-0.09823896275016447
189	0xbfc85a5ae96906fc	-0.19025741955743303
190	0xbfc509e2f50b24ce	-0.16436421360984926
191	0x3fb676bc2b01f2c6	0.08774925279608245
192	0xbfc92d7266481e2d	-0.19669942850326674
193	0x3fa3330a6525589f	0.037498783919248206
194	0x3fc4f99ee51a741d	0.16386781870542758
195	0x3fcbc3b4fd40bdae	0.2169100033365629
196	0xbfc117c4d98385d6	-0.13353787060536487
197	0x3fb7651b0a416554	0.09138649940850502
198	0x3fc8e81241dc3941	0.19458225456078007
199	0x3fb0b7cf4d7806a4	0.06530471459702852

layers.6.bias f8 [10]
0	0xbfb674ce800f8bc4	-0.08771982790453509
1	0x3fc411263fffeca9	0.1567733585833129
2	0x3fca0d0fffe604df	0.2035236358169987
3	0xbfbb90f41fed76fb	-0.1076805665920481
4	0x3fc3ec18c000ffd9	0.1556425988692343
5	0x3fa03e40000cf25f	0.03172492981545782
6	0x3fa907dcffa50dc5	0.04888811703360888
7	0x3fb244ae001df0ae	0.07136046889167133
8	0x3fc8f9238005f034	0.19510310889370575
9	0x3fc45fac4000d095	0.1591697037234822

layers.7.weight f8 [10]
0	0x3fee66ac976a769f	0.9500334699002514
1	0x3ff0ab2345978f98	1.0417816847266064
2	0x3fee7e9d4ba2207c	0.9529558636868525
3	0x3feed11f62407033	0.9630276602724791
4	0x3fefcb631bfcb1f1	0.9935775324461799
5	0x3fefcd1143b938b4	0.9937826464390782
6	0x3fef2f7350d82acb	0.9745422915451284
7	0x3ff07ed96c4d7610	1.030969069535221
8	0x3ff1668962b224cf	1.0875333648021301
9	0x3ff039c4d909b217	1.0141037443201009

layers.7.bias f8 [10]
0	0xbfb55c88521a8cc0	-0.08344318394169914
1	0xbfaa9bc2508628ac	-0.0519695971771211
2	0xbfcf4208304e966d	-0.2442026363252582
3	0x3f94e34f775fa107	0.020398370419486358
4	0x3fbd1bc87951f1bb	0.11370518648067833
5	0x3fa7dbc1167f31b1	0.04659846686954284
6	0xbfa73efe2ffb808f	-0.04540247283671405
7	0xbf9e4687e88b0b5b	-0.029565929001147278
8	0xbfb452834dbc1e88	-0.07938404701064361
9	0xbfb05e788e9c5f87	-0.06394151193342

layers.7.running_mean f8 [10]
0	0xbfb2c4a6f0dd7150	-0.07331317310803809
1	0xbfc3e5d442c5c9fe	-0.15545132885343088
2	0x3fbfd5fb398341e8	0.12435884622687576
3	0xbfdc59fcf3d58d69	-0.44299243747646827
4	0xbfab73a1e98e29f7	-0.05361658073441682
5	0x3fc2ebbcba9192bc	0.14781912908360606
6	0x3f94805127af0f14	0.020020740553959263
7	0x3fb76b6b70c1d8ca	0.09148284438001322
8	0x3fcc0c104f1c1b01	0.2191181551244981
9	0x3fe36148720b27b8	0.605625365010602

layers.7.running_var f8 [10]
0	0x3f93ec12c2e6a70a	0.019455235620319512
1	0x3fa758e8750ea114	0.045600189484789194
2	0x3f85f9b382aa692d	0.010730173516368591
3	0x3fb1e297de765bce	0.0698637884255355
4	0x3fdb230dc95b0b00	0.4240145174373282
5	0x3fb7fa4439f07fba	0.09366251387154892
6	0x3facf35a9a5df1a9	0.05654414305078898
7	0x3fa8ca4de29ac566	0.04841845885438083
8	0x3fb59433c952071c	0.08429263749169674
9	0x3fc46b1fd139145f	0.15951917377438726

layers.9.weight f8 [10, 10]
0	0x3fc78019f89f4443	0.18359684600594237
1	0xbfc79e04e4dd0885	-0.1845098607537389
2	0xbfca97dda14449f5	-0.20775957464554975
3	0x3fa09cbabed5e2b6	0.032445750995014164
4	0x3fb07ace33b89ca9	0.06437386286471515
5	0xbfe247576d65f0a4	-0.5712086807902961
6	0xbfbc8ebc42030fc3	-0.11155296908969974
7	0xbfc6ac5c8d71a554	-0.1771350565571007
8	0x3fb9d3b0eebd0849	0.10088640049528509
9	0xbfc87c12857e82bb	-0.1912863876177847
10	0xbfc7ff3424fcf913	-0.1874756985288931
11	0xbf974da42c836457	-0.022757115570901067
12	0x3fc814cdc1dc75c1	0.18813487974050072
13	0x3fce392d0978e4da	0.2361198707820112
14	0xbfd0a766552f445d	-0.2602172691231937
15	0xbf9e317db0e6b04d	-0.02948566810816571
16	0x3fc7d50fb886e353	0.18618961820700494
17	0x3fcb0c328a824db3	0.2113097359002559
18	0xbfb1adfe36cb0f3c	-0.06906117284512175
19	0x3fd01909fdc9b38e	0.25152826103185866
20	0x3fa58c61c9fbb7dd	0.042086654573594486
21	0x3fbff73754edd9a8	0.12486596892799773
22	0xbfd39c560a56631b	-0.30641699800030303
23	0xbfbb615eddbfb91e	-0.10695450700561479
24	0x3f98d9fff95825d0	0.02426910361649509
25	0xbfbebc7eb73ff058	-0.12006370519515153
26	0xbfada5cf06727a32	-0.057905644928940694
27	0xbfc33812ff3ad704	-0.15014874899286934
28	0xbfd21022d5dd6bc3	-0.28223486790892255
29	0xbfceee774b7071ce	-0.24165240462833854
30	0xbfb015b8529ab887	-0.06283142105778171
31	0x3fd26716e6e40b27	0.28754208133630005
32	0xbfbfb332be27ff80	-0.12382809774862658
33	0x3fce0a47c484ae71	0.2346887311517665
34	0xbfcfdcc1382d67c6	-0.24892440074000727
35	0xbfd094d045d0f2c4	-0.2590828592108603
36	0xbfd0dee8873ec8c5	-0.26360524375480693
37	0xbfaf6f0d21e8f3a1	-0.06139412917079957
38	0x3fd8f4ea7213ce28	0.3899484743153345
39	0x3fb7e95df6ecf54c	0.09340464857537717
40	0x3fb3d115cae9d960	0.07740913585607734
41	0xbf99bebaacbb89fe	-0.025141636650809922
42	0x3fc4b575a94fdb82	0.16178770796951986
43	0xbfcf5f58f3f38030	-0.24509727393797354
44	0xbfb51ac157d00c70	-0.08243950265755173
45	0xbf9a83921d589d8f	-0.025892527619502167
46	0xbfcab37261a774bd	-0.20860128181712936
47	0x3fd1c6b145e143a2	0.277752226106765
48	0xbfbe89d2293d74c0	-0.11929048067891568
49	0xbfca09d29c3124e3	-0.20342476488648406
50	0xbfb5a5ff96cc3d0d	-0.08456418449008059
51	0xbfd6be8a8d78eca6	-0.35537971320781947
52	0x3f8c4b3a02f69650	0.013815358367376934
53	0xbf8528e045b91061	-0.010331871154569851
54	0x3fce7a5078c26fc9	0.23810773750744677
55	0xbfadb6f4de87168c	-0.05803647247698249
56	0x3f98b46d8552322b	0.02412577749469073
57	0xbf8a604a2890bf2a	-0.01287897049232319
58	0x3fd04d61ed8cb7f1	0.25472305486880403
59	0xbfc34aa606565803	-0.1507155924743416
60	0x3fa22ccbd2281f25	0.035498017696282504
61	0x3fd102e9d503c87d	0.2658028202269021
62	0xbfc3615fc00cb848	-0.15140911939073676
63	0x3f9e1b8a9ec5c764	0.02940193742819676
64	0x3fa2e4e289175efb	0.03690250323751162
65	0x3fc1959d82a2ae8c	0.13737839583096834
66	0x3fa25ceb39e22179	0.03586516458114181
67	0x3fb6749320585bde	0.08771628894497449
68	0xbf948f932e6777f1	-0.02007894488075829
69	0xbfd3e9bb14b9c993	-0.3111407949828841
70	0x3fcd89b26bc922e6	0.23076467764828762
71	0xbfa978aa1d9f9373	-0.04974872218716699
72	0x3fd11506182bbf71	0.26690819130362003
73	0x3fb94c6505bfa46c	0.09882193937632316
74	0x3fd089ca5a85926a	0.2584100612641921
75	0x3fcf304a14cff45b	0.24366117492891956
76	0x3fc7e78d596738bd	0.1867539106883153
77	0xbfcc9fd79881e029	-0.22362799593588648
78	0xbfd8670f5d953d63	-0.38129028452836716
79	0xbfceadb362019c3c	-0.23967592511618985
80	0xbfc7f6ae8bb6cb3a	-0.18721563169455085
81	0x3fb59cb1e7d9200d	0.08442222509722815
82	0xbfd528e057b58794	-0.3306198936971836
83	0xbf97ac38244993e5	-0.023117902006919783
84	0xbfbc376a2fc01dd6	-0.11022056260855292
85	0xbfb5f66e2c931250	-0.0857914789986094
86	0x3fd308d9cba956bf	0.29741520775619884
87	0x3fc3120efb17443a	0.14898860225960836
88	0x3fd37a1d60f00f24	0.3043282934815912
89	0x3fbdbd93a8b45807	0.1161739622951644
90	0x3fd1be33d8582af3	0.2772340405214628
91	0xbfd328e676262e31	-0.2993713525581568
92	0xbfb35f595e6a1fa7	-0.0756736617569219
93	0xbfca16d7814c70cb	-0.20382207692535412
94	0x3fbab61b92e94eff	0.10434124314025083
95	0x3faeb452b0a6f747	0.059969505371084746
96	0xbfd07ba4bdc25e89	-0.2575466015928006
97	0xbfd57eb7f34d0ab1	-0.3358592868791375
98	0xbfadd466a80becc2	-0.0582611160407054
99	0xbf94c716913e9ab3	-0.02029071103575104

layers.9.bias f8 [10]
0	0x3fb22ab90004b4b2	0.07096439600418838
1	0xbfb82b563ff9aea7	-0.0944112688245534
2	0xbfd30e4cbff7a154	-0.29774779078299685
3	0xbfcfb7318001aab5	-0.2477781176597397
4	0x3fb8091f7ffb4575	0.09388920664357221
5	0x3fc4a012c004ee0b	0.16113504768314643
6	0xbfd097ba5ffc7372	-0.2592607438435187
7	0xbfbd5dce800af22c	-0.11471262575191393
8	0xbfca5745e0056a14	-0.20578835905583104
9	0x3fd2aff65ffd2cde	0.2919898927108998

layers.10.weight f8 [10]
0	0x3fef5bda2bb951c4	0.9799624303801058
1	0x3ff136434552d72e	1.0757477481797184
2	0x3ff06c5b2b37d981	1.0264541328629948
3	0x3fee2d5864daff34	0.9430353135903489
4	0x3ff0b251fc781808	1.04353521939038
5	0x3ff095bc11184114	1.0365563075793647
6	0x3fee37834c6d19cd	0.9442764752100686
7	0x3fefe88c3a082f6c	0.9971371777951226
8	0x3feefa42928aaa84	0.9680493223325617
9	0x3ff01cce71e486a2	1.007032818692473

layers.10.bias f8 [10]
0	0xbfb4e9356fcdcdd9	-0.08168348292911477
1	0xbfaf5915333a4727	-0.06122652292573454
2	0x3fb54174334514b1	0.08302999736504792
3	0xbfb09bd0cb4835a9	-0.0648775574010957
4	0x3fb30dae8929b4bd	0.07442751740173299
5	0xbf9a503b52dff97c	-0.025696684773714548
6	0xbfc6113db5da8eca	-0.17240115527703487
7	0xbfd62a94ed5404ee	-0.3463489835413175
8	0xbfbfd2cfb1f02846	-0.12431047529403924
9	0x3fc4f7dce9705767	0.16381417654400396

layers.10.running_mean f8 [10]
0	0xbfd61f02619d07b0	-0.34564265759046986
1	0x3fafb3fbd829a4b1	0.06192004216865977
2	0xbfe50e76b5595a9f	-0.6580155889485758
3	0xbfd26e4d1663bfa9	-0.287982246270071
4	0xbfafa765e04820fa	-0.061824020031112384
5	0x3fbd9d6bf1608205	0.115683313779762
6	0xbfc514bcf1bc39ca	-0.1646953754756864
7	0x3fa2984a1ffc3d2c	0.03631812706418666
8	0xbfba49aba91d5930	-0.10268662337089007
9	0xbf89e21edb2bbb92	-0.012638321937144235

layers.10.running_var f8 [10]
0	0x3fcb112b4bc33fa6	0.21146146010732741
1	0x3fb3746608b6eaba	0.07599485123402419
2	0x3fa04e9d068fe9d1	0.03184977250198851
3	0x3fc3b43f691f5ae7	0.15393822319921144
4	0x3fb1112c07ae888c	0.06666827380698431
5	0x3fb87874abd23ba7	0.09558800883153983
6	0x3fa21d6674fb626d	0.03538055589678355
7	0x3fb7b9e37544c08c	0.09268018353464152
8	0x3fba0d1152132452	0.1017618966462959
9	0x3fa16f63b01e716a	0.03405295872582566

layers.12.weight f8 [5, 10]
0	0x3fd6d1ef2b390edb	0.3565633699511019
1	0x3fc5dd9aae33b462	0.17082532411532997
2	0x3fd2bbe85d71d0dd	0.29271897435616073
3	0x3fbb9e39dd8dee5f	0.10788308772128506
4	0x3fd583515b777d51	0.33614000255871185
5	0xbfc630f008df0786	-0.17336845811047058
6	0xbfc67670faa033c2	-0.17548954236590758
7	0xbf7394cac2725179	-0.004780571012038209
8	0x3fb84334bbe94b69	0.09477548206022636
9	0x3fd447490b8dfe4f	0.3168509114111417
10	0x3fce38f3a51dce1f	0.23611302912068852
11	0x3fcb5c0d8fd63dca	0.21374673388753102
12	0x3fcd9a48770e79fd	0.23127084554012348
13	0xbfd1e92f531b1f01	-0.2798574744779075
14	0xbf9c42592381326e	-0.02759684828952163
15	0x3fb190509bf18b89	0.06860832030501575
16	0x3fd15cf04c72afab	0.271297526031726
17	0x3fc1ddd0abac4290	0.13958176023927082
18	0xbfcc845c4d19c42e	-0.22278932346992647
19	0x3fb448d4e87bd910	0.07923632312654072
20	0xbfa368f4595608d5	-0.0379101141980002
21	0xbfc87ed6c0d79247	-0.19137081543080312
22	0x3fd0be92931f49df	0.2616316258182944
23	0xbf917dfca607c940	-0.017082164415066048
24	0x3fbf281eee689c5c	0.1217059452106794
25	0xbfceaba8b95ccfbc	-0.23961361933618075
26	0xbfb7d980e92c7f44	-0.09316259091110363
27	0xbfd19dbf5f6f723b	-0.27525314636094195
28	0x3fd43ea071b9fef3	0.3163224325762563
29	0x3fb3e3a631fd88ad	0.07769240112750948
30	0x3fd46a28c2dee445	0.31897944479311874
31	0xbfa3cd6b553c5c30	-0.03867659965015269
32	0xbfd07da50b22904c	-0.25766874396709194
33	0x3fb246f51826b143	0.07139522399547098
34	0xbfb17790f8b18104	-0.0682306868707237
35	0xbfd34338509bb2d1	-0.3009777819814135
36	0xbfb9f7da6ceadeb4	-0.10143819007032101
37	0xbfc1564874b1c5cb	-0.1354456491276735
38	0x3fbf28a76d558f40	0.12171408099453362
39	0x3fc4e4d8adc5b156	0.16323383793804663
40	0x3fc021b550f1d4db	0.12602869465232555
41	0xbfc408e2c703cc9f	-0.15652117459794554
42	0x3fca8b4a22d1a245	0.2073757810606073
43	0xbfd120083dd7eed5	-0.2675800899448693
44	0xbfc2a0726168a4d7	-0.1455214477184998
45	0xbfcca4f3228823f4	-0.22378386674998263
46	0x3fbbb1cb370e5456	0.10818166822566985
47	0x3fc14300b508ec4c	0.1348572620352989
48	0x3fc34f1784ec004c	0.1508511923821082
49	0xbf9c86de2413b5ca	-0.027858229591336138

layers.12.bias f8 [5]
0	0x3fc758d88000eb28	0.18239885568785863
1	0x3fb2ae0d7ff378c6	0.07296833394818511
2	0x3f6dd77fffcacfba	0.0036427974685810634
3	0xbfb5d8a87fed73b8	-0.08533719180327537
4	0xbfc9b1bf000dbcd8	-0.20073688032741788

layers.13.weight f8 [5]
0	0x3ff21a3d68449278	1.1314062188113478
1	0x3fee2125184339bb	0.9415460084799671
2	0x3ff388f106c47b0c	1.2209329857211655
3	0x3ff1dfed4fc3a790	1.1171696773330702
4	0x3fee3f3f21fe05f1	0.9452205337440188

layers.13.bias f8 [5]
0	0x3f9bdb7e86109bec	0.027204491551085327
1	0xbfbeb6f17677b5e5	-0.11997899191165791
2	0x3fc3bd5fec7ba94e	0.1542167572691348
3	0x3fb3b33642fa2386	0.07695330748732773
4	0xbfc4dd8df99efe12	-0.1630113095143178

layers.13.running_mean f8 [5]
0	0x3fe727ac7bec120a	0.723592989001703
1	0x3fd2b9ee1fc662ae	0.2925982771207981
2	0x3fac205c112f669c	0.054934384439275535
3	0xbfc10b558f774a39	-0.13315839295553802
4	0xbfd0b10a46c5fbfa	-0.26080567275488387

layers.13.running_var f8 [5]
0	0x3f99372aaf8fd202	0.024624506917421136
1	0x3f901af33a199248	0.015727806492934954
2	0x3f9e4f5d67f6b4ec	0.029599627943459092
3	0x3f8bbc7832ff5e2e	0.013543070846863871
4	0x3f8afa6b598d5cda	0.013172949476638985

layers.15.weight f8 [3, 5]
0	0x3fd0ad1fe2b66764	0.2605666841496854
1	0xbfd63bdc538f5d47	-0.34740360412748256
2	0x3fd37fad2e092eb6	0.3046677541321786
3	0xbfb83b105bb29f3a	-0.09465124357904822
4	0xbfda0ae34f8cd7b3	-0.40691454666682175
5	0xbfd1f5dcedf8edd8	-0.28063128699770123
6	0x3fd0a32bc571765e	0.25995916635097227
7	0x3fbea1d72a94355d	0.11965698995137104
8	0x3fdb2181128e2a24	0.4239199334339523
9	0xbfc3331d971a790e	-0.14999742391678023
10	0x3fc17cb090eae2f2	0.13661772800494237
11	0x3fad777a6959f8e2	0.05755217109707346
12	0x3fbb7d472193a716	0.10738033838029212
13	0x3fbd8a405a1dcfc0	0.11539079856976198
14	0x3fbcebf57e770e3d	0.11297544801259903

layers.15.bias f8 [3]
0	0x3fcf5339ff94c865	0.24472737292814198
1	0x3fd0e85996dc3466	0.2641815160030262
2	0x3fcf81c87f747ec7	0.24614816878692222
