neural_network/traj_gaze_ee_model.pt (torch_old, 40718 bytes, 38 tensors)

layers.0.weight f8 [15, 6]
000000 f8 b8 08 4f a1 6c e4 bf 82 5d 6b d5 aa 3c b0 3f
       -0.6382605117449023 0.06342570982393705
000010 42 0d d4 4c 57 1e c9 bf f1 7a 70 38 b8 26 97 bf
       -0.1962384343279187 -0.022608641094957475
000020 6a 24 2a d8 89 dc 89 3f 9c d7 45 ae 20 d8 86 3f
       0.012627674969978925 0.011154418295273243
000030 5d ed 3b 4f fb 08 c5 3f 20 5a 28 b8 ee a4 b5 bf
       0.16433659905292589 -0.08454792018924495
000040 60 ba 18 08 80 34 a9 bf 8d d1 42 37 51 b5 ac 3f
       -0.049228669155458205 0.056070840831497916
000050 7c ca 7e cc 32 14 d3 3f ce bf fc 3c 80 3d d8 3f
       0.2981078145050231 0.37875371890822584
000060 d8 0e 81 90 0a 39 d2 bf 93 00 88 09 37 30 dd 3f
       -0.28473152267200197 0.45606780939852704
000070 10 ba df b9 91 6f d4 3f db 42 15 14 3c 9f bb 3f
       0.3193096461463094 0.1078984784155738
000080 b9 7a 5e 2b 12 71 d0 3f d5 dc b6 c2 35 7d d2 bf
       0.25690130458125854 -0.2888922120577722
000090 7b ce 76 92 70 9a b6 bf 03 5f f8 b6 e5 ae dd bf
       -0.08829406333716776 -0.4637998854463918
0000a0 b3 d5 19 48 e2 91 e5 3f fd 29 f7 23 8c 21 b2 bf
       0.6740580948086773 -0.07082439306319795
0000b0 32 73 70 0b 33 2a c1 3f a5 4c 7f 0a d3 3d a7 bf
       0.13410032328183658 -0.045393557578472334
0000c0 05 a1 de 9b 4b fc cc 3f 11 cb cb cf 30 b9 f3 3f
       0.2264494429666756 1.232712566092861
0000d0 fd 78 4e f5 f0 1f d2 bf 96 6e c1 44 b5 97 c5 bf
       -0.28319953876224685 -0.16869226319510194
0000e0 d5 c2 26 a2 95 d4 d2 bf f8 9f ac 38 ab f0 c3 bf
       -0.29422512850855514 -0.1557821299295481
0000f0 5f 30 5c f4 02 e6 d5 bf 3e f5 8f 4f 5c 16 8f bf
       -0.34216379035274785 -0.015179368188905525
000100 24 0d 9c 78 ad ee da bf f2 68 1d 76 58 a6 59 3f
       -0.42081772592810496 0.0015655387764668652
000110 9e ad b1 d7 56 40 a1 3f 31 af 91 f1 e7 8e cd bf
       0.03369399435981822 -0.23092364592900474
000120 0a 5c 45 32 6e ec dd bf b4 dd 0f 3c 64 0d e3 3f
       -0.4675555697371584 0.5953847096524698
000130 2b ad a5 f3 45 d7 d9 3f 53 88 61 54 4a 59 c9 bf
       0.403764236389821 -0.1980374252335105
000140 c8 ef 1f 7b d5 2a d0 3f 81 27 1e c1 dd 75 c5 bf
       0.25261437438871015 -0.16765949182109455
000150 0a 13 57 4e 0a e4 d1 3f 17 a7 a1 90 54 b6 d3 3f
       0.27954347277072655 0.30800356029668435
000160 d5 62 c5 87 73 fc e9 bf 86 d1 ea 37 b6 95 c5 3f
       -0.8120668079164611 0.16863134126982632
000170 6a f3 1e c8 da 0c ce 3f fd 77 29 74 07 34 c7 bf
       0.23476729175117877 -0.18127530261966732
000180 e1 47 4f e4 a0 86 d3 3f 70 b5 3d 56 02 8b e0 3f
       0.30509207054012505 0.5169688877482894
000190 8a 0e 83 fb 4e 5b ec 3f 3e 52 f2 3c a8 17 cb 3f
       0.886146060213336 0.21165945983797657
0001a0 aa b4 e7 37 2a af c9 3f d5 cf f1 83 b6 7b b7 bf
       0.20065810899487718 -0.09173145982077753
0001b0 03 46 16 e4 00 b6 a1 3f eb 9a 3b dc de 81 c1 3f
       0.034591701357509684 0.13677583459430961
0001c0 3e 6d 1e 8d 22 86 d8 bf 7f 5b a5 f1 7a 52 d4 3f
       -0.38318694859636426 0.3175341949294576
0001d0 90 03 92 62 c5 68 c6 3f ea 1c 73 2e 6e 46 d1 bf
       0.17507235825544543 -0.26992373024081806
0001e0 ab 51 a4 a6 f1 d2 b5 3f 1a 2d fc 53 10 fd ca bf
       0.08524999922184999 -0.21084789372285045
0001f0 af 1c 96 af 20 8f d7 bf c5 28 fb 37 43 dd d3 bf
       -0.36811082026583625 -0.31037979571250346
000200 35 02 46 7b b0 6a be 3f f5 39 d6 22 ef b1 d5 bf
       0.11881545075994711 -0.3389852371409739
000210 39 2e b4 7a 73 2d e0 3f c2 5a 02 81 29 5d 83 3f
       0.5055482288893877 0.009455036401317844
000220 9e 53 04 78 ba 7e dd 3f 38 2e c8 a2 43 df b4 bf
       0.46085988731766203 -0.08153174137276487
000230 4a 0e c1 cb de 89 bb 3f cf ff bf c4 4a e7 b9 3f
       0.10757248377290654 0.10118548682657934
000240 b0 19 fa c1 f1 89 e6 bf 46 7b d3 ab 52 f4 de bf
       -0.7043389118778602 -0.48366228847401194
000250 0f 12 b4 62 94 3d bf 3f 31 a4 b8 92 f8 11 d1 bf
       0.12203338060141554 -0.2667218621086845
000260 db 3f 1f 56 72 66 d3 bf 3e 20 f5 66 b1 f1 bd bf
       -0.3031278458629438 -0.11696919215785415
000270 82 3f 4e 50 7a d7 c7 3f 5b cb df 85 f1 06 ea bf
       0.1862633602254356 -0.8133475889902501
000280 2b ac 26 92 31 19 c8 bf 85 74 c9 d0 8a 45 c3 3f
       -0.18826884876520586 0.15055976099657556
000290 e7 29 2d be 8e 37 cc 3f 71 fa f7 7e 3b 00 c3 bf
       0.22044548307378806 -0.14844459247247557
0002a0 f0 1a e2 f9 5e f0 de 3f 79 07 52 ec 8f 16 dc bf
       0.48342108156832264 -0.4388770873848596
0002b0 18 13 75 30 c4 5c e2 bf 88 b3 01 d5 b2 27 d1 bf
       -0.5738240190918047 -0.26804800797872774
0002c0 76 84 aa 01 46 13 d1 bf d4 33 60 19 a1 ad bb bf
       -0.26680135882094846 -0.10811812276388305

layers.0.bias f8 [15]
000000 53 f6 02 40 a2 52 d9 3f 8d 74 29 00 8e b4 93 bf
       0.39566856623773566 -0.019243448982127865
000010 f2 00 02 20 dc 40 d1 bf ba 6d ff bf c0 23 d3 3f
       -0.2695837318970141 0.29905718564779316
000020 ef c0 fc ff c2 1e d4 bf 83 f0 07 00 65 fd a2 3f
       -0.31437754629861464 0.03708949685457787
000030 76 a5 38 00 12 36 ad bf 4f c9 02 00 a7 b7 c7 3f
       -0.05705314877225025 0.18529212475329834
000040 12 32 02 00 fc 5b d0 3f c0 70 fd 7f 21 07 c6 3f
       0.2556142807086711 0.17209261655341912
000050 df 7c 03 00 ad fa c5 bf 68 34 f4 ff ad 2b a8 bf
       -0.17171251774468652 -0.04720824956357533
000060 6a be f5 bf b9 e4 c8 bf 92 de 04 c0 e1 ec c6 bf
       -0.19448015091937815 -0.1791040599434735
000070 6e 99 fb 7f 87 24 d1 3f
       0.26785457132645873

layers.1.weight f8 [15]
000000 67 11 d8 44 f3 9f e5 3f 7d 63 19 e4 5f 45 ef 3f
       0.675775179348915 0.9772185759603499
000010 b6 b3 48 91 b5 5c ee 3f 6b f4 33 68 e7 df e6 3f
       0.948817046888158 0.7148320231641611
000020 24 e3 6d 56 d8 43 ea 3f 38 c6 70 25 ad e9 ed 3f
       0.8207818687506898 0.9347749453792806
000030 47 16 05 41 4a 40 eb 3f c3 30 a5 a0 7e 20 ec 3f
       0.8515979070586547 0.8789666307070764
000040 e7 36 a3 cb 13 ae f0 3f 5f d8 65 9d e6 83 f0 3f
       1.0424993471710253 1.032202353320393
000050 0c c4 eb 59 6d 62 e9 3f 10 da 8e d5 b2 7b e8 3f
       0.7932650333660844 0.7650999232344606
000060 9d 6e cb a3 ba c6 ed 3f c6 3f b7 42 05 64 ee 3f
       0.9305089186777483 0.9497095397036837
000070 21 2a ec 9d 77 bb f0 3f
       1.045768372425876

layers.1.bias f8 [15]
000000 b0 76 fe 55 1c ef 8b bf 9c 5a b9 94 28 27 a7 3f
       -0.013639661192253655 0.0452206307933711
000010 8e b9 45 22 f1 fb a3 3f 34 bc 5f 3e 1a c2 a9 3f
       0.039031539376867305 0.05030900966072985
000020 66 7d 5e ba d9 6b 8c bf 08 9f 4b 48 40 ea bd 3f
       -0.013877583503755186 0.11685563817047406
000030 90 15 9c 34 39 60 96 bf 87 11 e0 89 2a ca a3 3f
       -0.02185143836597586 0.038651780443646415
000040 8d f7 45 31 93 fd bf 3f ff c7 47 c9 4a 46 c4 bf
       0.12496299698793063 -0.1583951456846648
000050 b8 d0 e2 08 a7 b4 b4 bf 85 ab b5 c7 fe d7 c2 bf
       -0.08088153807585996 -0.14721665145347287
000060 6f a5 2f 4b 94 54 b3 3f 01 11 f1 49 71 f3 8c 3f
       0.07550932727430902 0.014136204785366592
000070 e3 0a b0 52 6d 8b c3 3f
       0.15269247567638108

layers.1.running_mean f8 [15]
000000 c1 a8 33 78 6c 52 e4 3f fe a8 b5 00 38 ac 28 40
       0.635061487931374 12.336364767241772
000010 08 09 6b 4e e9 3e 23 c0 80 dd 7c 79 4d f1 f5 bf
       -9.622873735967474 -1.3714117761245177
000020 1a cd 76 fb 06 26 14 c0 9e 63 8f bf ce 9b 1f c0
       -5.037136010290192 -7.902155869604853
000030 ee 31 95 44 7f 0b 17 c0 3c 5c 24 ef 6c 3d 18 c0
       -5.76122767601599 -6.05998586329866
000040 69 8f 65 1a 58 89 ff bf 98 9e 0e ba fc 22 21 c0
       -1.9710312873002869 -8.568334402355774
000050 e3 7a 6a 7d f0 d0 28 c0 d0 e3 eb fd f2 ce 0a 40
       -12.408084792373705 3.351049407731331
000060 8f 83 35 f4 a6 ba 11 c0 5e 4d 44 86 cc 5a 16 c0
       -4.432277503744344 -5.5886708239735
000070 47 8d 61 fb 92 ef 0f c0
       -3.9919795645852534

layers.1.running_var f8 [15]
000000 c3 64 0a 9d 38 33 b4 3f f2 70 b5 ee 9a 1b 37 40
       0.0789065726661589 23.10783283166615
000010 8b 14 01 2a a5 3e 31 40 ef e7 a3 ef 04 60 e4 3f
       17.244707703841907 0.6367211037133965
000020 26 12 f3 25 f7 9c 12 40 87 b8 3e 8a e2 07 22 40
       4.653286545716162 9.015400238186215
000030 27 6a 64 86 79 9c 15 40 b2 ea b7 bb 2f 0d 22 40
       5.402807330969643 9.025754800987986
000040 9b 75 3e e7 68 9c 0f 40 06 09 ac 4d 6e a5 32 40
       3.951371962159738 18.6462143464096
000050 a8 b8 f9 e9 7c d8 31 40 b7 fb c7 97 52 6c 01 40
       17.845656035868757 2.1778919084458397
000060 00 2c fe 5f ca d2 0e 40 1a ed 4e 7a d1 4b 19 40
       3.85292506212636 6.3240412817642895
000070 fa 6b 3c 76 c3 da 09 40
       3.231818126410414

layers.3.weight f8 [30, 15]
000000 15 fb c4 fe b1 69 b2 bf 5d d7 d4 24 c2 b5 c9 3f
       -0.07192528219182422 0.2008593253937602
000010 29 3d f1 59 95 dc ca 3f e4 8f d2 a2 fa 9c 9f bf
       0.20985667125430865 -0.030872265041253302
000020 89 a7 89 5b 0f a3 cf bf b3 a7 7e 87 05 03 cb 3f
       -0.24716369599928736 0.21102971187548078
000030 2d 90 7f 6a 91 56 c9 3f e1 8b 18 6b 3a 56 cb bf
       0.1979543466578674 -0.21356897572795133
000040 58 ad 09 26 50 ce c0 bf 14 1d 65 03 cd 07 cd bf
       -0.13129617554964557 -0.22680056253214131
000050 d4 67 28 26 d4 b8 a0 3f 3b 9b 4a f4 d2 78 af bf
       0.03266013112825275 -0.06146868927071699
000060 b6 76 88 41 f2 24 ae 3f d7 9c f9 ab bc b0 c6 bf
       0.058875627994195254 -0.17726858517855845
000070 15 93 0b ad 47 41 72 3f f5 fe f0 49 a6 85 c3 bf
       0.004456787094316868 -0.15251616106433344
000080 88 89 7f 21 c1 90 ce 3f 3e 1b 20 ba 8e b6 b4 3f
       0.23879255424169465 0.08091060680463344
000090 22 13 a0 bd 7a 2b a0 3f cf a1 59 06 82 73 b6 3f
       0.03158172192346444 0.08770001082451205
0000a0 d9 39 89 6b 0a 03 8a bf af 9a f2 27 2d 19 b0 bf
       -0.012701112181415052 -0.06288416123661976
0000b0 88 22 e3 37 8f 97 c7 3f 15 7f 68 7a 4a 79 b2 bf
       0.18431272724980752 -0.07216325272065334
0000c0 f6 4e b0 80 44 37 c4 3f be 07 c1 ae ba c2 c6 bf
       0.15793663295391241 -0.1778176644602904
0000d0 0a a2 e0 19 46 74 a0 3f 1e 91 9e 96 55 a2 c8 3f
       0.03213709894072643 0.19245405058348636
0000e0 11 99 64 54 52 cb c1 bf 8e cc db ba 2c d6 c6 bf
       -0.13901738281965284 -0.1784110939403018
0000f0 e7 82 62 3f 56 aa b2 bf 17 a3 fe dc b4 e2 c1 bf
       -0.07291163489800177 -0.13973103323703448
000100 4d e5 db d9 61 5a d1 bf 18 7a bf 9f fc aa 81 bf
       -0.27114149356164746 -0.008626912713165999
000110 11 b5 69 4a 11 be c7 bf cf 35 59 7e 7f d9 c6 bf
       -0.18548790105288807 -0.17851251286849254
000120 e5 cf 4e 2e 8f 13 be bf df e8 e4 7f 68 41 90 bf
       -0.11748595123827917 -0.01587451248745075
000130 24 77 c0 f6 f6 99 bb 3f 62 09 09 d0 c5 1e c7 3f
       0.10781806492056184 0.18062660844777684
000140 2e 7a 59 39 fc d8 c0 3f 9d 3b 66 c6 f7 34 83 3f
       0.13162186432141837 0.009378371946494652
000150 f0 b3 ea 3d e8 a4 c4 3f db 53 09 99 a2 69 60 bf
       0.16128256819993636 -0.0020034957636121237
000160 7f ef 57 7b ff e1 a3 bf 83 3a 21 1c 44 87 a5 bf
       -0.03883360272081315 -0.042047623094380725
000170 00 b4 82 10 21 f4 97 bf 75 96 da e3 da e9 cc bf
       -0.02339221633217292 -0.22588668943096804
000180 9e c4 f6 5c e4 40 b8 bf 96 9a 8f 3c 4c 40 cb 3f
       -0.09474017400386223 0.21289971310689698
000190 89 64 35 44 61 7a c1 bf ad 9a 78 b4 72 80 b6 3f
       -0.13654723959442475 0.08789746194870914
0001a0 62 fc 2c 15 ff 7e a8 bf 06 4f 29 3b f4 87 c7 3f
       -0.047843905768325326 0.1838364876626814
0001b0 7e bf d8 3d ca f5 aa bf f1 9a ff 09 51 fb bc 3f
       -0.05265647892917878 0.11320978635886171
0001c0 c0 db c7 c2 ac 0c c0 bf 6a 3e 60 a8 bc 51 c0 3f
       -0.12538680563713278 0.12749441358072328
0001d0 80 8a 9b 24 05 cb ba 3f 7d 6c 11 08 f3 a2 c2 3f
       0.10466034072627828 0.1455978192705948
0001e0 40 cd 67 e0 1d 1f a3 bf 90 51 2c 53 87 76 83 bf
       -0.03734677662205366 -0.00950341913770883
0001f0 c6 ef a2 53 30 8c ae bf 48 68 d0 a6 e9 1b c6 bf
       -0.059663305482416315 -0.17272682805270478
000200 57 2b e4 e5 e2 bc b3 bf 65 2d 13 6c af 89 c9 bf
       -0.0771009265192054 -0.19951432015509876
000210 8f b2 8a d4 15 55 7c bf 59 51 97 9d 24 af b2 bf
       -0.006917081140880867 -0.07298497054518317
000220 25 cd d4 54 f8 34 c3 bf 10 6c 30 23 ed 72 c8 bf
       -0.15005401746894012 -0.1910072728940979
000230 37 21 1c 36 3b 62 c4 3f b7 f3 56 7b 06 1e b9 bf
       0.15924778120121072 -0.09811440001699522
000240 01 8a 70 36 91 a6 8b bf b5 e1 df 55 fd df a0 3f
       -0.013501295541634485 0.03295890496514479
000250 1f 99 88 bd 99 23 b8 3f d6 6d 13 c6 d1 1d b7 3f
       0.09429322125706506 0.09029875837170862
000260 80 11 18 34 c7 2c c0 bf cc db 1e bb 8f ab 73 bf
       -0.12636652034428764 -0.004802285622580404
000270 2e 25 04 67 d6 f8 aa 3f 3e 45 33 aa 5d 66 d1 bf
       0.05267972953340415 -0.27187291737671504
000280 03 3a 03 3b 5c c1 c2 bf 06 fd 33 01 c3 42 cd bf
       -0.1465258873126488 -0.22859990652794
000290 97 8b a5 9f 8a 68 c2 bf 79 05 c7 30 d5 6d c6 bf
       -0.1438153533482278 -0.17522683030805888
0002a0 3c 52 a2 51 f8 c5 b8 3f 9d 85 aa 62 df f3 ce bf
       0.09677078240412923 -0.24181740110092856
0002b0 0a f6 3f 9f 67 5a a0 bf af 1c 8c 44 35 95 a1 3f
       -0.03193973368614074 0.034341492288200264
0002c0 fa 42 96 73 26 ed c6 bf a9 ca 5d 0f 27 e7 3c 3f
       -0.17911224979300028 0.0004410238610638531
0002d0 1a f0 a9 f7 c9 25 d0 bf 58 ea f3 53 7f eb c6 3f
       -0.2523064535705558 0.17906180953271433
0002e0 52 d1 42 ac 19 26 c4 bf 3f bf 8a 63 01 df b7 bf
       -0.1574127284162708 -0.09324654274200571
0002f0 7f 05 6a aa 74 86 c2 bf c6 55 85 90 4f c1 a4 3f
       -0.14472826310160866 0.04053734435243998
000300 f6 44 17 46 a4 7c c9 3f f8 af fb 45 fc 6a bd 3f
       0.1991162626496032 0.11491371830533115
000310 c4 07 35 76 87 97 c9 bf 92 83 6f e5 10 62 b9 bf
       -0.19993680259545787 -0.09915261842208015
000320 dd 3f c5 f8 d3 29 c0 3f 5a 52 54 05 d7 f8 bd bf
       0.12627648970601416 -0.11707824592697005
000330 bd ff 9f 8f d9 6d cb bf e3 39 44 62 f8 6b a1 bf
       -0.21428985131205805 -0.034026872630523085
000340 c7 dc 50 77 2d ab c9 bf 57 dd 6e b6 d2 89 d1 bf
       -0.20053642583818584 -0.274037054211893
000350 5e 17 0d 81 12 34 b1 bf a5 26 30 fb 73 a7 c8 bf
       -0.06720080996191544 -0.19261026158374253
000360 50 07 39 89 e3 b9 ab bf 35 82 39 44 7d e9 b6 3f
       -0.054152594090295936 0.08950026431694698
000370 76 30 7a 1d 5b 82 9c 3f 97 b5 11 9f 04 88 c1 bf
       0.027841018366004687 -0.13696344153451598
000380 7c 0d a4 36 25 d0 62 3f 15 2a 35 9a 75 e1 c4 3f
       0.00229651706934114 0.16313047437354614
000390 81 68 5d 59 86 0c ca 3f 09 56 5e 91 79 33 cc bf
       0.20350722659606293 -0.22032088850089362
0003a0 95 b8 c9 4f 3a 1f cf 3f f8 35 9e 27 a3 88 ca bf
       0.24314049621483905 -0.20729484018777078
0003b0 cf 43 81 57 57 61 96 3f 1d 60 ac 22 1f 3a c6 3f
       0.02185570212924742 0.17364873116525895
0003c0 5c 30 0f a9 0b e9 cd bf 3f 2e fa 58 15 a4 aa bf
       -0.23367448572969607 -0.05203310691021245
0003d0 92 58 05 d8 f9 c8 c7 3f 81 f1 c6 30 11 98 c1 3f
       0.18582079933066048 0.13745322114654004
0003e0 f8 cb 9d 89 06 89 aa bf 5d 6d 0b fa a7 f7 b3 3f
       -0.05182667188537232 0.07799768309216888
0003f0 e6 f5 45 a8 06 64 a4 3f 38 04 85 a3 56 2a cc bf
       0.039825637856647764 -0.22004206642489677
000400 54 f5 a9 16 c2 9a bc bf 67 64 7a 13 fa 4c c1 3f
       -0.11173642209356177 0.13516164733008226
000410 a3 2b 2f 55 a1 21 ce 3f 45 11 76 45 dd db ac bf
       0.23540131244075466 -0.0563649318019395
000420 03 2e 3e 54 f6 ef c7 3f a4 5d 50 41 6c 07 d2 3f
       0.1870105658857569 0.28170305612862934
000430 d5 4f 9f af 99 10 cb bf fd c5 3d 67 1c a3 ce bf
       -0.2114441020518131 -0.23935275116996016
000440 01 01 91 44 93 db b3 bf 4b 48 a6 82 3b f0 b3 3f
       -0.07756920265183355 0.07788440646825838
000450 28 b5 c9 c9 45 57 c6 3f 46 4a 90 2b bb a9 aa bf
       0.17453834870267682 -0.05207619578154214
000460 a2 fb df 84 27 ef d3 3f b9 62 5e 5a ed 44 bf 3f
       0.31147182441776 0.12214549499766293
000470 64 78 f5 f5 de e9 b0 bf d4 e1 43 82 82 b4 bd 3f
       -0.06606858734946425 0.11603561096479292
000480 b9 2b f5 5c f6 34 b6 bf 27 0a 16 51 05 71 c9 3f
       -0.0867456414172655 0.19876162013322693
000490 ce dc 0c 30 10 20 d2 bf d6 6c 01 b2 cf bc c7 bf
       -0.2832069844475428 -0.18544956390073847
0004a0 7d c7 f3 72 0d 20 90 3f 2f bd 03 0b c4 d2 7c 3f
       0.01574727071869785 0.007036939423627416
0004b0 d4 78 09 b2 1f 1f bc bf 6f 9e bd 50 99 2a c8 bf
       -0.10984991165739483 -0.188800014900369
0004c0 66 c0 1a ad d6 3a a0 bf ee 3e 6f dd da 97 be 3f
       -0.03169890273181934 0.11950462251774827
0004d0 5a 54 a5 26 bd 46 bd bf ee 62 e1 f9 70 ab 8d bf
       -0.11436063951016831 -0.014487154603715049
0004e0 fd 6d 31 02 c6 d9 c4 bf b5 d9 d4 b2 d5 bc c5 3f
       -0.16289591891369062 0.1698252795410561
0004f0 8d cf b2 5a 44 b0 b8 bf f2 63 c6 fc 89 5b c3 bf
       -0.09643962110823008 -0.15123104898955791
000500 99 14 f1 ab 07 cd bf bf 0b 9f 8f 26 d9 ea cc 3f
       -0.1242222590236274 0.225916999653457
000510 4e f0 b2 73 6a ea 51 bf 83 a0 2c 9d 1c da be 3f
       -0.0010934867448631094 0.12051562154067778
000520 9a f1 bd c5 da 95 d0 3f 15 c1 13 ff 99 f6 af 3f
       0.2591463976930527 0.062428295504903066
000530 70 c8 a1 6e 0f d8 c1 bf 0c 4f 64 8c b5 8a af bf
       -0.13940613653136635 -0.06160514200942488
000540 12 ed e1 5d 7d fe ca 3f c4 76 01 ae 8c 02 bc 3f
       0.21089140972240067 0.10941390274225699
000550 70 64 ae 15 9d 24 bd bf 4c 79 cd 14 a3 b6 b4 bf
       -0.11383992938353216 -0.08091182000996361
000560 1d 75 9f ce 89 11 b7 3f ce 06 b3 99 f7 25 ca 3f
       0.09011136335853505 0.20428366665696845
000570 fe f5 f4 a1 48 50 b0 3f 65 f1 23 ef 90 91 91 3f
       0.0637250323679481 0.017156853290530977
000580 46 49 39 fd 63 25 cd 3f fc d2 a9 87 ea 07 c8 bf
       0.22770357002679925 -0.187741581193812
000590 c9 26 bd 2a 26 40 b0 3f 2c 82 b0 0a 67 be b8 3f
       0.06347883742742079 0.09665531168912683
0005a0 ce 8d a5 21 79 82 cf 3f 06 98 ec 33 77 8b ca bf
       0.24616922514824896 -0.2073811534439189
0005b0 6a 58 73 a4 bf 65 c7 3f ca da 0f 6a 3d 1b a2 bf
       0.18279262094319232 -0.03536407394124337
0005c0 f7 8a ae c4 a2 54 c1 3f 66 7f 44 0d 4a ed c9 bf
       0.1353953800545111 -0.202553993681245
0005d0 95 3a 77 b2 c2 e3 c2 3f c6 0b 31 93 a0 1b b0 3f
       0.14757569994113298 0.06292155831856325
0005e0 81 d6 54 b1 c1 fe a0 3f 0b 04 b0 10 45 e9 d1 bf
       0.0331936387032501 -0.2798626578297109
0005f0 35 7f 77 f3 ae 3f b2 bf f4 c5 07 e5 ad 26 27 bf
       -0.07128423160565663 -0.0001766288064711099
000600 ab 5a cf e1 ee 83 a5 3f 52 d9 9f e1 3a 78 bd bf
       0.04202219492406319 -0.11511581428917353
000610 bd c0 93 7b 92 4b c5 3f dc f2 80 b1 cb f7 c6 bf
       0.16636878046074868 -0.17943712393925793
000620 af ae 57 6a 7a 11 c1 3f 81 35 7c 7d 93 33 a9 3f
       0.13334589188103993 0.04922161967088368
000630 6c 21 46 d3 21 34 c4 bf fc 2c 72 25 29 0a bf 3f
       -0.15784094635115353 0.12124879039963682
000640 53 53 e8 b3 3a e0 81 3f 89 5c 91 28 e4 5b c9 3f
       0.008728464713422623 0.19811679821825504
000650 1b 6c 81 de 3a d2 7d 3f 99 91 87 c1 d5 e0 c4 3f
       0.007280569036164609 0.16311141919790087
000660 9c f6 7a 3e 44 17 b7 3f 6d f8 77 8d 18 9a bd 3f
       0.09019876981161662 0.11563256696533282
000670 bf dc b8 76 a9 c2 c4 bf eb 20 9e dc 60 f1 cf bf
       -0.16219061181047853 -0.2495537831530393
000680 4e 1a a9 76 02 c0 97 bf c8 59 2e 12 9e d2 b9 bf
       -0.02319339608427589 -0.10087001747010682
000690 b4 75 29 78 2d a9 c5 3f 07 bb 6b df a5 0b ac 3f
       0.16922539107592416 0.05477636673264468
0006a0 f7 d2 dc 4e 10 44 bd 3f ae 54 51 e6 6f 1e cf 3f
       0.11431981969219494 0.24311636682492604
0006b0 57 f4 37 7d 43 6b c7 bf 61 b0 76 22 83 0c bf 3f
       -0.18296092619121637 0.12128467170140446
0006c0 df 7d 4a 9a 97 88 bd 3f 82 03 de 1a 01 8e c5 bf
       0.11536548153753 -0.1683961278140736
0006d0 de 66 b1 cf f4 03 7b bf 7e f4 8c c1 aa a8 b7 bf
       -0.006595569891112622 -0.09241740441662391
0006e0 21 e4 f4 34 39 cc c9 3f da 77 57 5d a8 a9 7f 3f
       0.2015449055268457 0.007730157541542904
0006f0 9c c4 82 90 51 30 bf 3f da e5 00 11 2e c7 cc 3f
       0.1218310334977723 0.2248284895920694
000700 98 43 e1 62 ce c1 95 3f 3e 2e 24 3d 47 52 d1 3f
       0.02124712446704144 0.27064686747391764
000710 e0 fa 3f 8d f0 d4 94 bf b3 de cf e6 1b f7 ce bf
       -0.020343550320826576 -0.24191616792790213
000720 e9 a4 f8 08 0e 98 cd 3f 44 e9 79 8d d9 ec b0 3f
       0.23120284498262514 0.0661140413666646
000730 43 01 e8 c5 66 56 cd 3f 25 f9 e6 1d 7f c9 bf bf
       0.22919926322357229 -0.12416834335360656
000740 e0 aa 0d 01 74 c3 c7 bf 32 d2 8b 31 90 8b 8f 3f
       -0.18565225650248518 0.015402914535550403
000750 40 ae b9 34 59 47 94 bf db 37 08 ef 56 8b c8 bf
       -0.01980342277822289 -0.19175230666627283
000760 e0 0c c1 91 3c 8e b3 3f 3d 98 7d b3 43 50 ca bf
       0.07638910826158307 -0.20557447685422572
000770 c4 b5 e1 16 5e 99 b8 3f 51 35 d4 f6 f8 63 b7 3f
       0.09609020289072762 0.09136920953843243
000780 38 a1 45 c8 40 09 b7 bf e6 73 02 a8 93 8d ca bf
       -0.08998494042828475 -0.20744558051674672
000790 36 77 76 0e 1d 87 c2 bf 6a 91 78 bb 2b 8d b9 3f
       -0.1447483368510178 0.09981034590652418
0007a0 58 26 ad ec 51 89 a1 bf bd e0 4b 0c c9 d4 c3 bf
       -0.03425079359165001 -0.15493119335565622
0007b0 c3 f4 3f b9 08 06 b4 3f ab d8 22 58 90 ec ba 3f
       0.07821707270337001 0.10517217780838688
0007c0 61 03 71 e7 09 70 a6 bf 95 ae e5 55 4a 2d 6f 3f
       -0.043823537351733284 0.003805775820344535
0007d0 68 47 ca cf b8 4f cc 3f c4 5a 98 49 60 55 d0 3f
       0.22118291994098205 0.25521094500565433
0007e0 8f 22 77 9a 3b 30 a0 3f a3 dd b5 40 dc ec b4 3f
       0.03161798725665676 0.08173920230716773
0007f0 9d bb fd 02 c8 97 70 3f d9 0c d4 de 4c 1c a4 bf
       0.00405099992336391 -0.03927841396400717

layers.3.bias f8 [30]
000000 87 bb 0a 80 ef 09 b4 3f bb 97 99 bf d3 4e b5 bf
       0.07827660442374738 -0.08323405673726729
000010 3e 81 36 40 0f d4 ce 3f 05 66 b0 5f 0a 43 c7 bf
       0.2408465446033094 -0.18173341438595983
000020 03 b9 ef ff 44 b2 bf bf 8f 31 fe 9f d0 a3 ce bf
       -0.12381392715881039 -0.2393742352691217
000030 6d 3a 0f 40 d5 bb cc bf 8e 4e d6 ff c3 30 a5 3f
       -0.22448220851807169 0.04138767717372814
000040 5f b8 10 80 85 23 b2 3f 08 02 00 80 e6 fc b0 bf
       0.07085451485247195 -0.06635895371437794
000050 fd 8a ff ff 0e c5 c3 3f 75 30 f9 3f 2f ff ce 3f
       0.15445125102913684 0.24216261504841766
000060 41 c2 02 40 4f cc c6 3f 95 43 fb 7f 4f bd b1 3f
       0.17811003327871514 0.06929489969776477
000070 af 37 fe 7f 60 f5 bc 3f ab c9 f3 bf dc f8 b3 bf
       0.11311915516691216 -0.0780160874017272
000080 d7 ae 52 fd f3 16 85 bf 5e 5e ad 00 06 b9 99 bf
       -0.010297685783675998 -0.02511987094052725
000090 b3 c1 75 ff fb 03 a5 bf 8e 90 ac 00 93 00 b5 3f
       -0.041046023305969646 0.08204001203972863
0000a0 17 31 0f 00 3e 3a b7 bf c8 01 07 00 9f 8b b7 3f
       -0.0907324552674179 0.09197419882457958
0000b0 41 9d 0d 40 ba 55 cf 3f ad 0b 00 e0 78 35 c8 bf
       0.24480369689556805 -0.1891318410635824
0000c0 ee da 28 20 69 db c3 bf 00 5e e9 ff 71 1a 91 3f
       -0.1551333815602542 0.016702443356136243
0000d0 23 bb 07 80 7f e3 cb 3f 50 81 65 7f 50 29 c5 3f
       0.21788018943285534 0.1653233167699093
0000e0 bb 46 1e 20 fb e7 cc bf a9 85 7e ff b7 e3 8c 3f
       -0.2258294970347857 0.01410621403175834

layers.4.weight f8 [30]
000000 13 4c e8 a0 2e 1c e9 3f 67 2f 89 3f d8 a8 f0 3f
       0.7846902029726855 1.0412218553419395
000010 52 85 9e 4f a4 1e ee 3f 94 ac 94 c5 a5 be ed 3f
       0.9412404589713026 0.9295224055289446
000020 0c 70 9f 63 52 39 ee 3f 9b 6d f3 4e e7 75 ef 3f
       0.9444972940214043 0.9831425230035394
000030 48 65 67 d2 93 61 ef 3f a2 95 15 d1 be f7 f0 3f
       0.9806613072825394 1.0604847113948854
000040 37 88 11 fb 3b 1d ef 3f 6b 5a eb 9f c5 52 ef 3f
       0.9723186401063292 0.9788540004181646
000050 16 1c 48 6b c5 c5 f1 3f 05 a4 4a 29 0c 09 ed 3f
       1.1107839766207284 0.9073544317699321
000060 ba ac 41 23 07 88 f1 3f bb 0d 0c 86 cc ae ef 3f
       1.0957099320610681 0.9900877588374252
000070 15 2c e0 ac db 2f eb 3f 1b 2e 85 68 c2 36 ef 3f
       0.8495920540311795 0.9754344979677997
000080 65 a7 8b 75 41 a2 e9 3f 46 80 96 6c 9e a8 f1 3f
       0.8010566039858814 1.1036667100634232
000090 2f 40 bb 71 07 e9 f0 3f f8 2c 45 9e d5 1c ea 3f
       1.0568918650278751 0.81601982986595
0000a0 77 0a 17 5b 7d 98 ef 3f 79 8a 09 cb 4d e1 f0 3f
       0.9873644618131284 1.0550058299201324
0000b0 32 63 2d 06 08 14 ee 3f 71 f3 7d e7 98 d4 ee 3f
       0.9399452324533739 0.9634518166854901
0000c0 ca 04 35 6c 79 74 ee 3f b5 9a 28 01 87 18 f3 3f
       0.9517180550975806 1.1934881253488758
0000d0 06 ce cc 29 80 d1 ec 3f 8d d3 65 b3 1e 51 eb 3f
       0.900573808327352 0.8536523345816122
0000e0 58 03 ce d4 35 18 f0 3f 10 e9 dc 26 70 6e eb 3f
       1.0059107124981974 0.8572312125245691

layers.4.bias f8 [30]
000000 a4 6e 66 39 4b a7 d2 3f dd f7 be 08 3c c0 c6 bf
       0.2914608059452155 -0.1777415316300325
000010 13 e8 4f 96 ed ac bd bf cb 67 a4 b7 a6 0e c3 3f
       -0.11591992301683289 0.14888462035088276
000020 db fa d5 76 c2 39 a3 bf 44 c5 7d 2f 69 c5 b0 3f
       -0.03755004597313923 0.06551225099044183
000030 3c 7b 7d e2 34 12 a4 bf 60 54 4d a3 21 89 b8 bf
       -0.03920140518925172 -0.09584245907656586
000040 92 bf 44 16 3d 28 bc 3f 76 4c 7c 0e 3b 36 a3 3f
       0.1099889926306317 0.03752312232804737
000050 25 df de da 88 91 c3 bf 29 ce 9e 05 6c e0 b6 3f
       -0.15287886321106572 0.08936190736022155
000060 c5 88 16 0b 95 83 a0 bf dd 0b 51 07 6b 30 ba 3f
       -0.03225389252044545 0.10230130127551669
000070 ba dd 86 63 16 1f af bf 9b 13 c2 e2 82 e0 d7 3f
       -0.06078405346800815 0.37307808060023157
000080 8c ac 93 a9 d2 d5 91 bf 31 69 65 03 da 8a b8 3f
       -0.01741723213210071 0.09586870749391065
000090 32 b3 55 ad ac d7 cd 3f 30 61 4a f8 be 15 bb bf
       0.2331443640099678 -0.10580056726246734
0000a0 b8 5b 84 67 12 c0 ce 3f 16 ff 75 3e 93 46 a7 bf
       0.2402365689710828 -0.04546032082998701
0000b0 b1 2f ac 01 5c 3e a0 3f bd 23 fc 23 73 63 db bf
       0.03172576446931375 -0.4279449321189153
0000c0 a7 3a 94 77 d4 c4 d5 3f 53 aa 12 3a ca 54 d5 bf
       0.3401385467304103 -0.3333001677625919
0000d0 5c e4 56 79 5b 4f 96 bf 6f 93 ac 27 b0 e3 c2 3f
       -0.021787099152536946 0.1475734895440399
0000e0 d5 f1 59 6e 88 96 90 3f b6 bb f2 f7 05 76 c3 bf
       0.01619923757105986 -0.15203928572506492

layers.4.running_mean f8 [30]
000000 c9 09 5b 72 e8 7d c1 3f 07 90 cc 3b fe ab b4 bf
       0.1366549070717851 -0.08074940643251703
000010 f6 c4 93 08 d3 76 ca 3f 00 70 1f e4 19 c6 c7 bf
       0.20675123137292645 -0.18573306692894676
000020 a5 70 23 38 ff fd be bf 2e 00 72 56 2e 4d cd bf
       -0.12106318588797878 -0.2289178773971811
000030 66 08 50 21 e0 ad cb bf e6 79 0b 3d 88 86 98 3f
       -0.21624375940888568 0.023950699544792807
000040 35 3c c3 8f 2a c0 a2 3f 93 02 81 f3 07 53 9b bf
       0.03662236218371399 -0.026683925854970324
000050 7c 08 ff d5 c7 cb c6 3f 2c 13 1e f9 51 d6 cb 3f
       0.17809389065775239 0.21747803367557006
000060 69 70 5b 0c db 30 c8 3f 3d 8f 0d f3 d2 95 ab 3f
       0.18899095633867383 0.05387744156794703
000070 de f4 52 6c 83 40 c1 3f 86 d7 33 52 70 20 a9 bf
       0.1347812918592472 -0.04907561305473877
000080 b5 b8 ed b7 9e c2 b0 bf 07 9a c6 e3 ad ef a2 bf
       -0.06546966543621376 -0.03698485761133346
000090 3c cf 60 d2 6f db 9e bf a6 63 02 20 f8 be b2 3f
       -0.030133959975685118 0.0732264593265329
0000a0 aa 08 21 d5 ab 71 c1 bf de 60 0e c3 79 08 aa 3f
       -0.1362814703625806 0.0508459139447852
0000b0 82 84 7a 08 7b a1 c7 3f f8 65 bf dd 47 8c cd bf
       0.18461549676888828 -0.2308435280563541
0000c0 29 11 72 82 d9 23 bb bf 2b d7 25 9a e6 a3 a0 3f
       -0.1060157721968308 0.03250046378791035
0000d0 c3 bc 13 c7 df c5 d0 3f a0 59 0a 63 82 a1 c5 3f
       0.26207727852938606 0.16899137340506076
0000e0 d0 6c a1 5c f0 81 d1 bf be 64 bc 3c a3 44 ad bf
       -0.27355584188417215 -0.05716428867726496

layers.4.running_var f8 [30]
000000 55 dc 53 3a cc e0 ad 3f 31 8f ee c2 8a af 88 3f
       0.058355695838991174 0.012053569864128729
000010 20 41 d9 7b 0d e5 7e 3f 3c fa 92 9e 31 8f b5 3f
       0.007542660399465967 0.08421621438444843
000020 9e c5 7b 41 34 c0 bc 3f ff 06 31 97 d4 22 d4 3f
       0.11230780218809008 0.3146258808593387
000030 48 16 6f d0 d4 e9 b4 3f 2c f6 ef 67 5d 99 a7 3f
       0.08169298256606183 0.04609195607916336
000040 c8 b9 43 65 ee 23 d1 3f 50 19 64 7d e0 ea da 3f
       0.2678180684005409 0.42058574910369817
000050 36 09 c6 ce 63 b4 95 3f a7 54 09 99 1f 77 a4 3f
       0.021195945258577008 0.03997133963700011
000060 12 50 3e 7a 67 3c b3 3f 5d a4 9f 5f a0 b8 c2 3f
       0.07514044508417353 0.1462593523895376
000070 bd 3d d4 20 1b 4c ba 3f 0a 7a 9b 7c 8b fd b2 3f
       0.10272378493777175 0.07418128769084134
000080 60 46 8e 9e 15 cb 9b 3f ee 22 57 d4 f6 27 b0 3f
       0.027141893198466938 0.06310980495539883
000090 d7 d0 97 c8 1f 35 af 3f 13 8c 0f a2 7a c3 67 3f
       0.06095218013425246 0.002900828855204826
0000a0 b4 0b ce 39 4c 42 bd 3f d8 24 a2 91 f8 8b c7 3f
       0.1142928734898721 0.18395907507900833
0000b0 95 d5 a2 28 ea 36 a3 3f 8e 34 d4 90 fa 10 84 3f
       0.03752834077878756 0.009798009438350765
0000c0 64 a0 90 67 bc e4 82 3f a4 5a 84 ff d2 5d be 3f
       0.009225341711570141 0.11861914385040478
0000d0 ce 82 13 d6 9a a6 c5 3f e1 95 f7 42 01 62 89 3f
       0.16914687588634653 0.01239396081559624
0000e0 e4 8d de 4d a0 55 96 3f 4e 02 02 27 70 07 c0 3f
       0.02181101298596201 0.12522699265174925

layers.6.weight f8 [50, 30]
000000 07 9e da 0c c5 89 ac 3f 4a f4 da 0a e5 40 b8 3f
       0.05573859960469112 0.09474021449109774
000010 7e 39 df 87 54 0a 4d bf f1 66 5a 34 95 86 c0 3f
       -0.0008862412212183172 0.1291071420317205
000020 2f 75 29 8b 9a 8b bb 3f f6 e0 97 0c 9c e6 b2 3f
       0.10759893319614798 0.0738313227410606
000030 58 83 cc d2 80 7f b6 3f e2 49 19 c5 1e dd c6 3f
       0.08788304468590746 0.17862305282558483
000040 8d 1e b6 d1 da 6f 93 bf d7 7c 1c 6c da df c1 bf
       -0.018981379556434908 -0.13964395789023484
000050 6e 03 93 eb e1 5b bc bf da 64 29 3c f9 0f b1 3f
       -0.11077701569867113 0.06664998739997277
000060 a6 3e e1 54 20 07 bb 3f 24 ce f8 bd 04 37 bf 3f
       0.10557748863470326 0.1219332660482953
000070 ea 97 d1 ce f4 be a8 3f 7d 7e 51 a3 3c e4 b4 3f
       0.048331880804468444 0.08160761821044989
000080 57 75 8d 44 0d 10 bf 3f 8b 84 1d 88 f2 ab ca 3f
       0.12133868144652148 0.20837241789107383
000090 84 e2 1a c7 fd 8a c5 3f e6 ae a4 14 b8 8a be bf
       0.16830417844700574 -0.11930418495165504
0000a0 6b b9 15 72 4e 19 9b bf 2b 0a 76 4a 55 54 b1 bf
       -0.02646372386282662 -0.06769307201288004
0000b0 e1 e2 1d a0 86 e6 99 3f 6c 83 6b f3 9f 50 a8 bf
       0.025293448946714817 -0.047490118469574266
0000c0 05 df d5 e6 92 ae a2 3f 16 ff a2 2c 16 96 c4 3f
       0.03648814266028747 0.16083028010870554
0000d0 fe 6e c8 c7 44 60 a9 3f 70 8d b5 94 83 7f ba 3f
       0.04956259669071804 0.10350820904345936
0000e0 60 2c 26 f2 0d 77 bb 3f bf 93 d1 e0 6a 34 c2 3f
       0.1072853771385538 0.14222465493653932
0000f0 06 66 89 0f 77 be b5 3f b1 5e 76 8a 09 c7 c1 3f
       0.08493751649202616 0.13888663540705218
000100 57 70 79 18 9e bc a9 3f f2 52 b3 69 33 3a b4 3f
       0.050267162788003965 0.07901307421282036
000110 b3 51 ab 42 fb e8 bb 3f 4e 36 8e 03 01 bd aa bf
       0.10902376535097495 -0.05222323578264519
000120 74 c6 83 8a 3b eb c3 bf 94 cf c0 eb a2 2c c9 bf
       -0.15561622870841385 -0.19667469512353064
000130 14 5f 37 e1 5e a3 ac 3f b0 a7 ee 1d 18 cf 60 3f
       0.0559339189455256 0.002051875213017383
000140 8b c2 85 fd 06 49 c9 3f 95 15 49 93 0c a5 b3 3f
       0.1975411165144759 0.07673719974362421
000150 45 e0 04 d4 97 a7 b2 3f 2d 38 95 ca 68 1b c9 bf
       0.07286976743932978 -0.1961489667104969
000160 4a 98 b2 f9 03 a1 c0 3f 26 05 c4 7f 35 cb c0 3f
       0.12991380398051638 0.13120144594726318
000170 a1 c9 b5 57 68 4d ad bf 1b da 4f c6 ab 91 ba bf
       -0.057231198031235005 -0.10378526298141148
000180 59 a5 de 22 b3 43 bb 3f e2 f9 a5 f4 d9 31 a0 3f
       0.10650176621733944 0.0316303359168051
000190 f4 b1 15 1c b7 c6 bf bf d6 54 43 ad ef f0 7d bf
       -0.12412590442335852 -0.007309852826627513
0001a0 e8 e4 34 63 88 05 c2 3f 01 ac dc c5 00 74 b4 3f
       0.14079384655068528 0.07989506559958671
0001b0 9f 56 cb db 02 d4 8c bf 50 4e d1 89 8e 1b ba 3f
       -0.01407625420817321 0.1019829832524064
0001c0 b3 18 02 8f 6e 62 bb bf 52 22 4a d8 2c d2 c3 3f
       -0.10697070113573907 0.15485153733267737
0001d0 9a 4a c9 4a 01 d0 c8 bf f6 5a 9e 28 b2 2b 91 3f
       -0.19384781028437176 0.016768249253426647
0001e0 e2 10 c9 65 4a ce 9b bf 38 89 d2 9c a9 d3 bd bf
       -0.02715412374733795 -0.11651096419021634
0001f0 a0 97 c7 de c6 94 6a 3f 06 f4 40 6b 21 02 b6 3f
       0.0032447704490889545 0.08597000950335607
000200 14 00 4c 65 dc ea c3 bf 56 e2 77 73 23 d8 b5 bf
       -0.15560488649498494 -0.08532926148462514
000210 6e 0e 5e 82 77 53 b9 3f f3 56 f1 2a f6 b5 bf bf
       0.09892985279844321 -0.12387026356131141
000220 b6 8b 56 a1 5e 3d b8 3f 3e 6c 7b 25 7f 31 ae 3f
       0.09468642653386791 0.058971379590467596
000230 a7 e0 4d ee 73 32 a3 3f a7 32 05 c0 2d 66 b2 bf
       0.03749429973589829 -0.0718716234016009
000240 c2 fb 2b 0b 7a 6c bd bf 22 37 0b 11 a0 d0 bf bf
       -0.11493647358655237 -0.12427711883648532
000250 86 e3 e5 58 1c b6 c2 bf c6 ac 9b 05 dd cb a9 3f
       -0.14618257847521593 0.050383479055960786
000260 56 6b ca 72 d7 07 c1 bf fc 9d b1 d4 9d 11 c4 3f
       -0.1330518064977137 0.15678761372986105
000270 16 df e1 7b 25 4a 94 3f c8 c4 37 d7 ea d7 c1 3f
       0.019814096151519932 0.13940177448924929
000280 d8 bd 18 c8 e7 25 a0 bf 49 17 c2 59 5f e7 9a 3f
       -0.03153919522844334 0.026273240903285786
000290 78 a0 9c 11 52 d4 94 bf 66 f7 10 7c 5b 8e c6 bf
       -0.02034118874067345 -0.17621940191196045
0002a0 f8 f4 cf 5e 76 45 c0 3f a5 51 fa 97 5b 59 93 3f
       0.1271198237372244 0.018895560408581997
0002b0 52 bc e8 b4 b5 54 9b bf 60 08 e5 53 2f 85 c3 bf
       -0.026690329710785506 -0.15250197979372881
0002c0 cb cf 88 f5 e9 54 7b bf 79 fc af 11 db df 3c bf
       -0.006672777083213742 -0.0004405889355325109
0002d0 2d 6e b1 56 ef 15 c8 3f 7a b8 3f 8f 23 92 ac bf
       0.18816940053044232 -0.05580245135921387
0002e0 2e 61 66 4d dc 50 6f bf 00 48 e8 56 0c 9a a4 3f
       -0.0038227370052476206 0.04023779450302811
0002f0 bc 44 34 82 36 7d c2 3f 73 9c 70 7a 02 18 be bf
       0.14444619519830393 -0.1175538586545473
000300 be fa 37 bd 92 a8 9c bf f6 17 92 7c f3 75 c8 bf
       -0.02798680572413547 -0.19109958250572817
000310 77 44 bb 78 31 8a c1 bf e0 bd 2a 3b aa 58 ab 3f
       -0.13702982325642996 0.05341083500149657
000320 8d 91 9f 66 1f 2d c7 bf 1d eb bc 9d 20 73 8f bf
       -0.1810645342913059 -0.015356306852131458
000330 d0 d6 69 6c 18 22 b5 3f c4 ad 9e 9c db 37 c4 bf
       0.08255150458156923 -0.15795464656308245
000340 bb 0f 94 92 44 f9 ab 3f af 43 65 ab d5 c7 c1 bf
       0.05463613786017115 -0.1389109694378283
000350 31 8c eb d2 ce 3e b3 bf 34 90 27 cc 50 be ae bf
       -0.07517712258736321 -0.06004574291344547
000360 09 9a c9 af 76 b2 bc 3f c9 df 82 e1 fa c7 b7 bf
       0.11209813872992681 -0.09289520269055553
000370 6e df 4c 02 30 ef b0 3f a9 d8 ed 4d 0e bd c0 bf
       0.06614971214446339 -0.13076952748423779
000380 93 95 a1 24 74 b5 b0 bf 52 14 bb 26 f1 82 bb bf
       -0.06526876348796966 -0.10746676631522803
000390 56 3c ef ca 5d 3f b1 3f ea fd 14 f8 5e c3 af 3f
       0.06737314419227522 0.062037437232443995
0003a0 ac 71 dc a7 2f 7c 9a bf 4d e1 10 71 21 58 c3 bf
       -0.025864357586316153 -0.15112703343198533
0003b0 3b e3 ff a3 b4 cc a2 3f 25 f3 19 42 a5 4b b0 3f
       0.03671802999446646 0.06365425933649911
0003c0 18 da cb 1d bd f9 c9 3f 9a 08 50 e3 a8 ee af 3f
       0.20293392138383193 0.062367704151271755
0003d0 fb d3 50 0b cd c0 c0 3f 26 c4 1c e7 24 a9 bf bf
       0.13088381817365743 -0.12367468492881581
0003e0 8f 50 e1 90 6e cb c1 bf f7 00 3d df 15 37 bc 3f
       -0.13902074884629598 0.11021553707269392
0003f0 39 92 ca 09 78 88 c3 bf 83 ad 7d 13 70 0d 9c 3f
       -0.1526022002991725 0.027395011129028212
000400 a9 1d 55 8a d8 70 b9 3f e9 92 46 a2 51 59 ba 3f
       0.09937814118631273 0.10292539798554014
000410 24 f6 91 9b b5 52 ac 3f 44 20 d7 b6 c4 8c 91 bf
       0.055318522682665155 -0.017138551387489778
000420 12 66 dd bd af 11 c3 3f 22 40 e4 18 80 f6 b1 3f
       0.1489772488665016 0.07016754729943434
000430 dd 55 11 50 37 c5 b1 3f d9 0a 86 cc 77 20 89 bf
       0.0694155283429931 -0.0122689589777613
000440 30 90 2e 3f bb c2 c0 3f c1 7a 8b 7b 20 24 bc bf
       0.13094273171475512 -0.10992625251990785
000450 ce 08 9f 17 0f d8 b7 3f 73 bd b5 57 7b 01 84 bf
       0.09314054800691737 -0.009768451322740934
000460 34 cd 00 85 85 fa b5 3f 83 19 bd 2b 9c da c7 3f
       0.08585390565058476 0.18635894904782555
000470 c7 ec 02 b5 45 f0 c0 3f bb b1 d3 d2 5a 9c c4 bf
       0.1323325284809924 -0.16102156919749952
000480 e1 70 ba 93 3c 2c bd 3f 5c 74 3a 1c 49 a0 ba bf
       0.11395624739310818 -0.10400826396149071
000490 6d b2 14 ce 09 af 7d bf 81 12 2b 52 a1 95 c3 bf
       -0.007247007656854804 -0.15300385009881626
0004a0 7d f5 98 dd cf 7d aa bf 8e 79 41 3f d0 e3 c6 3f
       -0.0517411191944843 0.17882731522236067
0004b0 f1 e3 84 0b af 6b ae bf 6f 43 1f 68 ae 35 70 bf
       -0.05941531196226169 -0.003957444454457767
0004c0 87 42 70 99 19 11 b7 3f 6c 8b 04 44 04 bc c7 3f
       0.09010467525537012 0.18542531319789235
0004d0 68 1d ca a7 a0 7e 9a 3f 2e 56 97 61 d3 35 5b bf
       0.02587367080789474 -0.001660782267540194
0004e0 1e 67 ad b7 fd 48 94 3f 5b c3 01 ec 44 37 b2 3f
       0.019809688888336223 0.07115584146391767
0004f0 07 f0 df ab 61 5b c0 3f e5 7d 68 dc 29 0f c7 bf
       0.1277887429458817 -0.18015025388829922
000500 c8 e4 f5 94 6b 67 b3 bf a9 b1 1d 79 a9 a2 c3 bf
       -0.07579681765300272 -0.1534015504252129
000510 fd 71 da b7 47 dd ba bf 4d bb c2 d9 ac c4 c2 bf
       -0.10493896711927415 -0.14662705071301688
000520 f7 66 47 b2 dd 3c c0 3f 92 aa 1e 6e d5 93 cd 3f
       0.12685748295807972 0.23107402684157258
000530 67 42 3c 70 fa 35 99 3f 3a b7 70 3a 48 e5 b5 bf
       0.024619973278336007 -0.08552981783642802
000540 48 24 4a 1b 7c d2 7d 3f 94 57 90 d0 b4 08 bf 3f
       0.007280812064558502 0.12122659770861183
000550 eb 3f 87 f0 9a d5 b1 3f 87 d8 ae b8 75 69 c7 bf
       0.06966560718797125 -0.18290587918972198
000560 70 b8 8b b1 19 e1 b6 bf 5b a1 bc 3f ed 39 c4 bf
       -0.08937225899328083 -0.15801778423452614
000570 e3 33 61 51 33 c4 a1 bf be 12 aa dd 0e 25 bf bf
       -0.0347000157204105 -0.12165921127059229
000580 56 fd da 6d 1a 8f bc bf 2b cd 9f d9 42 90 aa bf
       -0.1115585821344117 -0.051881875100571705
000590 aa 52 76 bc a2 97 ad bf 56 48 0d 0f f0 32 a5 3f
       -0.05779751349033309 0.041404249036205584
0005a0 aa fb 02 d3 55 2f c7 bf 29 0d 5b 9b c1 55 57 bf
       -0.1811320572214446 -0.001424254483411167
0005b0 9c f4 66 fc 93 e0 80 3f 68 d9 3f cb 64 87 9b bf
       0.008240848674967709 -0.026883673577651562
0005c0 de 31 6f 6d f5 3c c2 3f 11 c8 4a 86 53 db c1 bf
       0.1424853119227824 -0.139505806515047
0005d0 55 17 d3 22 79 40 b1 bf 7e 20 ab 8d 55 fc c7 3f
       -0.06739003277024598 0.18738812844663139
0005e0 c0 b8 99 b7 55 3c be 3f 87 23 6a ee e0 74 a8 3f
       0.11810813648637275 0.04776671324095277
0005f0 78 42 5a 01 fd 75 bd 3f a0 0b 51 76 75 30 c4 bf
       0.11508160861036199 -0.15772884633233009
000600 6f 5e 52 b2 6a b8 90 bf b9 79 83 2d 02 99 aa bf
       -0.016328494199653706 -0.05194861226640363
000610 4d e2 c2 83 ee a0 b7 bf 23 a3 8a ec 9b 1c c0 bf
       -0.09229937283351682 -0.12587307977562387
000620 a1 db 7b 81 0f 23 b0 3f cd 7a c4 87 8b ee b7 3f
       0.06303498183466029 0.09348365845333291
000630 19 a3 eb c3 90 11 c2 3f c5 e0 8c ff 37 93 ad 3f
       0.14116105619839273 0.05776381487379604
000640 83 e9 60 d3 8a 8d c2 3f ba bb c3 eb 9f d2 c2 bf
       0.1449445278283968 -0.1470527554697279
000650 f2 4c 98 cb 0a 03 bd bf 3d 0d 61 00 01 73 81 bf
       -0.11332766981677247 -0.008520133804387537
000660 14 4a db da 93 a9 ab 3f 51 f2 b0 2b 54 3e 90 bf
       0.05402814909543366 -0.01586276547117144
000670 0d e1 fe 04 7f 82 92 3f 60 c0 3a 83 ce 33 c0 bf
       0.01807592838278631 -0.1265810147065194
000680 71 2d 92 44 14 46 a0 3f d5 8d 84 21 d8 53 8b bf
       0.03178466164635097 -0.013343513987428427
000690 73 19 7a 6a 66 7e c8 bf cb 81 0c ab 71 ec a3 3f
       -0.19135742377347817 0.03891329968451237
0006a0 02 bb 3e 70 46 2c c3 3f 62 5f 9e a5 9a cb ba bf
       0.14978867035593885 -0.10466925185607814
0006b0 ce d7 d3 be db 94 c5 3f 91 a7 01 a7 a1 92 af 3f
       0.16860529725789636 0.06166558421757807
0006c0 18 d1 e6 4b 09 07 81 3f 81 ab 30 2e 0b 07 bf 3f
       0.008314201954683173 0.12120122792900469
0006d0 20 2e 4e cd 4e 5f b6 3f bc bf a3 fe 7e bf ad bf
       0.08739178192461639 -0.05810162409204575
0006e0 9c 71 7f b2 ee 06 af 3f 84 30 f3 44 d2 3d c4 bf
       0.06059976509979778 -0.15813663832375735
0006f0 7b cb 45 3c 9c 41 a2 bf 5b 22 1f 53 6f 63 c0 bf
       -0.03565681682348206 -0.12803451117203477
000700 49 23 56 42 40 68 85 bf 85 42 23 7c ce 66 bf bf
       -0.010452749275616251 -0.12266245394426718
000710 f6 2b 31 cf 90 fa 9d 3f 43 23 97 44 12 86 bf bf
       0.02927614464378433 -0.1231395165879237
000720 cb 95 b0 a4 f3 f9 a1 bf 57 95 0c 32 66 4a 72 3f
       -0.03511010537503586 0.004465483857335548
000730 be 9d b2 69 69 24 b6 3f ea bf b4 7f 10 c9 96 bf
       0.08649309950361947 -0.022251375002440378
000740 00 16 ad cd da 4c 93 bf 9a 0c 3f af c6 41 b0 bf
       -0.018847864917253432 -0.0635036638114336
000750 63 e5 30 66 71 9d b3 bf 02 df 2c 0c 62 b3 b7 3f
       -0.07662113900086846 0.09258091733215326
000760 28 79 54 09 63 3f c7 3f be 1e d4 ee 49 3e be bf
       0.1816219134861481 -0.11813795166755889
000770 d0 4f 12 c8 ca 39 c7 bf 33 67 e3 08 46 bf bc bf
       -0.18145117539518063 -0.11229360310553886
000780 5a c1 26 b2 77 c0 c2 3f 37 bf 60 4a db 30 c3 bf
       0.14649864386366113 -0.14992848521932853
000790 21 7a c7 88 2d ce b0 3f 70 74 bc 2e 5d 43 c6 3f
       0.06564602460228076 0.17393078596151978
0007a0 2c 6a 51 a2 ef bc ae bf 56 23 8d cb 00 89 b8 3f
       -0.06003521782323093 0.09584050149454745
0007b0 dc 95 4c 23 53 00 b8 3f eb ff b5 d7 7a f1 c2 bf
       0.09375495540424289 -0.14799438030968246
0007c0 0f 7d bc 8e 0f e4 b1 3f 69 1e 8f ea 13 b3 b7 3f
       0.06988618120930233 0.09257626034297463
0007d0 cf 86 f7 95 7f fc c1 bf 85 12 23 2b 0a 09 c0 bf
       -0.140518139101053 -0.12527587038325208
0007e0 60 c3 3f f7 2f b7 bf bf a6 42 eb b7 15 87 ab bf
       -0.1238889673839032 -0.053764990521476805
0007f0 21 a5 d7 f1 b6 fb bb 3f d2 23 8e 7e 51 12 b4 bf
       0.10930961040834976 -0.07840451564528841

layers.6.bias f8 [50]
000000 35 74 06 80 d2 7e aa bf b4 49 f3 7f 58 79 aa bf
       -0.05174882710273502 -0.05170704423803177
000010 eb 04 fa ff 67 dd c3 bf f7 04 03 40 2d 37 c6 bf
       -0.1551942825208593 -0.17355886102271942
000020 65 d5 f1 7f 27 7a a3 bf 8b e9 13 00 c9 79 a0 3f
       -0.03804133831810467 0.03217914701413623
000030 f2 e1 07 40 01 6c c0 3f 44 ed 19 00 31 86 ac 3f
       0.1282960474634503 0.05571129919277465
000040 47 f2 de 3f 56 70 b1 bf 79 a7 09 80 96 e1 b4 3f
       -0.0681203752455498 0.08156719804688163
000050 95 a9 ef ff c9 6a bf 3f d8 0b fa ff 45 5f 9d 3f
       0.1227232217640107 0.02868375182016422
000060 0c 24 0d 80 c7 21 b6 3f 1f 3b f6 02 f8 5d 68 3f
       0.08645293117764669 0.0029744953132601194
000070 02 71 e2 3f 7f 57 b2 bf 41 68 14 00 35 94 b5 bf
       -0.07164759931260181 -0.08429270984598337
000080 26 d3 fe 9f c0 d7 bd bf eb 4f 02 40 4a 9c b5 bf
       -0.11657337099206852 -0.08441604674072749
000090 33 aa 38 00 44 ec 87 3f 90 13 e4 9f 97 59 bd bf
       0.011681109673266387 -0.11464831975543022
0000a0 71 e8 c7 f9 1f e7 48 bf d2 39 03 80 de 1e a8 3f
       -0.0007599741107349301 0.047110512854135714
0000b0 9a 15 f3 3f 1a 48 c4 3f da 29 5e ff c4 36 92 3f
       0.15845039484535733 0.017787054144301574
0000c0 2e 58 06 00 63 3b 91 3f c3 2e 13 80 e7 91 c5 bf
       0.016828104855072627 -0.16851514581354907
0000d0 17 34 0c 20 cf 6c c0 bf ca 40 da 7f c5 58 b4 bf
       -0.1283205896837962 -0.07947954532051252
0000e0 57 4a 01 00 d7 55 c3 3f a7 56 04 c0 8f b5 c6 3f
       0.15105712414022562 0.17741581798388958
0000f0 f5 de 08 60 7e 9b bb bf 10 9c 0c 00 cf 6f a2 bf
       -0.10784139484973905 -0.036009281879437194
000100 2c 85 1c 00 c2 a2 a2 3f e3 5a 0b e0 52 23 be bf
       0.0363979935775752 -0.1177264973624506
000110 73 af 08 a0 40 ea b6 bf 94 8b 05 00 f5 4b c4 bf
       -0.08951190859869289 -0.15856802464540165
000120 53 f5 2c 20 82 b0 bb bf 42 76 f0 9f 3a 98 b0 bf
       -0.10816205297029073 -0.06482283024566818
000130 d1 b5 f6 7f 0c 20 c4 bf 08 8a 09 80 d4 ef b9 3f
       -0.15722805259922137 0.10131576658162811
000140 30 fa 15 ff bf 48 7f bf 23 e9 6e 01 18 9e 8e bf
       -0.007637739168215904 -0.014949977439631617
000150 4c c0 01 00 ce 27 b8 bf 84 11 07 20 0d 90 b0 bf
       -0.0943573713318539 -0.06469804794239137
000160 f6 ba ea ff 49 d8 ba 3f 4e ba e7 7f a4 b1 b1 3f
       0.10486280916186871 0.06911686060605257
000170 56 3c fe ff b6 a6 c6 bf 31 24 f7 ff 8f 3f 94 3f
       -0.17696273326552853 0.01977372169293207
000180 a1 8f f6 7f f8 53 b7 3f e0 6b fc 9f e2 63 c1 bf
       0.09112504123782951 -0.13586075603311

layers.7.weight f8 [50]
000000 64 b8 5b 8e 37 0d f1 3f 97 6a 91 7c d0 38 f0 3f
       1.0657268105383304 1.0138707033098961
000010 e3 2e a5 72 84 07 f5 3f f1 f6 c2 b4 81 07 f5 3f
       1.3143352964715909 1.3143326817511787
000020 d4 26 be 85 51 e5 f1 3f 21 f8 dd d9 37 1e f0 3f
       1.1184859489753096 1.0073774824554749
000030 73 4d 04 94 a4 2d f1 3f d6 fa 8d 92 9c 72 f1 3f
       1.073643282118465 1.0904813504018214
000040 39 c5 9d 23 4e e9 ee 3f 4c ba 22 38 c6 64 f0 3f
       0.9659796424513508 1.02460309913626
000050 8c f9 60 fb 0c 72 ef 3f e6 1c b7 19 d6 df f0 3f
       0.9826722059004154 1.0546475414756116
000060 76 d5 70 5b 3b c4 f0 3f ef 18 63 0b 3d e6 f0 3f
       1.0479081699280335 1.056210560303551
000070 b3 ad fa 7c e7 c7 f0 3f 08 bc 6b f6 a3 fa f2 3f
       1.0488047487259393 1.186191523152731
000080 ee 48 cf c9 f4 71 f0 3f 58 40 a4 84 10 16 f0 3f
       1.0278213389579451 1.0053868466675535
000090 f2 96 1c 72 4f 92 f0 3f cf 58 1d c4 67 ec ed 3f
       1.035720296620124 0.935108073269271
0000a0 af cc d0 f5 b2 56 ee 3f df 98 06 1d 73 66 ee 3f
       0.9480833817564384 0.9500060622129033
0000b0 86 53 cb fe d7 99 f1 3f f4 8a 76 2a c3 33 f0 3f
       1.1000595047855497 1.0126372965539163
0000c0 27 2e 0d c8 c4 eb f0 3f 08 cb 63 47 a5 7f ef 3f
       1.0575607122908737 0.9843317407924994
0000d0 c4 73 9c 29 1a c4 f0 3f 2e 55 7e b5 e8 44 f2 3f
       1.047876513045808 1.1418234910573335
0000e0 ab ea 46 fd 17 83 f5 3f b1 44 d0 2c 8f 63 f1 3f
       1.3445052999146963 1.0868064642457222
0000f0 a3 ce 71 6a 69 b7 f0 3f 6a 2c dd 92 9e de f0 3f
       1.0447782667151067 1.0543504464028737
000100 3a af 7f e2 0c 4d ee 3f 82 cd b5 1e 32 b4 f2 3f
       0.946905557995229 1.1689931106201077
000110 21 f4 2b 9a 65 c9 ef 3f e2 08 85 76 89 5d ea 3f
       0.9933345805326362 0.8239180865132563
000120 ed a6 8b e6 eb 5a ef 3f ba 2b 4b 1f 4b 3b ef 3f
       0.9798488142816645 0.9759879695133045
000130 83 29 57 18 0a 9b f2 3f 1e 0a 7e 39 97 2a f1 3f
       1.1628514242935075 1.0728981252474408
000140 af 98 fd c2 42 44 f0 3f 16 9f 23 6e 5e ec ee 3f
       1.0166652314015143 0.9663536215930175
000150 da 38 3d 3c de 6d ef 3f c1 db e3 0e a6 02 f3 3f
       0.9821616341157793 1.188146646656364
000160 ff 67 50 9f 9a 94 ed 3f e7 9a 18 60 76 6f ee 3f
       0.9243901359179744 0.9511062504651279
000170 c9 d4 c8 b0 b5 4d f0 3f 10 03 85 aa 9e d3 f0 3f
       1.0189721017498405 1.0516649876519217
000180 ec 34 bf 1a ed 3a f0 3f d6 ce 17 f5 90 c5 ee 3f
       1.01438627670296 0.9616169726345685
